module {
  tt.func public @triton__0d1d2d3de4de(%arg0: !tt.ptr<f32, 1> {tt.divisibility = 16 : i32}, %arg1: !tt.ptr<f32, 1> {tt.divisibility = 16 : i32}, %arg2: !tt.ptr<f32, 1> {tt.divisibility = 16 : i32}, %arg3: i32 {tt.divisibility = 16 : i32, tt.max_divisibility = 16 : i32}, %arg4: i32 {tt.divisibility = 16 : i32, tt.max_divisibility = 16 : i32}) attributes {noinline = false} {
    %c2304_i32 = arith.constant 2304 : i32
    %c2048_i32 = arith.constant 2048 : i32
    %c0_i32 = arith.constant 0 : i32
    %cst = arith.constant dense<1.000000e+00> : tensor<1x2048xf32>
    %cst_0 = arith.constant dense<9.99999974E-6> : tensor<1x1xf32>
    %cst_1 = arith.constant dense<2.304000e+03> : tensor<1x1xf32>
    %cst_2 = arith.constant dense<2304> : tensor<1x2048xi32>
    %cst_3 = arith.constant dense<0.000000e+00> : tensor<1x2048xf32>
    %0 = tt.get_program_id x : i32
    %1 = tt.make_range {end = 2048 : i32, start = 0 : i32} : tensor<2048xi32>
    %2 = tt.expand_dims %1 {axis = 0 : i32} : (tensor<2048xi32>) -> tensor<1x2048xi32>
    %3 = arith.muli %0, %c2304_i32 : i32
    %4 = tt.splat %3 : (i32) -> tensor<1x2048xi32>
    %5 = tt.splat %arg0 : (!tt.ptr<f32, 1>) -> tensor<1x2048x!tt.ptr<f32, 1>>
    %6 = scf.for %arg5 = %c0_i32 to %c2304_i32 step %c2048_i32 iter_args(%arg6 = %cst_3) -> (tensor<1x2048xf32>)  : i32 {
      %16 = tt.splat %arg5 : (i32) -> tensor<1x2048xi32>
      %17 = arith.addi %16, %2 : tensor<1x2048xi32>
      %18 = arith.cmpi slt, %17, %cst_2 : tensor<1x2048xi32>
      %19 = arith.addi %17, %4 : tensor<1x2048xi32>
      %20 = tt.addptr %5, %19 : tensor<1x2048x!tt.ptr<f32, 1>>, tensor<1x2048xi32>
      %21 = tt.load %20, %18, %cst_3 {cache = 1 : i32, evict = 3 : i32, isVolatile = false} : tensor<1x2048xf32>
      %22 = arith.mulf %21, %21 : tensor<1x2048xf32>
      %23 = arith.addf %arg6, %22 : tensor<1x2048xf32>
      %24 = arith.select %18, %23, %arg6 : tensor<1x2048xi1>, tensor<1x2048xf32>
      scf.yield %24 : tensor<1x2048xf32>
    }
    %7 = "tt.reduce"(%6) <{axis = 1 : i32}> ({
    ^bb0(%arg5: f32, %arg6: f32):
      %16 = arith.addf %arg5, %arg6 : f32
      tt.reduce.return %16 : f32
    }) : (tensor<1x2048xf32>) -> tensor<1xf32>
    %8 = tt.expand_dims %7 {axis = 1 : i32} : (tensor<1xf32>) -> tensor<1x1xf32>
    %9 = arith.muli %0, %c2304_i32 : i32
    %10 = tt.splat %9 : (i32) -> tensor<1x2048xi32>
    %11 = tt.splat %arg0 : (!tt.ptr<f32, 1>) -> tensor<1x2048x!tt.ptr<f32, 1>>
    %12 = tt.splat %arg1 : (!tt.ptr<f32, 1>) -> tensor<1x2048x!tt.ptr<f32, 1>>
    %13 = arith.divf %8, %cst_1 : tensor<1x1xf32>
    %14 = arith.addf %13, %cst_0 : tensor<1x1xf32>
    %15 = tt.splat %arg2 : (!tt.ptr<f32, 1>) -> tensor<1x2048x!tt.ptr<f32, 1>>
    scf.for %arg5 = %c0_i32 to %c2304_i32 step %c2048_i32  : i32 {
      %16 = tt.splat %arg5 : (i32) -> tensor<1x2048xi32>
      %17 = arith.addi %16, %2 : tensor<1x2048xi32>
      %18 = arith.cmpi slt, %17, %cst_2 : tensor<1x2048xi32>
      %19 = arith.addi %17, %10 : tensor<1x2048xi32>
      %20 = tt.addptr %11, %19 : tensor<1x2048x!tt.ptr<f32, 1>>, tensor<1x2048xi32>
      %21 = tt.load %20, %18, %cst_3 {cache = 1 : i32, evict = 2 : i32, isVolatile = false} : tensor<1x2048xf32>
      %22 = tt.addptr %12, %17 : tensor<1x2048x!tt.ptr<f32, 1>>, tensor<1x2048xi32>
      %23 = tt.load %22, %18, %cst_3 {cache = 1 : i32, evict = 3 : i32, isVolatile = false} : tensor<1x2048xf32>
      %24 = tt.extern_elementwise %14 {libname = "libdevice", libpath = "/home/zeus/miniconda3/envs/cloudspace/lib/python3.10/site-packages/triton/language/../third_party/cuda/lib/libdevice.10.bc", pure = true, symbol = "__nv_rsqrtf"} : (tensor<1x1xf32>) -> tensor<1x1xf32>
      %25 = tt.broadcast %24 : (tensor<1x1xf32>) -> tensor<1x2048xf32>
      %26 = arith.mulf %21, %25 : tensor<1x2048xf32>
      %27 = arith.addf %23, %cst : tensor<1x2048xf32>
      %28 = arith.mulf %26, %27 : tensor<1x2048xf32>
      %29 = tt.addptr %15, %19 : tensor<1x2048x!tt.ptr<f32, 1>>, tensor<1x2048xi32>
      tt.store %29, %28, %18 {cache = 1 : i32, evict = 1 : i32} : tensor<1x2048xf32>
    }
    tt.return
  }
}
