module {
  tt.func public @triton__0d1d2d3de(%arg0: !tt.ptr<f32, 1> {tt.divisibility = 16 : i32}, %arg1: !tt.ptr<f32, 1> {tt.divisibility = 16 : i32}, %arg2: !tt.ptr<bf16, 1> {tt.divisibility = 16 : i32}, %arg3: i32 {tt.divisibility = 16 : i32, tt.max_divisibility = 16 : i32}) attributes {noinline = false} {
    %cst = arith.constant dense<1.000000e+00> : tensor<128xf32>
    %cst_0 = arith.constant dense<0.000000e+00> : tensor<128xf32>
    %cst_1 = arith.constant dense<4> : tensor<128xi64>
    %cst_2 = arith.constant dense<2304> : tensor<128xi32>
    %c128_i32 = arith.constant 128 : i32
    %0 = tt.get_program_id x : i32
    %1 = arith.muli %0, %c128_i32 : i32
    %2 = tt.make_range {end = 128 : i32, start = 0 : i32} : tensor<128xi32>
    %3 = tt.splat %1 : (i32) -> tensor<128xi32>
    %4 = arith.addi %3, %2 : tensor<128xi32>
    %5 = arith.divsi %4, %cst_2 : tensor<128xi32>
    %6 = arith.remsi %4, %cst_2 : tensor<128xi32>
    %7 = arith.extsi %5 : tensor<128xi32> to tensor<128xi64>
    %8 = arith.cmpi slt, %7, %cst_1 : tensor<128xi64>
    %9 = tt.splat %arg0 : (!tt.ptr<f32, 1>) -> tensor<128x!tt.ptr<f32, 1>>
    %10 = tt.addptr %9, %4 : tensor<128x!tt.ptr<f32, 1>>, tensor<128xi32>
    %11 = tt.load %10, %8, %cst_0 {cache = 1 : i32, evict = 1 : i32, isVolatile = false} : tensor<128xf32>
    %12 = tt.splat %arg1 : (!tt.ptr<f32, 1>) -> tensor<128x!tt.ptr<f32, 1>>
    %13 = tt.addptr %12, %6 : tensor<128x!tt.ptr<f32, 1>>, tensor<128xi32>
    %14 = tt.load %13, %8, %cst_0 {cache = 1 : i32, evict = 3 : i32, isVolatile = false} : tensor<128xf32>
    %15 = arith.addf %14, %cst : tensor<128xf32>
    %16 = arith.mulf %11, %15 : tensor<128xf32>
    %17 = arith.select %8, %16, %cst_0 : tensor<128xi1>, tensor<128xf32>
    %18 = tt.splat %arg2 : (!tt.ptr<bf16, 1>) -> tensor<128x!tt.ptr<bf16, 1>>
    %19 = tt.addptr %18, %4 : tensor<128x!tt.ptr<bf16, 1>>, tensor<128xi32>
    %20 = arith.truncf %17 : tensor<128xf32> to tensor<128xbf16>
    tt.store %19, %20 {cache = 1 : i32, evict = 1 : i32} : tensor<128xbf16>
    tt.return
  }
}
