module {
  tt.func public @triton__0d1d2d3d4d5de6de(%arg0: !tt.ptr<f32, 1> {tt.divisibility = 16 : i32}, %arg1: !tt.ptr<bf16, 1> {tt.divisibility = 16 : i32}, %arg2: !tt.ptr<f32, 1> {tt.divisibility = 16 : i32}, %arg3: !tt.ptr<f32, 1> {tt.divisibility = 16 : i32}, %arg4: !tt.ptr<f32, 1> {tt.divisibility = 16 : i32}, %arg5: i32 {tt.divisibility = 16 : i32, tt.max_divisibility = 16 : i32}, %arg6: i32 {tt.divisibility = 16 : i32, tt.max_divisibility = 16 : i32}) attributes {noinline = false} {
    %c1024_i32 = arith.constant 1024 : i32
    %cst = arith.constant dense<0.000000e+00> : tensor<1x2048xbf16>
    %c2304_i32 = arith.constant 2304 : i32
    %c2048_i32 = arith.constant 2048 : i32
    %c0_i32 = arith.constant 0 : i32
    %cst_0 = arith.constant dense<-5.000000e-01> : tensor<1x1xf32>
    %cst_1 = arith.constant dense<9.99999974E-6> : tensor<1x1xf32>
    %cst_2 = arith.constant dense<2.304000e+03> : tensor<1x1xf32>
    %cst_3 = arith.constant dense<1.000000e+00> : tensor<1x2048xf32>
    %cst_4 = arith.constant dense<2304> : tensor<1x2048xi32>
    %cst_5 = arith.constant dense<0.000000e+00> : tensor<1x2048xf32>
    %0 = tt.get_program_id x : i32
    %1 = arith.cmpi slt, %0, %c1024_i32 : i32
    %2 = tt.splat %1 : (i1) -> tensor<1x1xi1>
    %3 = tt.make_range {end = 2048 : i32, start = 0 : i32} : tensor<2048xi32>
    %4 = tt.expand_dims %3 {axis = 0 : i32} : (tensor<2048xi32>) -> tensor<1x2048xi32>
    %5 = arith.muli %0, %c2304_i32 : i32
    %6 = tt.splat %5 : (i32) -> tensor<1x2048xi32>
    %7 = tt.splat %arg1 : (!tt.ptr<bf16, 1>) -> tensor<1x2048x!tt.ptr<bf16, 1>>
    %8 = tt.splat %1 : (i1) -> tensor<1x2048xi1>
    %9 = tt.splat %arg2 : (!tt.ptr<f32, 1>) -> tensor<1x2048x!tt.ptr<f32, 1>>
    %10 = tt.splat %arg3 : (!tt.ptr<f32, 1>) -> tensor<1x2048x!tt.ptr<f32, 1>>
    %11 = scf.for %arg7 = %c0_i32 to %c2304_i32 step %c2048_i32 iter_args(%arg8 = %cst_5) -> (tensor<1x2048xf32>)  : i32 {
      %27 = tt.splat %arg7 : (i32) -> tensor<1x2048xi32>
      %28 = arith.addi %27, %4 : tensor<1x2048xi32>
      %29 = arith.cmpi slt, %28, %cst_4 : tensor<1x2048xi32>
      %30 = arith.addi %28, %6 : tensor<1x2048xi32>
      %31 = tt.addptr %7, %30 : tensor<1x2048x!tt.ptr<bf16, 1>>, tensor<1x2048xi32>
      %32 = arith.andi %29, %8 : tensor<1x2048xi1>
      %33 = tt.load %31, %32, %cst {cache = 1 : i32, evict = 3 : i32, isVolatile = false} : tensor<1x2048xbf16>
      %34 = arith.extf %33 : tensor<1x2048xbf16> to tensor<1x2048xf32>
      %35 = tt.addptr %9, %28 : tensor<1x2048x!tt.ptr<f32, 1>>, tensor<1x2048xi32>
      %36 = tt.load %35, %29, %cst_5 {cache = 1 : i32, evict = 3 : i32, isVolatile = false} : tensor<1x2048xf32>
      %37 = tt.addptr %10, %30 : tensor<1x2048x!tt.ptr<f32, 1>>, tensor<1x2048xi32>
      %38 = tt.load %37, %32, %cst_5 {cache = 1 : i32, evict = 3 : i32, isVolatile = false} : tensor<1x2048xf32>
      %39 = arith.addf %36, %cst_3 : tensor<1x2048xf32>
      %40 = arith.mulf %34, %39 : tensor<1x2048xf32>
      %41 = arith.mulf %40, %38 : tensor<1x2048xf32>
      %42 = arith.addf %arg8, %41 : tensor<1x2048xf32>
      %43 = arith.select %32, %42, %arg8 : tensor<1x2048xi1>, tensor<1x2048xf32>
      scf.yield %43 : tensor<1x2048xf32>
    }
    %12 = "tt.reduce"(%11) <{axis = 1 : i32}> ({
    ^bb0(%arg7: f32, %arg8: f32):
      %27 = arith.addf %arg7, %arg8 : f32
      tt.reduce.return %27 : f32
    }) : (tensor<1x2048xf32>) -> tensor<1xf32>
    %13 = tt.expand_dims %12 {axis = 1 : i32} : (tensor<1xf32>) -> tensor<1x1xf32>
    %14 = tt.addptr %arg4, %0 : !tt.ptr<f32, 1>, i32
    %15 = tt.splat %14 : (!tt.ptr<f32, 1>) -> tensor<1x1x!tt.ptr<f32, 1>>
    %16 = tt.load %15, %2 {cache = 1 : i32, evict = 3 : i32, isVolatile = false} : tensor<1x1xf32>
    %17 = arith.muli %0, %c2304_i32 : i32
    %18 = tt.splat %17 : (i32) -> tensor<1x2048xi32>
    %19 = tt.splat %arg0 : (!tt.ptr<f32, 1>) -> tensor<1x2048x!tt.ptr<f32, 1>>
    %20 = tt.splat %1 : (i1) -> tensor<1x2048xi1>
    %21 = tt.splat %arg1 : (!tt.ptr<bf16, 1>) -> tensor<1x2048x!tt.ptr<bf16, 1>>
    %22 = tt.splat %arg2 : (!tt.ptr<f32, 1>) -> tensor<1x2048x!tt.ptr<f32, 1>>
    %23 = tt.splat %arg3 : (!tt.ptr<f32, 1>) -> tensor<1x2048x!tt.ptr<f32, 1>>
    %24 = arith.divf %16, %cst_2 : tensor<1x1xf32>
    %25 = arith.addf %24, %cst_1 : tensor<1x1xf32>
    %26 = arith.mulf %13, %cst_0 : tensor<1x1xf32>
    scf.for %arg7 = %c0_i32 to %c2304_i32 step %c2048_i32  : i32 {
      %27 = tt.splat %arg7 : (i32) -> tensor<1x2048xi32>
      %28 = arith.addi %27, %4 : tensor<1x2048xi32>
      %29 = arith.cmpi slt, %28, %cst_4 : tensor<1x2048xi32>
      %30 = arith.addi %28, %18 : tensor<1x2048xi32>
      %31 = tt.addptr %19, %30 : tensor<1x2048x!tt.ptr<f32, 1>>, tensor<1x2048xi32>
      %32 = arith.andi %29, %20 : tensor<1x2048xi1>
      %33 = tt.load %31, %32, %cst_5 {cache = 1 : i32, evict = 2 : i32, isVolatile = false} : tensor<1x2048xf32>
      %34 = tt.addptr %21, %30 : tensor<1x2048x!tt.ptr<bf16, 1>>, tensor<1x2048xi32>
      %35 = tt.load %34, %32, %cst {cache = 1 : i32, evict = 2 : i32, isVolatile = false} : tensor<1x2048xbf16>
      %36 = arith.extf %35 : tensor<1x2048xbf16> to tensor<1x2048xf32>
      %37 = tt.addptr %22, %28 : tensor<1x2048x!tt.ptr<f32, 1>>, tensor<1x2048xi32>
      %38 = tt.load %37, %29, %cst_5 {cache = 1 : i32, evict = 3 : i32, isVolatile = false} : tensor<1x2048xf32>
      %39 = tt.addptr %23, %30 : tensor<1x2048x!tt.ptr<f32, 1>>, tensor<1x2048xi32>
      %40 = tt.load %39, %32, %cst_5 {cache = 1 : i32, evict = 2 : i32, isVolatile = false} : tensor<1x2048xf32>
      %41 = arith.addf %38, %cst_3 : tensor<1x2048xf32>
      %42 = arith.mulf %36, %41 : tensor<1x2048xf32>
      %43 = tt.extern_elementwise %25 {libname = "libdevice", libpath = "/home/zeus/miniconda3/envs/cloudspace/lib/python3.10/site-packages/triton/language/../third_party/cuda/lib/libdevice.10.bc", pure = true, symbol = "__nv_rsqrtf"} : (tensor<1x1xf32>) -> tensor<1x1xf32>
      %44 = tt.broadcast %43 : (tensor<1x1xf32>) -> tensor<1x2048xf32>
      %45 = arith.mulf %42, %44 : tensor<1x2048xf32>
      %46 = arith.addf %33, %45 : tensor<1x2048xf32>
      %47 = arith.mulf %43, %43 : tensor<1x1xf32>
      %48 = arith.mulf %47, %43 : tensor<1x1xf32>
      %49 = arith.mulf %26, %48 : tensor<1x1xf32>
      %50 = arith.divf %49, %cst_2 : tensor<1x1xf32>
      %51 = tt.broadcast %50 : (tensor<1x1xf32>) -> tensor<1x2048xf32>
      %52 = arith.mulf %51, %40 : tensor<1x2048xf32>
      %53 = arith.addf %46, %52 : tensor<1x2048xf32>
      %54 = arith.addf %53, %52 : tensor<1x2048xf32>
      tt.store %31, %54, %32 {cache = 1 : i32, evict = 1 : i32} : tensor<1x2048xf32>
    }
    tt.return
  }
}
