module {
  tt.func public @triton__0d1d2d3d4d5de6de(%arg0: !tt.ptr<bf16, 1> {tt.divisibility = 16 : i32}, %arg1: !tt.ptr<bf16, 1> {tt.divisibility = 16 : i32}, %arg2: !tt.ptr<bf16, 1> {tt.divisibility = 16 : i32}, %arg3: !tt.ptr<bf16, 1> {tt.divisibility = 16 : i32}, %arg4: !tt.ptr<f32, 1> {tt.divisibility = 16 : i32}, %arg5: i32 {tt.divisibility = 16 : i32, tt.max_divisibility = 16 : i32}, %arg6: i32 {tt.divisibility = 16 : i32, tt.max_divisibility = 16 : i32}) attributes {noinline = false} {
    %c8192_i32 = arith.constant 8192 : i32
    %c-1_i32 = arith.constant -1 : i32
    %cst = arith.constant dense<0.000000e+00> : tensor<1x2048xbf16>
    %cst_0 = arith.constant dense<true> : tensor<1x2048xi1>
    %c2048_i32 = arith.constant 2048 : i32
    %c0_i32 = arith.constant 0 : i32
    %cst_1 = arith.constant dense<-4096> : tensor<1x2048xi64>
    %cst_2 = arith.constant dense<1.000000e+00> : tensor<1x2048xf32>
    %cst_3 = arith.constant dense<1> : tensor<1x2048xi64>
    %cst_4 = arith.constant dense<5.000000e+01> : tensor<1x2048xf32>
    %cst_5 = arith.constant dense<6.250000e-02> : tensor<1x2048xf32>
    %cst_6 = arith.constant dense<0.000000e+00> : tensor<1x2048xf32>
    %cst_7 = arith.constant dense<8192> : tensor<1x2048xi32>
    %cst_8 = arith.constant dense<0xFF800000> : tensor<1x2048xf32>
    %0 = tt.get_program_id x : i32
    %1 = tt.make_range {end = 2048 : i32, start = 0 : i32} : tensor<2048xi32>
    %2 = tt.expand_dims %1 {axis = 0 : i32} : (tensor<2048xi32>) -> tensor<1x2048xi32>
    %3 = arith.remsi %0, %c8192_i32 : i32
    %4 = arith.muli %0, %c8192_i32 : i32
    %5 = tt.splat %4 : (i32) -> tensor<1x2048xi32>
    %6 = tt.splat %arg0 : (!tt.ptr<bf16, 1>) -> tensor<1x2048x!tt.ptr<bf16, 1>>
    %7 = arith.muli %3, %c-1_i32 : i32
    %8 = tt.splat %7 : (i32) -> tensor<1x2048xi32>
    %9 = tt.splat %arg1 : (!tt.ptr<bf16, 1>) -> tensor<1x2048x!tt.ptr<bf16, 1>>
    %10 = tt.splat %arg2 : (!tt.ptr<bf16, 1>) -> tensor<1x2048x!tt.ptr<bf16, 1>>
    %11 = scf.for %arg7 = %c0_i32 to %c8192_i32 step %c2048_i32 iter_args(%arg8 = %cst_8) -> (tensor<1x2048xf32>)  : i32 {
      %28 = tt.splat %arg7 : (i32) -> tensor<1x2048xi32>
      %29 = arith.addi %28, %2 : tensor<1x2048xi32>
      %30 = arith.cmpi slt, %29, %cst_7 : tensor<1x2048xi32>
      %31 = arith.addi %29, %5 : tensor<1x2048xi32>
      %32 = tt.addptr %6, %31 : tensor<1x2048x!tt.ptr<bf16, 1>>, tensor<1x2048xi32>
      %33 = tt.load %32, %30, %cst {cache = 1 : i32, evict = 2 : i32, isVolatile = false} : tensor<1x2048xbf16>
      %34 = arith.extf %33 : tensor<1x2048xbf16> to tensor<1x2048xf32>
      %35 = arith.mulf %34, %cst_5 : tensor<1x2048xf32>
      %36 = arith.divf %35, %cst_4 : tensor<1x2048xf32>
      %37 = tt.extern_elementwise %36 {libname = "libdevice", libpath = "/home/zeus/miniconda3/envs/cloudspace/lib/python3.10/site-packages/triton/language/../third_party/cuda/lib/libdevice.10.bc", pure = true, symbol = "__nv_tanhf"} : (tensor<1x2048xf32>) -> tensor<1x2048xf32>
      %38 = arith.mulf %37, %cst_4 : tensor<1x2048xf32>
      %39 = arith.addi %29, %8 : tensor<1x2048xi32>
      %40 = arith.extsi %39 : tensor<1x2048xi32> to tensor<1x2048xi64>
      %41 = arith.cmpi sge, %40, %cst_3 : tensor<1x2048xi64>
      %42 = arith.select %41, %cst_2, %cst_6 : tensor<1x2048xi1>, tensor<1x2048xf32>
      %43 = arith.cmpf une, %42, %cst_6 : tensor<1x2048xf32>
      %44 = arith.select %43, %cst_8, %42 : tensor<1x2048xi1>, tensor<1x2048xf32>
      %45 = arith.cmpi sle, %40, %cst_1 : tensor<1x2048xi64>
      %46 = arith.select %45, %cst_2, %cst_6 : tensor<1x2048xi1>, tensor<1x2048xf32>
      %47 = arith.cmpf une, %46, %cst_6 : tensor<1x2048xf32>
      %48 = arith.select %47, %cst_8, %46 : tensor<1x2048xi1>, tensor<1x2048xf32>
      %49 = arith.addf %44, %48 : tensor<1x2048xf32>
      %50 = arith.addf %38, %49 : tensor<1x2048xf32>
      %51 = arith.cmpf ogt, %arg8, %50 : tensor<1x2048xf32>
      %52 = arith.cmpf une, %arg8, %arg8 : tensor<1x2048xf32>
      %53 = arith.ori %51, %52 : tensor<1x2048xi1>
      %54 = arith.xori %53, %cst_0 : tensor<1x2048xi1>
      %55 = arith.andi %30, %54 : tensor<1x2048xi1>
      %56 = arith.select %55, %50, %arg8 : tensor<1x2048xi1>, tensor<1x2048xf32>
      %57 = tt.addptr %9, %31 : tensor<1x2048x!tt.ptr<bf16, 1>>, tensor<1x2048xi32>
      %58 = arith.truncf %50 : tensor<1x2048xf32> to tensor<1x2048xbf16>
      tt.store %57, %58, %30 {cache = 1 : i32, evict = 1 : i32} : tensor<1x2048xbf16>
      %59 = tt.addptr %10, %31 : tensor<1x2048x!tt.ptr<bf16, 1>>, tensor<1x2048xi32>
      %60 = arith.truncf %37 : tensor<1x2048xf32> to tensor<1x2048xbf16>
      tt.store %59, %60, %30 {cache = 1 : i32, evict = 1 : i32} : tensor<1x2048xbf16>
      scf.yield %56 : tensor<1x2048xf32>
    }
    %12 = "tt.reduce"(%11) <{axis = 1 : i32}> ({
    ^bb0(%arg7: f32, %arg8: f32):
      %28 = arith.cmpf ogt, %arg7, %arg8 : f32
      %29 = arith.cmpf une, %arg7, %arg7 : f32
      %30 = arith.ori %28, %29 : i1
      %31 = arith.select %30, %arg7, %arg8 : f32
      tt.reduce.return %31 : f32
    }) : (tensor<1x2048xf32>) -> tensor<1xf32>
    %13 = tt.expand_dims %12 {axis = 1 : i32} : (tensor<1xf32>) -> tensor<1x1xf32>
    %14 = arith.muli %0, %c8192_i32 : i32
    %15 = tt.splat %14 : (i32) -> tensor<1x2048xi32>
    %16 = tt.splat %arg1 : (!tt.ptr<bf16, 1>) -> tensor<1x2048x!tt.ptr<bf16, 1>>
    %17 = tt.broadcast %13 : (tensor<1x1xf32>) -> tensor<1x2048xf32>
    %18 = scf.for %arg7 = %c0_i32 to %c8192_i32 step %c2048_i32 iter_args(%arg8 = %cst_6) -> (tensor<1x2048xf32>)  : i32 {
      %28 = tt.splat %arg7 : (i32) -> tensor<1x2048xi32>
      %29 = arith.addi %28, %2 : tensor<1x2048xi32>
      %30 = arith.cmpi slt, %29, %cst_7 : tensor<1x2048xi32>
      %31 = arith.addi %29, %15 : tensor<1x2048xi32>
      %32 = tt.addptr %16, %31 : tensor<1x2048x!tt.ptr<bf16, 1>>, tensor<1x2048xi32>
      %33 = tt.load %32, %30, %cst {cache = 1 : i32, evict = 3 : i32, isVolatile = false} : tensor<1x2048xbf16>
      %34 = arith.extf %33 : tensor<1x2048xbf16> to tensor<1x2048xf32>
      %35 = arith.subf %34, %17 : tensor<1x2048xf32>
      %36 = math.exp %35 : tensor<1x2048xf32>
      %37 = arith.addf %arg8, %36 : tensor<1x2048xf32>
      %38 = arith.select %30, %37, %arg8 : tensor<1x2048xi1>, tensor<1x2048xf32>
      scf.yield %38 : tensor<1x2048xf32>
    }
    %19 = "tt.reduce"(%18) <{axis = 1 : i32}> ({
    ^bb0(%arg7: f32, %arg8: f32):
      %28 = arith.addf %arg7, %arg8 : f32
      tt.reduce.return %28 : f32
    }) : (tensor<1x2048xf32>) -> tensor<1xf32>
    %20 = tt.expand_dims %19 {axis = 1 : i32} : (tensor<1xf32>) -> tensor<1x1xf32>
    %21 = arith.muli %0, %c8192_i32 : i32
    %22 = tt.splat %21 : (i32) -> tensor<1x2048xi32>
    %23 = tt.splat %arg1 : (!tt.ptr<bf16, 1>) -> tensor<1x2048x!tt.ptr<bf16, 1>>
    %24 = tt.broadcast %13 : (tensor<1x1xf32>) -> tensor<1x2048xf32>
    %25 = tt.broadcast %20 : (tensor<1x1xf32>) -> tensor<1x2048xf32>
    %26 = tt.splat %arg3 : (!tt.ptr<bf16, 1>) -> tensor<1x2048x!tt.ptr<bf16, 1>>
    %27 = tt.splat %arg4 : (!tt.ptr<f32, 1>) -> tensor<1x2048x!tt.ptr<f32, 1>>
    scf.for %arg7 = %c0_i32 to %c8192_i32 step %c2048_i32  : i32 {
      %28 = tt.splat %arg7 : (i32) -> tensor<1x2048xi32>
      %29 = arith.addi %28, %2 : tensor<1x2048xi32>
      %30 = arith.cmpi slt, %29, %cst_7 : tensor<1x2048xi32>
      %31 = arith.addi %29, %22 : tensor<1x2048xi32>
      %32 = tt.addptr %23, %31 : tensor<1x2048x!tt.ptr<bf16, 1>>, tensor<1x2048xi32>
      %33 = tt.load %32, %30, %cst {cache = 1 : i32, evict = 2 : i32, isVolatile = false} : tensor<1x2048xbf16>
      %34 = arith.extf %33 : tensor<1x2048xbf16> to tensor<1x2048xf32>
      %35 = arith.subf %34, %24 : tensor<1x2048xf32>
      %36 = math.exp %35 : tensor<1x2048xf32>
      %37 = arith.divf %36, %25 : tensor<1x2048xf32>
      %38 = tt.addptr %26, %31 : tensor<1x2048x!tt.ptr<bf16, 1>>, tensor<1x2048xi32>
      %39 = arith.truncf %37 : tensor<1x2048xf32> to tensor<1x2048xbf16>
      tt.store %38, %39, %30 {cache = 1 : i32, evict = 1 : i32} : tensor<1x2048xbf16>
      %40 = tt.addptr %27, %31 : tensor<1x2048x!tt.ptr<f32, 1>>, tensor<1x2048xi32>
      tt.store %40, %37, %30 {cache = 1 : i32, evict = 1 : i32} : tensor<1x2048xf32>
    }
    tt.return
  }
}
