module {
  tt.func public @triton__0d1d2de3de(%arg0: !tt.ptr<bf16, 1> {tt.divisibility = 16 : i32}, %arg1: !tt.ptr<bf16, 1> {tt.divisibility = 16 : i32}, %arg2: i32 {tt.divisibility = 16 : i32, tt.max_divisibility = 16 : i32}, %arg3: i32 {tt.divisibility = 16 : i32, tt.max_divisibility = 16 : i32}) attributes {noinline = false} {
    %c8192_i32 = arith.constant 8192 : i32
    %c-1_i32 = arith.constant -1 : i32
    %cst = arith.constant dense<0.000000e+00> : tensor<1x2048xbf16>
    %cst_0 = arith.constant dense<true> : tensor<1x2048xi1>
    %c2048_i32 = arith.constant 2048 : i32
    %c0_i32 = arith.constant 0 : i32
    %cst_1 = arith.constant dense<-3.38953139E+38> : tensor<1x2048xf32>
    %cst_2 = arith.constant dense<1.000000e+00> : tensor<1x2048xf32>
    %cst_3 = arith.constant dense<1> : tensor<1x2048xi64>
    %cst_4 = arith.constant dense<5.000000e+01> : tensor<1x2048xf32>
    %cst_5 = arith.constant dense<6.250000e-02> : tensor<1x2048xf32>
    %cst_6 = arith.constant dense<0.000000e+00> : tensor<1x2048xf32>
    %cst_7 = arith.constant dense<8192> : tensor<1x2048xi32>
    %cst_8 = arith.constant dense<0xFF800000> : tensor<1x2048xf32>
    %0 = tt.get_program_id x : i32
    %1 = tt.make_range {end = 2048 : i32, start = 0 : i32} : tensor<2048xi32>
    %2 = tt.expand_dims %1 {axis = 0 : i32} : (tensor<2048xi32>) -> tensor<1x2048xi32>
    %3 = arith.remsi %0, %c8192_i32 : i32
    %4 = arith.muli %0, %c8192_i32 : i32
    %5 = tt.splat %4 : (i32) -> tensor<1x2048xi32>
    %6 = tt.splat %arg0 : (!tt.ptr<bf16, 1>) -> tensor<1x2048x!tt.ptr<bf16, 1>>
    %7 = arith.muli %3, %c-1_i32 : i32
    %8 = tt.splat %7 : (i32) -> tensor<1x2048xi32>
    %9 = scf.for %arg4 = %c0_i32 to %c8192_i32 step %c2048_i32 iter_args(%arg5 = %cst_8) -> (tensor<1x2048xf32>)  : i32 {
      %29 = tt.splat %arg4 : (i32) -> tensor<1x2048xi32>
      %30 = arith.addi %29, %2 : tensor<1x2048xi32>
      %31 = arith.cmpi slt, %30, %cst_7 : tensor<1x2048xi32>
      %32 = arith.addi %30, %5 : tensor<1x2048xi32>
      %33 = tt.addptr %6, %32 : tensor<1x2048x!tt.ptr<bf16, 1>>, tensor<1x2048xi32>
      %34 = tt.load %33, %31, %cst {cache = 1 : i32, evict = 3 : i32, isVolatile = false} : tensor<1x2048xbf16>
      %35 = arith.extf %34 : tensor<1x2048xbf16> to tensor<1x2048xf32>
      %36 = arith.mulf %35, %cst_5 : tensor<1x2048xf32>
      %37 = arith.divf %36, %cst_4 : tensor<1x2048xf32>
      %38 = tt.extern_elementwise %37 {libname = "libdevice", libpath = "/home/zeus/miniconda3/envs/cloudspace/lib/python3.10/site-packages/triton/language/../third_party/cuda/lib/libdevice.10.bc", pure = true, symbol = "__nv_tanhf"} : (tensor<1x2048xf32>) -> tensor<1x2048xf32>
      %39 = arith.mulf %38, %cst_4 : tensor<1x2048xf32>
      %40 = arith.addi %30, %8 : tensor<1x2048xi32>
      %41 = arith.extsi %40 : tensor<1x2048xi32> to tensor<1x2048xi64>
      %42 = arith.cmpi sge, %41, %cst_3 : tensor<1x2048xi64>
      %43 = arith.select %42, %cst_2, %cst_6 : tensor<1x2048xi1>, tensor<1x2048xf32>
      %44 = arith.cmpf une, %43, %cst_6 : tensor<1x2048xf32>
      %45 = arith.select %44, %cst_1, %43 : tensor<1x2048xi1>, tensor<1x2048xf32>
      %46 = arith.addf %39, %45 : tensor<1x2048xf32>
      %47 = arith.cmpf ogt, %arg5, %46 : tensor<1x2048xf32>
      %48 = arith.cmpf une, %arg5, %arg5 : tensor<1x2048xf32>
      %49 = arith.ori %47, %48 : tensor<1x2048xi1>
      %50 = arith.xori %49, %cst_0 : tensor<1x2048xi1>
      %51 = arith.andi %31, %50 : tensor<1x2048xi1>
      %52 = arith.select %51, %46, %arg5 : tensor<1x2048xi1>, tensor<1x2048xf32>
      scf.yield %52 : tensor<1x2048xf32>
    }
    %10 = "tt.reduce"(%9) <{axis = 1 : i32}> ({
    ^bb0(%arg4: f32, %arg5: f32):
      %29 = arith.cmpf ogt, %arg4, %arg5 : f32
      %30 = arith.cmpf une, %arg4, %arg4 : f32
      %31 = arith.ori %29, %30 : i1
      %32 = arith.select %31, %arg4, %arg5 : f32
      tt.reduce.return %32 : f32
    }) : (tensor<1x2048xf32>) -> tensor<1xf32>
    %11 = tt.expand_dims %10 {axis = 1 : i32} : (tensor<1xf32>) -> tensor<1x1xf32>
    %12 = arith.muli %0, %c8192_i32 : i32
    %13 = tt.splat %12 : (i32) -> tensor<1x2048xi32>
    %14 = tt.splat %arg0 : (!tt.ptr<bf16, 1>) -> tensor<1x2048x!tt.ptr<bf16, 1>>
    %15 = arith.muli %3, %c-1_i32 : i32
    %16 = tt.splat %15 : (i32) -> tensor<1x2048xi32>
    %17 = tt.broadcast %11 : (tensor<1x1xf32>) -> tensor<1x2048xf32>
    %18 = scf.for %arg4 = %c0_i32 to %c8192_i32 step %c2048_i32 iter_args(%arg5 = %cst_6) -> (tensor<1x2048xf32>)  : i32 {
      %29 = tt.splat %arg4 : (i32) -> tensor<1x2048xi32>
      %30 = arith.addi %29, %2 : tensor<1x2048xi32>
      %31 = arith.cmpi slt, %30, %cst_7 : tensor<1x2048xi32>
      %32 = arith.addi %30, %13 : tensor<1x2048xi32>
      %33 = tt.addptr %14, %32 : tensor<1x2048x!tt.ptr<bf16, 1>>, tensor<1x2048xi32>
      %34 = tt.load %33, %31, %cst {cache = 1 : i32, evict = 3 : i32, isVolatile = false} : tensor<1x2048xbf16>
      %35 = arith.extf %34 : tensor<1x2048xbf16> to tensor<1x2048xf32>
      %36 = arith.mulf %35, %cst_5 : tensor<1x2048xf32>
      %37 = arith.divf %36, %cst_4 : tensor<1x2048xf32>
      %38 = tt.extern_elementwise %37 {libname = "libdevice", libpath = "/home/zeus/miniconda3/envs/cloudspace/lib/python3.10/site-packages/triton/language/../third_party/cuda/lib/libdevice.10.bc", pure = true, symbol = "__nv_tanhf"} : (tensor<1x2048xf32>) -> tensor<1x2048xf32>
      %39 = arith.mulf %38, %cst_4 : tensor<1x2048xf32>
      %40 = arith.addi %30, %16 : tensor<1x2048xi32>
      %41 = arith.extsi %40 : tensor<1x2048xi32> to tensor<1x2048xi64>
      %42 = arith.cmpi sge, %41, %cst_3 : tensor<1x2048xi64>
      %43 = arith.select %42, %cst_2, %cst_6 : tensor<1x2048xi1>, tensor<1x2048xf32>
      %44 = arith.cmpf une, %43, %cst_6 : tensor<1x2048xf32>
      %45 = arith.select %44, %cst_1, %43 : tensor<1x2048xi1>, tensor<1x2048xf32>
      %46 = arith.addf %39, %45 : tensor<1x2048xf32>
      %47 = arith.subf %46, %17 : tensor<1x2048xf32>
      %48 = math.exp %47 : tensor<1x2048xf32>
      %49 = arith.addf %arg5, %48 : tensor<1x2048xf32>
      %50 = arith.select %31, %49, %arg5 : tensor<1x2048xi1>, tensor<1x2048xf32>
      scf.yield %50 : tensor<1x2048xf32>
    }
    %19 = "tt.reduce"(%18) <{axis = 1 : i32}> ({
    ^bb0(%arg4: f32, %arg5: f32):
      %29 = arith.addf %arg4, %arg5 : f32
      tt.reduce.return %29 : f32
    }) : (tensor<1x2048xf32>) -> tensor<1xf32>
    %20 = tt.expand_dims %19 {axis = 1 : i32} : (tensor<1xf32>) -> tensor<1x1xf32>
    %21 = arith.muli %0, %c8192_i32 : i32
    %22 = tt.splat %21 : (i32) -> tensor<1x2048xi32>
    %23 = tt.splat %arg0 : (!tt.ptr<bf16, 1>) -> tensor<1x2048x!tt.ptr<bf16, 1>>
    %24 = arith.muli %3, %c-1_i32 : i32
    %25 = tt.splat %24 : (i32) -> tensor<1x2048xi32>
    %26 = tt.broadcast %11 : (tensor<1x1xf32>) -> tensor<1x2048xf32>
    %27 = tt.broadcast %20 : (tensor<1x1xf32>) -> tensor<1x2048xf32>
    %28 = tt.splat %arg1 : (!tt.ptr<bf16, 1>) -> tensor<1x2048x!tt.ptr<bf16, 1>>
    scf.for %arg4 = %c0_i32 to %c8192_i32 step %c2048_i32  : i32 {
      %29 = tt.splat %arg4 : (i32) -> tensor<1x2048xi32>
      %30 = arith.addi %29, %2 : tensor<1x2048xi32>
      %31 = arith.cmpi slt, %30, %cst_7 : tensor<1x2048xi32>
      %32 = arith.addi %30, %22 : tensor<1x2048xi32>
      %33 = tt.addptr %23, %32 : tensor<1x2048x!tt.ptr<bf16, 1>>, tensor<1x2048xi32>
      %34 = tt.load %33, %31, %cst {cache = 1 : i32, evict = 2 : i32, isVolatile = false} : tensor<1x2048xbf16>
      %35 = arith.extf %34 : tensor<1x2048xbf16> to tensor<1x2048xf32>
      %36 = arith.mulf %35, %cst_5 : tensor<1x2048xf32>
      %37 = arith.divf %36, %cst_4 : tensor<1x2048xf32>
      %38 = tt.extern_elementwise %37 {libname = "libdevice", libpath = "/home/zeus/miniconda3/envs/cloudspace/lib/python3.10/site-packages/triton/language/../third_party/cuda/lib/libdevice.10.bc", pure = true, symbol = "__nv_tanhf"} : (tensor<1x2048xf32>) -> tensor<1x2048xf32>
      %39 = arith.mulf %38, %cst_4 : tensor<1x2048xf32>
      %40 = arith.addi %30, %25 : tensor<1x2048xi32>
      %41 = arith.extsi %40 : tensor<1x2048xi32> to tensor<1x2048xi64>
      %42 = arith.cmpi sge, %41, %cst_3 : tensor<1x2048xi64>
      %43 = arith.select %42, %cst_2, %cst_6 : tensor<1x2048xi1>, tensor<1x2048xf32>
      %44 = arith.cmpf une, %43, %cst_6 : tensor<1x2048xf32>
      %45 = arith.select %44, %cst_1, %43 : tensor<1x2048xi1>, tensor<1x2048xf32>
      %46 = arith.addf %39, %45 : tensor<1x2048xf32>
      %47 = arith.subf %46, %26 : tensor<1x2048xf32>
      %48 = math.exp %47 : tensor<1x2048xf32>
      %49 = arith.divf %48, %27 : tensor<1x2048xf32>
      %50 = tt.addptr %28, %32 : tensor<1x2048x!tt.ptr<bf16, 1>>, tensor<1x2048xi32>
      %51 = arith.truncf %49 : tensor<1x2048xf32> to tensor<1x2048xbf16>
      tt.store %50, %51, %31 {cache = 1 : i32, evict = 1 : i32} : tensor<1x2048xbf16>
    }
    tt.return
  }
}
