module {
  tt.func public @triton__0d1d2d3d4de5de(%arg0: !tt.ptr<f32, 1> {tt.divisibility = 16 : i32}, %arg1: !tt.ptr<f32, 1> {tt.divisibility = 16 : i32}, %arg2: !tt.ptr<f32, 1> {tt.divisibility = 16 : i32}, %arg3: !tt.ptr<bf16, 1> {tt.divisibility = 16 : i32}, %arg4: i32 {tt.divisibility = 16 : i32, tt.max_divisibility = 16 : i32}, %arg5: i32 {tt.divisibility = 16 : i32, tt.max_divisibility = 16 : i32}) attributes {noinline = false} {
    %c2304_i32 = arith.constant 2304 : i32
    %c2048_i32 = arith.constant 2048 : i32
    %c0_i32 = arith.constant 0 : i32
    %cst = arith.constant dense<1.000000e+00> : tensor<1x2048xf32>
    %cst_0 = arith.constant dense<9.99999974E-6> : tensor<1x1xf32>
    %cst_1 = arith.constant dense<2.304000e+03> : tensor<1x1xf32>
    %cst_2 = arith.constant dense<2304> : tensor<1x2048xi32>
    %cst_3 = arith.constant dense<0.000000e+00> : tensor<1x2048xf32>
    %0 = tt.get_program_id x : i32
    %1 = tt.make_range {end = 2048 : i32, start = 0 : i32} : tensor<2048xi32>
    %2 = tt.expand_dims %1 {axis = 0 : i32} : (tensor<2048xi32>) -> tensor<1x2048xi32>
    %3 = arith.muli %0, %c2304_i32 : i32
    %4 = tt.splat %3 : (i32) -> tensor<1x2048xi32>
    %5 = tt.splat %arg0 : (!tt.ptr<f32, 1>) -> tensor<1x2048x!tt.ptr<f32, 1>>
    %6 = scf.for %arg6 = %c0_i32 to %c2304_i32 step %c2048_i32 iter_args(%arg7 = %cst_3) -> (tensor<1x2048xf32>)  : i32 {
      %18 = tt.splat %arg6 : (i32) -> tensor<1x2048xi32>
      %19 = arith.addi %18, %2 : tensor<1x2048xi32>
      %20 = arith.cmpi slt, %19, %cst_2 : tensor<1x2048xi32>
      %21 = arith.addi %19, %4 : tensor<1x2048xi32>
      %22 = tt.addptr %5, %21 : tensor<1x2048x!tt.ptr<f32, 1>>, tensor<1x2048xi32>
      %23 = tt.load %22, %20, %cst_3 {cache = 1 : i32, evict = 3 : i32, isVolatile = false} : tensor<1x2048xf32>
      %24 = arith.mulf %23, %23 : tensor<1x2048xf32>
      %25 = arith.addf %arg7, %24 : tensor<1x2048xf32>
      %26 = arith.select %20, %25, %arg7 : tensor<1x2048xi1>, tensor<1x2048xf32>
      scf.yield %26 : tensor<1x2048xf32>
    }
    %7 = "tt.reduce"(%6) <{axis = 1 : i32}> ({
    ^bb0(%arg6: f32, %arg7: f32):
      %18 = arith.addf %arg6, %arg7 : f32
      tt.reduce.return %18 : f32
    }) : (tensor<1x2048xf32>) -> tensor<1xf32>
    %8 = tt.expand_dims %7 {axis = 1 : i32} : (tensor<1xf32>) -> tensor<1x1xf32>
    %9 = tt.addptr %arg2, %0 : !tt.ptr<f32, 1>, i32
    %10 = tt.splat %9 : (!tt.ptr<f32, 1>) -> tensor<1x1x!tt.ptr<f32, 1>>
    tt.store %10, %8 {cache = 1 : i32, evict = 1 : i32} : tensor<1x1xf32>
    %11 = arith.muli %0, %c2304_i32 : i32
    %12 = tt.splat %11 : (i32) -> tensor<1x2048xi32>
    %13 = tt.splat %arg0 : (!tt.ptr<f32, 1>) -> tensor<1x2048x!tt.ptr<f32, 1>>
    %14 = tt.splat %arg1 : (!tt.ptr<f32, 1>) -> tensor<1x2048x!tt.ptr<f32, 1>>
    %15 = arith.divf %8, %cst_1 : tensor<1x1xf32>
    %16 = arith.addf %15, %cst_0 : tensor<1x1xf32>
    %17 = tt.splat %arg3 : (!tt.ptr<bf16, 1>) -> tensor<1x2048x!tt.ptr<bf16, 1>>
    scf.for %arg6 = %c0_i32 to %c2304_i32 step %c2048_i32  : i32 {
      %18 = tt.splat %arg6 : (i32) -> tensor<1x2048xi32>
      %19 = arith.addi %18, %2 : tensor<1x2048xi32>
      %20 = arith.cmpi slt, %19, %cst_2 : tensor<1x2048xi32>
      %21 = arith.addi %19, %12 : tensor<1x2048xi32>
      %22 = tt.addptr %13, %21 : tensor<1x2048x!tt.ptr<f32, 1>>, tensor<1x2048xi32>
      %23 = tt.load %22, %20, %cst_3 {cache = 1 : i32, evict = 2 : i32, isVolatile = false} : tensor<1x2048xf32>
      %24 = tt.addptr %14, %19 : tensor<1x2048x!tt.ptr<f32, 1>>, tensor<1x2048xi32>
      %25 = tt.load %24, %20, %cst_3 {cache = 1 : i32, evict = 3 : i32, isVolatile = false} : tensor<1x2048xf32>
      %26 = tt.extern_elementwise %16 {libname = "libdevice", libpath = "/home/zeus/miniconda3/envs/cloudspace/lib/python3.10/site-packages/triton/language/../third_party/cuda/lib/libdevice.10.bc", pure = true, symbol = "__nv_rsqrtf"} : (tensor<1x1xf32>) -> tensor<1x1xf32>
      %27 = tt.broadcast %26 : (tensor<1x1xf32>) -> tensor<1x2048xf32>
      %28 = arith.mulf %23, %27 : tensor<1x2048xf32>
      %29 = arith.addf %25, %cst : tensor<1x2048xf32>
      %30 = arith.mulf %28, %29 : tensor<1x2048xf32>
      %31 = tt.addptr %17, %21 : tensor<1x2048x!tt.ptr<bf16, 1>>, tensor<1x2048xi32>
      %32 = arith.truncf %30 : tensor<1x2048xf32> to tensor<1x2048xbf16>
      tt.store %31, %32, %20 {cache = 1 : i32, evict = 1 : i32} : tensor<1x2048xbf16>
    }
    tt.return
  }
}
