module {
  tt.func public @triton__0d1d2d3d4de(%arg0: !tt.ptr<bf16, 1> {tt.divisibility = 16 : i32}, %arg1: !tt.ptr<f32, 1> {tt.divisibility = 16 : i32}, %arg2: !tt.ptr<f32, 1> {tt.divisibility = 16 : i32}, %arg3: !tt.ptr<f32, 1> {tt.divisibility = 16 : i32}, %arg4: i32 {tt.divisibility = 16 : i32, tt.max_divisibility = 16 : i32}) attributes {noinline = false} {
    %cst = arith.constant dense<4.800000e+01> : tensor<128xf32>
    %c3_i32 = arith.constant 3 : i32
    %cst_0 = arith.constant dense<6912> : tensor<128xi32>
    %c2_i32 = arith.constant 2 : i32
    %cst_1 = arith.constant dense<4608> : tensor<128xi32>
    %c1_i32 = arith.constant 1 : i32
    %c0_i32 = arith.constant 0 : i32
    %cst_2 = arith.constant dense<2304> : tensor<128xi32>
    %c128_i32 = arith.constant 128 : i32
    %0 = tt.get_program_id x : i32
    %1 = arith.muli %0, %c128_i32 : i32
    %2 = tt.make_range {end = 128 : i32, start = 0 : i32} : tensor<128xi32>
    %3 = tt.splat %1 : (i32) -> tensor<128xi32>
    %4 = arith.addi %3, %2 : tensor<128xi32>
    %5 = arith.cmpi slt, %4, %cst_2 : tensor<128xi32>
    %6 = tt.splat %arg0 : (!tt.ptr<bf16, 1>) -> tensor<128x!tt.ptr<bf16, 1>>
    %7 = tt.addptr %6, %4 : tensor<128x!tt.ptr<bf16, 1>>, tensor<128xi32>
    %8 = tt.load %7, %5 {cache = 1 : i32, evict = 1 : i32, isVolatile = false} : tensor<128xbf16>
    %9 = arith.extf %8 : tensor<128xbf16> to tensor<128xf32>
    %10 = tt.splat %arg1 : (!tt.ptr<f32, 1>) -> tensor<128x!tt.ptr<f32, 1>>
    %11 = tt.addptr %10, %4 : tensor<128x!tt.ptr<f32, 1>>, tensor<128xi32>
    %12 = tt.load %11, %5 {cache = 1 : i32, evict = 1 : i32, isVolatile = false} : tensor<128xf32>
    %13 = tt.addptr %arg2, %c0_i32 : !tt.ptr<f32, 1>, i32
    %14 = tt.load %13 {cache = 1 : i32, evict = 1 : i32, isVolatile = false} : f32
    %15 = tt.splat %14 : (f32) -> tensor<128xf32>
    %16 = arith.addi %4, %cst_2 : tensor<128xi32>
    %17 = tt.addptr %6, %16 : tensor<128x!tt.ptr<bf16, 1>>, tensor<128xi32>
    %18 = tt.load %17, %5 {cache = 1 : i32, evict = 1 : i32, isVolatile = false} : tensor<128xbf16>
    %19 = arith.extf %18 : tensor<128xbf16> to tensor<128xf32>
    %20 = tt.addptr %10, %16 : tensor<128x!tt.ptr<f32, 1>>, tensor<128xi32>
    %21 = tt.load %20, %5 {cache = 1 : i32, evict = 1 : i32, isVolatile = false} : tensor<128xf32>
    %22 = tt.addptr %arg2, %c1_i32 : !tt.ptr<f32, 1>, i32
    %23 = tt.load %22 {cache = 1 : i32, evict = 1 : i32, isVolatile = false} : f32
    %24 = tt.splat %23 : (f32) -> tensor<128xf32>
    %25 = arith.addi %4, %cst_1 : tensor<128xi32>
    %26 = tt.addptr %6, %25 : tensor<128x!tt.ptr<bf16, 1>>, tensor<128xi32>
    %27 = tt.load %26, %5 {cache = 1 : i32, evict = 1 : i32, isVolatile = false} : tensor<128xbf16>
    %28 = arith.extf %27 : tensor<128xbf16> to tensor<128xf32>
    %29 = tt.addptr %10, %25 : tensor<128x!tt.ptr<f32, 1>>, tensor<128xi32>
    %30 = tt.load %29, %5 {cache = 1 : i32, evict = 1 : i32, isVolatile = false} : tensor<128xf32>
    %31 = tt.addptr %arg2, %c2_i32 : !tt.ptr<f32, 1>, i32
    %32 = tt.load %31 {cache = 1 : i32, evict = 1 : i32, isVolatile = false} : f32
    %33 = tt.splat %32 : (f32) -> tensor<128xf32>
    %34 = arith.addi %4, %cst_0 : tensor<128xi32>
    %35 = tt.addptr %6, %34 : tensor<128x!tt.ptr<bf16, 1>>, tensor<128xi32>
    %36 = tt.load %35, %5 {cache = 1 : i32, evict = 1 : i32, isVolatile = false} : tensor<128xbf16>
    %37 = arith.extf %36 : tensor<128xbf16> to tensor<128xf32>
    %38 = tt.addptr %10, %34 : tensor<128x!tt.ptr<f32, 1>>, tensor<128xi32>
    %39 = tt.load %38, %5 {cache = 1 : i32, evict = 1 : i32, isVolatile = false} : tensor<128xf32>
    %40 = tt.addptr %arg2, %c3_i32 : !tt.ptr<f32, 1>, i32
    %41 = tt.load %40 {cache = 1 : i32, evict = 1 : i32, isVolatile = false} : f32
    %42 = tt.splat %41 : (f32) -> tensor<128xf32>
    %43 = arith.mulf %12, %cst : tensor<128xf32>
    %44 = arith.mulf %43, %15 : tensor<128xf32>
    %45 = arith.mulf %9, %44 : tensor<128xf32>
    %46 = arith.mulf %21, %cst : tensor<128xf32>
    %47 = arith.mulf %46, %24 : tensor<128xf32>
    %48 = arith.mulf %19, %47 : tensor<128xf32>
    %49 = arith.addf %45, %48 : tensor<128xf32>
    %50 = arith.mulf %30, %cst : tensor<128xf32>
    %51 = arith.mulf %50, %33 : tensor<128xf32>
    %52 = arith.mulf %28, %51 : tensor<128xf32>
    %53 = arith.addf %49, %52 : tensor<128xf32>
    %54 = arith.mulf %39, %cst : tensor<128xf32>
    %55 = arith.mulf %54, %42 : tensor<128xf32>
    %56 = arith.mulf %37, %55 : tensor<128xf32>
    %57 = arith.addf %53, %56 : tensor<128xf32>
    %58 = tt.splat %arg3 : (!tt.ptr<f32, 1>) -> tensor<128x!tt.ptr<f32, 1>>
    %59 = tt.addptr %58, %4 : tensor<128x!tt.ptr<f32, 1>>, tensor<128xi32>
    tt.store %59, %57, %5 {cache = 1 : i32, evict = 1 : i32} : tensor<128xf32>
    tt.return
  }
}
