module {
  tt.func public @triton__0d1d2d3d4d5d6d7d8d910de(%arg0: !tt.ptr<f32, 1> {tt.divisibility = 16 : i32}, %arg1: !tt.ptr<bf16, 1> {tt.divisibility = 16 : i32}, %arg2: !tt.ptr<f32, 1> {tt.divisibility = 16 : i32}, %arg3: !tt.ptr<bf16, 1> {tt.divisibility = 16 : i32}, %arg4: !tt.ptr<f32, 1> {tt.divisibility = 16 : i32}, %arg5: !tt.ptr<f32, 1> {tt.divisibility = 16 : i32}, %arg6: !tt.ptr<f32, 1> {tt.divisibility = 16 : i32}, %arg7: !tt.ptr<bf16, 1> {tt.divisibility = 16 : i32}, %arg8: !tt.ptr<bf16, 1> {tt.divisibility = 16 : i32}, %arg9: i32, %arg10: i32 {tt.divisibility = 16 : i32, tt.max_divisibility = 16 : i32}) attributes {noinline = false} {
    %c4_i32 = arith.constant 4 : i32
    %cst = arith.constant dense<0.000000e+00> : tensor<1x2048xbf16>
    %c2304_i32 = arith.constant 2304 : i32
    %c2048_i32 = arith.constant 2048 : i32
    %c0_i32 = arith.constant 0 : i32
    %cst_0 = arith.constant dense<1.000000e+00> : tensor<1x2048xf32>
    %cst_1 = arith.constant dense<9.99999974E-6> : tensor<1x1xf32>
    %cst_2 = arith.constant dense<2.304000e+03> : tensor<1x1xf32>
    %cst_3 = arith.constant dense<2304> : tensor<1x2048xi32>
    %cst_4 = arith.constant dense<0.000000e+00> : tensor<1x2048xf32>
    %0 = tt.get_program_id x : i32
    %1 = arith.cmpi slt, %0, %c4_i32 : i32
    %2 = tt.splat %1 : (i1) -> tensor<1x1xi1>
    %3 = tt.make_range {end = 2048 : i32, start = 0 : i32} : tensor<2048xi32>
    %4 = tt.expand_dims %3 {axis = 0 : i32} : (tensor<2048xi32>) -> tensor<1x2048xi32>
    %5 = arith.muli %0, %c2304_i32 : i32
    %6 = tt.splat %5 : (i32) -> tensor<1x2048xi32>
    %7 = tt.splat %arg1 : (!tt.ptr<bf16, 1>) -> tensor<1x2048x!tt.ptr<bf16, 1>>
    %8 = tt.splat %1 : (i1) -> tensor<1x2048xi1>
    %9 = scf.for %arg11 = %c0_i32 to %c2304_i32 step %c2048_i32 iter_args(%arg12 = %cst_4) -> (tensor<1x2048xf32>)  : i32 {
      %39 = tt.splat %arg11 : (i32) -> tensor<1x2048xi32>
      %40 = arith.addi %39, %4 : tensor<1x2048xi32>
      %41 = arith.cmpi slt, %40, %cst_3 : tensor<1x2048xi32>
      %42 = arith.addi %40, %6 : tensor<1x2048xi32>
      %43 = tt.addptr %7, %42 : tensor<1x2048x!tt.ptr<bf16, 1>>, tensor<1x2048xi32>
      %44 = arith.andi %41, %8 : tensor<1x2048xi1>
      %45 = tt.load %43, %44, %cst {cache = 1 : i32, evict = 3 : i32, isVolatile = false} : tensor<1x2048xbf16>
      %46 = arith.extf %45 : tensor<1x2048xbf16> to tensor<1x2048xf32>
      %47 = arith.mulf %46, %46 : tensor<1x2048xf32>
      %48 = arith.addf %arg12, %47 : tensor<1x2048xf32>
      %49 = arith.select %44, %48, %arg12 : tensor<1x2048xi1>, tensor<1x2048xf32>
      scf.yield %49 : tensor<1x2048xf32>
    }
    %10 = "tt.reduce"(%9) <{axis = 1 : i32}> ({
    ^bb0(%arg11: f32, %arg12: f32):
      %39 = arith.addf %arg11, %arg12 : f32
      tt.reduce.return %39 : f32
    }) : (tensor<1x2048xf32>) -> tensor<1xf32>
    %11 = tt.expand_dims %10 {axis = 1 : i32} : (tensor<1xf32>) -> tensor<1x1xf32>
    %12 = tt.addptr %arg4, %0 : !tt.ptr<f32, 1>, i32
    %13 = tt.splat %12 : (!tt.ptr<f32, 1>) -> tensor<1x1x!tt.ptr<f32, 1>>
    %14 = tt.load %13, %2 {cache = 1 : i32, evict = 3 : i32, isVolatile = false} : tensor<1x1xf32>
    %15 = arith.muli %0, %c2304_i32 : i32
    %16 = tt.splat %15 : (i32) -> tensor<1x2048xi32>
    %17 = tt.splat %arg1 : (!tt.ptr<bf16, 1>) -> tensor<1x2048x!tt.ptr<bf16, 1>>
    %18 = tt.splat %1 : (i1) -> tensor<1x2048xi1>
    %19 = tt.splat %arg2 : (!tt.ptr<f32, 1>) -> tensor<1x2048x!tt.ptr<f32, 1>>
    %20 = tt.splat %arg3 : (!tt.ptr<bf16, 1>) -> tensor<1x2048x!tt.ptr<bf16, 1>>
    %21 = tt.splat %arg5 : (!tt.ptr<f32, 1>) -> tensor<1x2048x!tt.ptr<f32, 1>>
    %22 = tt.splat %arg0 : (!tt.ptr<f32, 1>) -> tensor<1x2048x!tt.ptr<f32, 1>>
    %23 = arith.divf %11, %cst_2 : tensor<1x1xf32>
    %24 = arith.addf %23, %cst_1 : tensor<1x1xf32>
    %25 = arith.divf %14, %cst_2 : tensor<1x1xf32>
    %26 = arith.addf %25, %cst_1 : tensor<1x1xf32>
    %27 = scf.for %arg11 = %c0_i32 to %c2304_i32 step %c2048_i32 iter_args(%arg12 = %cst_4) -> (tensor<1x2048xf32>)  : i32 {
      %39 = tt.splat %arg11 : (i32) -> tensor<1x2048xi32>
      %40 = arith.addi %39, %4 : tensor<1x2048xi32>
      %41 = arith.cmpi slt, %40, %cst_3 : tensor<1x2048xi32>
      %42 = arith.addi %40, %16 : tensor<1x2048xi32>
      %43 = tt.addptr %17, %42 : tensor<1x2048x!tt.ptr<bf16, 1>>, tensor<1x2048xi32>
      %44 = arith.andi %41, %18 : tensor<1x2048xi1>
      %45 = tt.load %43, %44, %cst {cache = 1 : i32, evict = 2 : i32, isVolatile = false} : tensor<1x2048xbf16>
      %46 = arith.extf %45 : tensor<1x2048xbf16> to tensor<1x2048xf32>
      %47 = tt.addptr %19, %40 : tensor<1x2048x!tt.ptr<f32, 1>>, tensor<1x2048xi32>
      %48 = tt.load %47, %41, %cst_4 {cache = 1 : i32, evict = 3 : i32, isVolatile = false} : tensor<1x2048xf32>
      %49 = tt.addptr %20, %42 : tensor<1x2048x!tt.ptr<bf16, 1>>, tensor<1x2048xi32>
      %50 = tt.load %49, %44, %cst {cache = 1 : i32, evict = 2 : i32, isVolatile = false} : tensor<1x2048xbf16>
      %51 = arith.extf %50 : tensor<1x2048xbf16> to tensor<1x2048xf32>
      %52 = tt.addptr %21, %40 : tensor<1x2048x!tt.ptr<f32, 1>>, tensor<1x2048xi32>
      %53 = tt.load %52, %41, %cst_4 {cache = 1 : i32, evict = 3 : i32, isVolatile = false} : tensor<1x2048xf32>
      %54 = tt.addptr %22, %42 : tensor<1x2048x!tt.ptr<f32, 1>>, tensor<1x2048xi32>
      %55 = tt.load %54, %44, %cst_4 {cache = 1 : i32, evict = 3 : i32, isVolatile = false} : tensor<1x2048xf32>
      %56 = tt.extern_elementwise %24 {libname = "libdevice", libpath = "/home/zeus/miniconda3/envs/cloudspace/lib/python3.10/site-packages/triton/language/../third_party/cuda/lib/libdevice.10.bc", pure = true, symbol = "__nv_rsqrtf"} : (tensor<1x1xf32>) -> tensor<1x1xf32>
      %57 = tt.broadcast %56 : (tensor<1x1xf32>) -> tensor<1x2048xf32>
      %58 = arith.mulf %46, %57 : tensor<1x2048xf32>
      %59 = arith.addf %48, %cst_0 : tensor<1x2048xf32>
      %60 = arith.mulf %58, %59 : tensor<1x2048xf32>
      %61 = tt.extern_elementwise %26 {libname = "libdevice", libpath = "/home/zeus/miniconda3/envs/cloudspace/lib/python3.10/site-packages/triton/language/../third_party/cuda/lib/libdevice.10.bc", pure = true, symbol = "__nv_rsqrtf"} : (tensor<1x1xf32>) -> tensor<1x1xf32>
      %62 = tt.broadcast %61 : (tensor<1x1xf32>) -> tensor<1x2048xf32>
      %63 = arith.mulf %51, %62 : tensor<1x2048xf32>
      %64 = arith.addf %53, %cst_0 : tensor<1x2048xf32>
      %65 = arith.mulf %63, %64 : tensor<1x2048xf32>
      %66 = arith.addf %65, %55 : tensor<1x2048xf32>
      %67 = arith.addf %60, %66 : tensor<1x2048xf32>
      %68 = arith.mulf %67, %67 : tensor<1x2048xf32>
      %69 = arith.addf %arg12, %68 : tensor<1x2048xf32>
      %70 = arith.select %44, %69, %arg12 : tensor<1x2048xi1>, tensor<1x2048xf32>
      tt.store %54, %67, %44 {cache = 1 : i32, evict = 1 : i32} : tensor<1x2048xf32>
      scf.yield %70 : tensor<1x2048xf32>
    }
    %28 = "tt.reduce"(%27) <{axis = 1 : i32}> ({
    ^bb0(%arg11: f32, %arg12: f32):
      %39 = arith.addf %arg11, %arg12 : f32
      tt.reduce.return %39 : f32
    }) : (tensor<1x2048xf32>) -> tensor<1xf32>
    %29 = tt.expand_dims %28 {axis = 1 : i32} : (tensor<1xf32>) -> tensor<1x1xf32>
    %30 = arith.muli %0, %c2304_i32 : i32
    %31 = tt.splat %30 : (i32) -> tensor<1x2048xi32>
    %32 = tt.splat %arg0 : (!tt.ptr<f32, 1>) -> tensor<1x2048x!tt.ptr<f32, 1>>
    %33 = tt.splat %1 : (i1) -> tensor<1x2048xi1>
    %34 = tt.splat %arg6 : (!tt.ptr<f32, 1>) -> tensor<1x2048x!tt.ptr<f32, 1>>
    %35 = arith.divf %29, %cst_2 : tensor<1x1xf32>
    %36 = arith.addf %35, %cst_1 : tensor<1x1xf32>
    %37 = tt.splat %arg7 : (!tt.ptr<bf16, 1>) -> tensor<1x2048x!tt.ptr<bf16, 1>>
    %38 = tt.splat %arg8 : (!tt.ptr<bf16, 1>) -> tensor<1x2048x!tt.ptr<bf16, 1>>
    scf.for %arg11 = %c0_i32 to %c2304_i32 step %c2048_i32  : i32 {
      %39 = tt.splat %arg11 : (i32) -> tensor<1x2048xi32>
      %40 = arith.addi %39, %4 : tensor<1x2048xi32>
      %41 = arith.cmpi slt, %40, %cst_3 : tensor<1x2048xi32>
      %42 = arith.addi %40, %31 : tensor<1x2048xi32>
      %43 = tt.addptr %32, %42 : tensor<1x2048x!tt.ptr<f32, 1>>, tensor<1x2048xi32>
      %44 = arith.andi %41, %33 : tensor<1x2048xi1>
      %45 = tt.load %43, %44, %cst_4 {cache = 1 : i32, evict = 2 : i32, isVolatile = false} : tensor<1x2048xf32>
      %46 = tt.addptr %34, %40 : tensor<1x2048x!tt.ptr<f32, 1>>, tensor<1x2048xi32>
      %47 = tt.load %46, %41, %cst_4 {cache = 1 : i32, evict = 3 : i32, isVolatile = false} : tensor<1x2048xf32>
      %48 = tt.extern_elementwise %36 {libname = "libdevice", libpath = "/home/zeus/miniconda3/envs/cloudspace/lib/python3.10/site-packages/triton/language/../third_party/cuda/lib/libdevice.10.bc", pure = true, symbol = "__nv_rsqrtf"} : (tensor<1x1xf32>) -> tensor<1x1xf32>
      %49 = tt.broadcast %48 : (tensor<1x1xf32>) -> tensor<1x2048xf32>
      %50 = arith.mulf %45, %49 : tensor<1x2048xf32>
      %51 = arith.addf %47, %cst_0 : tensor<1x2048xf32>
      %52 = arith.mulf %50, %51 : tensor<1x2048xf32>
      %53 = tt.addptr %37, %42 : tensor<1x2048x!tt.ptr<bf16, 1>>, tensor<1x2048xi32>
      %54 = arith.truncf %52 : tensor<1x2048xf32> to tensor<1x2048xbf16>
      tt.store %53, %54, %44 {cache = 1 : i32, evict = 1 : i32} : tensor<1x2048xbf16>
      %55 = tt.addptr %38, %42 : tensor<1x2048x!tt.ptr<bf16, 1>>, tensor<1x2048xi32>
      tt.store %55, %54, %44 {cache = 1 : i32, evict = 1 : i32} : tensor<1x2048xbf16>
    }
    tt.return
  }
}
