module {
  tt.func public @triton__0d1d2d3d4d5d6de7de(%arg0: !tt.ptr<f32, 1> {tt.divisibility = 16 : i32}, %arg1: !tt.ptr<i64, 1> {tt.divisibility = 16 : i32}, %arg2: !tt.ptr<f32, 1> {tt.divisibility = 16 : i32}, %arg3: !tt.ptr<f32, 1> {tt.divisibility = 16 : i32}, %arg4: !tt.ptr<f32, 1> {tt.divisibility = 16 : i32}, %arg5: !tt.ptr<bf16, 1> {tt.divisibility = 16 : i32}, %arg6: i32 {tt.divisibility = 16 : i32, tt.max_divisibility = 16 : i32}, %arg7: i32 {tt.divisibility = 16 : i32, tt.max_divisibility = 16 : i32}) attributes {noinline = false} {
    %c2304_i32 = arith.constant 2304 : i32
    %c2048_i32 = arith.constant 2048 : i32
    %c0_i32 = arith.constant 0 : i32
    %cst = arith.constant dense<2304> : tensor<1x1xi64>
    %cst_0 = arith.constant dense<0> : tensor<1x1xi64>
    %cst_1 = arith.constant dense<288256> : tensor<1x1xi64>
    %cst_2 = arith.constant dense<1.000000e+00> : tensor<1x2048xf32>
    %cst_3 = arith.constant dense<9.99999974E-6> : tensor<1x1xf32>
    %cst_4 = arith.constant dense<2.304000e+03> : tensor<1x1xf32>
    %cst_5 = arith.constant dense<4.800000e+01> : tensor<1x2048xf32>
    %cst_6 = arith.constant dense<2304> : tensor<1x2048xi32>
    %cst_7 = arith.constant dense<0.000000e+00> : tensor<1x2048xf32>
    %0 = tt.get_program_id x : i32
    %1 = tt.make_range {end = 2048 : i32, start = 0 : i32} : tensor<2048xi32>
    %2 = tt.expand_dims %1 {axis = 0 : i32} : (tensor<2048xi32>) -> tensor<1x2048xi32>
    %3 = tt.addptr %arg1, %0 : !tt.ptr<i64, 1>, i32
    %4 = tt.splat %3 : (!tt.ptr<i64, 1>) -> tensor<1x1x!tt.ptr<i64, 1>>
    %5 = tt.load %4 {cache = 1 : i32, evict = 3 : i32, isVolatile = false} : tensor<1x1xi64>
    %6 = arith.addi %5, %cst_1 : tensor<1x1xi64>
    %7 = arith.cmpi slt, %5, %cst_0 : tensor<1x1xi64>
    %8 = arith.select %7, %6, %5 : tensor<1x1xi1>, tensor<1x1xi64>
    %9 = arith.cmpi sge, %8, %cst_0 : tensor<1x1xi64>
    %10 = arith.cmpi slt, %8, %cst_1 : tensor<1x1xi64>
    %11 = arith.andi %9, %10 : tensor<1x1xi1>
    %12 = arith.muli %8, %cst : tensor<1x1xi64>
    %13 = tt.broadcast %12 : (tensor<1x1xi64>) -> tensor<1x2048xi64>
    %14 = tt.splat %arg2 : (!tt.ptr<f32, 1>) -> tensor<1x2048x!tt.ptr<f32, 1>>
    %15 = arith.muli %0, %c2304_i32 : i32
    %16 = tt.splat %15 : (i32) -> tensor<1x2048xi32>
    %17 = tt.splat %arg4 : (!tt.ptr<f32, 1>) -> tensor<1x2048x!tt.ptr<f32, 1>>
    %18 = scf.for %arg8 = %c0_i32 to %c2304_i32 step %c2048_i32 iter_args(%arg9 = %cst_7) -> (tensor<1x2048xf32>)  : i32 {
      %32 = tt.splat %arg8 : (i32) -> tensor<1x2048xi32>
      %33 = arith.addi %32, %2 : tensor<1x2048xi32>
      %34 = arith.cmpi slt, %33, %cst_6 : tensor<1x2048xi32>
      tt.assert %11, "index out of bounds: 0 <= tmp3 < 288256", "<frozen importlib._bootstrap_external>", "_call_with_frames_removed", 883 : tensor<1x1xi1>
      %35 = arith.extsi %33 : tensor<1x2048xi32> to tensor<1x2048xi64>
      %36 = arith.addi %35, %13 : tensor<1x2048xi64>
      %37 = tt.addptr %14, %36 : tensor<1x2048x!tt.ptr<f32, 1>>, tensor<1x2048xi64>
      %38 = tt.load %37, %34, %cst_7 {cache = 1 : i32, evict = 2 : i32, isVolatile = false} : tensor<1x2048xf32>
      %39 = arith.mulf %38, %cst_5 : tensor<1x2048xf32>
      %40 = arith.mulf %39, %39 : tensor<1x2048xf32>
      %41 = arith.addf %arg9, %40 : tensor<1x2048xf32>
      %42 = arith.select %34, %41, %arg9 : tensor<1x2048xi1>, tensor<1x2048xf32>
      %43 = arith.addi %33, %16 : tensor<1x2048xi32>
      %44 = tt.addptr %17, %43 : tensor<1x2048x!tt.ptr<f32, 1>>, tensor<1x2048xi32>
      tt.store %44, %38, %34 {cache = 1 : i32, evict = 1 : i32} : tensor<1x2048xf32>
      scf.yield %42 : tensor<1x2048xf32>
    }
    %19 = "tt.reduce"(%18) <{axis = 1 : i32}> ({
    ^bb0(%arg8: f32, %arg9: f32):
      %32 = arith.addf %arg8, %arg9 : f32
      tt.reduce.return %32 : f32
    }) : (tensor<1x2048xf32>) -> tensor<1xf32>
    %20 = tt.expand_dims %19 {axis = 1 : i32} : (tensor<1xf32>) -> tensor<1x1xf32>
    %21 = arith.divf %20, %cst_4 : tensor<1x1xf32>
    %22 = arith.addf %21, %cst_3 : tensor<1x1xf32>
    %23 = tt.extern_elementwise %22 {libname = "libdevice", libpath = "/home/zeus/miniconda3/envs/cloudspace/lib/python3.10/site-packages/triton/language/../third_party/cuda/lib/libdevice.10.bc", pure = true, symbol = "__nv_rsqrtf"} : (tensor<1x1xf32>) -> tensor<1x1xf32>
    gpu.barrier
    %24 = tt.addptr %arg0, %0 : !tt.ptr<f32, 1>, i32
    %25 = tt.splat %24 : (!tt.ptr<f32, 1>) -> tensor<1x1x!tt.ptr<f32, 1>>
    tt.store %25, %23 {cache = 1 : i32, evict = 1 : i32} : tensor<1x1xf32>
    %26 = arith.muli %0, %c2304_i32 : i32
    %27 = tt.splat %26 : (i32) -> tensor<1x2048xi32>
    %28 = tt.splat %arg4 : (!tt.ptr<f32, 1>) -> tensor<1x2048x!tt.ptr<f32, 1>>
    %29 = tt.splat %arg3 : (!tt.ptr<f32, 1>) -> tensor<1x2048x!tt.ptr<f32, 1>>
    %30 = tt.broadcast %23 : (tensor<1x1xf32>) -> tensor<1x2048xf32>
    %31 = tt.splat %arg5 : (!tt.ptr<bf16, 1>) -> tensor<1x2048x!tt.ptr<bf16, 1>>
    scf.for %arg8 = %c0_i32 to %c2304_i32 step %c2048_i32  : i32 {
      %32 = tt.splat %arg8 : (i32) -> tensor<1x2048xi32>
      %33 = arith.addi %32, %2 : tensor<1x2048xi32>
      %34 = arith.cmpi slt, %33, %cst_6 : tensor<1x2048xi32>
      %35 = arith.addi %33, %27 : tensor<1x2048xi32>
      %36 = tt.addptr %28, %35 : tensor<1x2048x!tt.ptr<f32, 1>>, tensor<1x2048xi32>
      %37 = tt.load %36, %34, %cst_7 {cache = 1 : i32, evict = 2 : i32, isVolatile = false} : tensor<1x2048xf32>
      %38 = tt.addptr %29, %33 : tensor<1x2048x!tt.ptr<f32, 1>>, tensor<1x2048xi32>
      %39 = tt.load %38, %34, %cst_7 {cache = 1 : i32, evict = 3 : i32, isVolatile = false} : tensor<1x2048xf32>
      %40 = arith.mulf %37, %cst_5 : tensor<1x2048xf32>
      %41 = arith.mulf %40, %30 : tensor<1x2048xf32>
      %42 = arith.addf %39, %cst_2 : tensor<1x2048xf32>
      %43 = arith.mulf %41, %42 : tensor<1x2048xf32>
      %44 = tt.addptr %31, %35 : tensor<1x2048x!tt.ptr<bf16, 1>>, tensor<1x2048xi32>
      %45 = arith.truncf %43 : tensor<1x2048xf32> to tensor<1x2048xbf16>
      tt.store %44, %45, %34 {cache = 1 : i32, evict = 1 : i32} : tensor<1x2048xbf16>
    }
    tt.return
  }
}
