module {
  tt.func public @triton__…(%arg0: !tt.ptr<bf16, 1> {tt.divisibility = 16 : i32}, %arg1: !tt.ptr<f32, 1> {tt.divisibility = 16 : i32}, %arg2: !tt.ptr<f32, 1> {tt.divisibility = 16 : i32}, %arg3: !tt.ptr<bf16, 1> {tt.divisibility = 16 : i32}, %arg4: !tt.ptr<f32, 1> {tt.divisibility = 16 : i32}, %arg5: !tt.ptr<f32, 1> {tt.divisibility = 16 : i32}, %arg6: !tt.ptr<f32, 1> {tt.divisibility = 16 : i32}, %arg7: !tt.ptr<bf16, 1> {tt.divisibility = 16 : i32}, %arg8: !tt.ptr<f32, 1> {tt.divisibility = 16 : i32}, %arg9: !tt.ptr<f32, 1> {tt.divisibility = 16 : i32}, %arg10: !tt.ptr<bf16, 1> {tt.divisibility = 16 : i32}, %arg11: !tt.ptr<f32, 1> {tt.divisibility = 16 : i32}, %arg12: !tt.ptr<f32, 1> {tt.divisibility = 16 : i32}, %arg13: !tt.ptr<bf16, 1> {tt.divisibility = 16 : i32}, %arg14: !tt.ptr<f32, 1> {tt.divisibility = 16 : i32}, %arg15: !tt.ptr<f32, 1> {tt.divisibility = 16 : i32}, %arg16: !tt.ptr<bf16, 1> {tt.divisibility = 16 : i32}, %arg17: !tt.ptr<f32, 1> {tt.divisibility = 16 : i32}, %arg18: !tt.ptr<f32, 1> {tt.divisibility = 16 : i32}, %arg19: !tt.ptr<bf16, 1> {tt.divisibility = 16 : i32}, %arg20: !tt.ptr<f32, 1> {tt.divisibility = 16 : i32}, %arg21: !tt.ptr<f32, 1> {tt.divisibility = 16 : i32}, %arg22: !tt.ptr<bf16, 1> {tt.divisibility = 16 : i32}, %arg23: !tt.ptr<f32, 1> {tt.divisibility = 16 : i32}, %arg24: !tt.ptr<f32, 1> {tt.divisibility = 16 : i32}, %arg25: !tt.ptr<bf16, 1> {tt.divisibility = 16 : i32}, %arg26: !tt.ptr<f32, 1> {tt.divisibility = 16 : i32}, %arg27: !tt.ptr<f32, 1> {tt.divisibility = 16 : i32}, %arg28: !tt.ptr<bf16, 1> {tt.divisibility = 16 : i32}, %arg29: !tt.ptr<f32, 1> {tt.divisibility = 16 : i32}, %arg30: !tt.ptr<f32, 1> {tt.divisibility = 16 : i32}, %arg31: !tt.ptr<bf16, 1> {tt.divisibility = 16 : i32}, %arg32: !tt.ptr<f32, 1> {tt.divisibility = 16 : i32}, %arg33: !tt.ptr<f32, 1> {tt.divisibility = 16 : i32}, %arg34: !tt.ptr<bf16, 1> {tt.divisibility = 16 : i32}, %arg35: !tt.ptr<f32, 1> {tt.divisibility = 16 : i32}, %arg36: !tt.ptr<f32, 1> {tt.divisibility = 16 : i32}, %arg37: !tt.ptr<bf16, 1> {tt.divisibility = 16 : i32}, %arg38: !tt.ptr<f32, 1> {tt.divisibility = 16 : i32}, %arg39: !tt.ptr<f32, 1> {tt.divisibility = 16 : i32}, %arg40: !tt.ptr<bf16, 1> {tt.divisibility = 16 : i32}, %arg41: !tt.ptr<f32, 1> {tt.divisibility = 16 : i32}, %arg42: !tt.ptr<f32, 1> {tt.divisibility = 16 : i32}, %arg43: !tt.ptr<bf16, 1> {tt.divisibility = 16 : i32}, %arg44: !tt.ptr<f32, 1> {tt.divisibility = 16 : i32}, %arg45: !tt.ptr<f32, 1> {tt.divisibility = 16 : i32}, %arg46: !tt.ptr<bf16, 1> {tt.divisibility = 16 : i32}, %arg47: !tt.ptr<f32, 1> {tt.divisibility = 16 : i32}, %arg48: !tt.ptr<f32, 1> {tt.divisibility = 16 : i32}, %arg49: !tt.ptr<bf16, 1> {tt.divisibility = 16 : i32}, %arg50: !tt.ptr<f32, 1> {tt.divisibility = 16 : i32}, %arg51: !tt.ptr<f32, 1> {tt.divisibility = 16 : i32}, %arg52: !tt.ptr<bf16, 1> {tt.divisibility = 16 : i32}, %arg53: !tt.ptr<f32, 1> {tt.divisibility = 16 : i32}, %arg54: !tt.ptr<f32, 1> {tt.divisibility = 16 : i32}, %arg55: !tt.ptr<bf16, 1> {tt.divisibility = 16 : i32}, %arg56: !tt.ptr<f32, 1> {tt.divisibility = 16 : i32}, %arg57: !tt.ptr<f32, 1> {tt.divisibility = 16 : i32}, %arg58: !tt.ptr<bf16, 1> {tt.divisibility = 16 : i32}, %arg59: !tt.ptr<f32, 1> {tt.divisibility = 16 : i32}, %arg60: !tt.ptr<f32, 1> {tt.divisibility = 16 : i32}, %arg61: !tt.ptr<bf16, 1> {tt.divisibility = 16 : i32}, %arg62: !tt.ptr<f32, 1> {tt.divisibility = 16 : i32}, %arg63: !tt.ptr<f32, 1> {tt.divisibility = 16 : i32}, %arg64: !tt.ptr<bf16, 1> {tt.divisibility = 16 : i32}, %arg65: !tt.ptr<f32, 1> {tt.divisibility = 16 : i32}, %arg66: !tt.ptr<f32, 1> {tt.divisibility = 16 : i32}, %arg67: !tt.ptr<bf16, 1> {tt.divisibility = 16 : i32}, %arg68: !tt.ptr<f32, 1> {tt.divisibility = 16 : i32}, %arg69: !tt.ptr<f32, 1> {tt.divisibility = 16 : i32}, %arg70: !tt.ptr<bf16, 1> {tt.divisibility = 16 : i32}, %arg71: !tt.ptr<f32, 1> {tt.divisibility = 16 : i32}, %arg72: !tt.ptr<f32, 1> {tt.divisibility = 16 : i32}, %arg73: !tt.ptr<bf16, 1> {tt.divisibility = 16 : i32}, %arg74: !tt.ptr<f32, 1> {tt.divisibility = 16 : i32}, %arg75: !tt.ptr<f32, 1> {tt.divisibility = 16 : i32}, %arg76: !tt.ptr<bf16, 1> {tt.divisibility = 16 : i32}, %arg77: !tt.ptr<f32, 1> {tt.divisibility = 16 : i32}, %arg78: !tt.ptr<f32, 1> {tt.divisibility = 16 : i32}, %arg79: !tt.ptr<bf16, 1> {tt.divisibility = 16 : i32}, %arg80: !tt.ptr<f32, 1> {tt.divisibility = 16 : i32}, %arg81: !tt.ptr<f32, 1> {tt.divisibility = 16 : i32}, %arg82: !tt.ptr<bf16, 1> {tt.divisibility = 16 : i32}, %arg83: !tt.ptr<f32, 1> {tt.divisibility = 16 : i32}, %arg84: !tt.ptr<f32, 1> {tt.divisibility = 16 : i32}, %arg85: !tt.ptr<bf16, 1> {tt.divisibility = 16 : i32}, %arg86: !tt.ptr<f32, 1> {tt.divisibility = 16 : i32}, %arg87: !tt.ptr<f32, 1> {tt.divisibility = 16 : i32}, %arg88: !tt.ptr<bf16, 1> {tt.divisibility = 16 : i32}, %arg89: !tt.ptr<f32, 1> {tt.divisibility = 16 : i32}, %arg90: !tt.ptr<f32, 1> {tt.divisibility = 16 : i32}, %arg91: !tt.ptr<bf16, 1> {tt.divisibility = 16 : i32}, %arg92: !tt.ptr<f32, 1> {tt.divisibility = 16 : i32}, %arg93: !tt.ptr<f32, 1> {tt.divisibility = 16 : i32}, %arg94: !tt.ptr<bf16, 1> {tt.divisibility = 16 : i32}, %arg95: !tt.ptr<f32, 1> {tt.divisibility = 16 : i32}, %arg96: !tt.ptr<f32, 1> {tt.divisibility = 16 : i32}, %arg97: !tt.ptr<bf16, 1> {tt.divisibility = 16 : i32}, %arg98: !tt.ptr<f32, 1> {tt.divisibility = 16 : i32}, %arg99: !tt.ptr<f32, 1> {tt.divisibility = 16 : i32}, %arg100: !tt.ptr<bf16, 1> {tt.divisibility = 16 : i32}, %arg101: !tt.ptr<f32, 1> {tt.divisibility = 16 : i32}, %arg102: !tt.ptr<f32, 1> {tt.divisibility = 16 : i32}, %arg103: !tt.ptr<bf16, 1> {tt.divisibility = 16 : i32}, %arg104: !tt.ptr<f32, 1> {tt.divisibility = 16 : i32}, %arg105: !tt.ptr<f32, 1> {tt.divisibility = 16 : i32}, %arg106: !tt.ptr<bf16, 1> {tt.divisibility = 16 : i32}, %arg107: !tt.ptr<f32, 1> {tt.divisibility = 16 : i32}, %arg108: !tt.ptr<f32, 1> {tt.divisibility = 16 : i32}, %arg109: !tt.ptr<bf16, 1> {tt.divisibility = 16 : i32}, %arg110: !tt.ptr<f32, 1> {tt.divisibility = 16 : i32}, %arg111: !tt.ptr<f32, 1> {tt.divisibility = 16 : i32}, %arg112: !tt.ptr<bf16, 1> {tt.divisibility = 16 : i32}, %arg113: !tt.ptr<f32, 1> {tt.divisibility = 16 : i32}, %arg114: !tt.ptr<f32, 1> {tt.divisibility = 16 : i32}, %arg115: !tt.ptr<bf16, 1> {tt.divisibility = 16 : i32}, %arg116: !tt.ptr<f32, 1> {tt.divisibility = 16 : i32}, %arg117: !tt.ptr<f32, 1> {tt.divisibility = 16 : i32}, %arg118: !tt.ptr<bf16, 1> {tt.divisibility = 16 : i32}, %arg119: !tt.ptr<f32, 1> {tt.divisibility = 16 : i32}, %arg120: !tt.ptr<f32, 1> {tt.divisibility = 16 : i32}, %arg121: !tt.ptr<bf16, 1> {tt.divisibility = 16 : i32}, %arg122: !tt.ptr<f32, 1> {tt.divisibility = 16 : i32}, %arg123: !tt.ptr<f32, 1> {tt.divisibility = 16 : i32}, %arg124: !tt.ptr<bf16, 1> {tt.divisibility = 16 : i32}, %arg125: !tt.ptr<f32, 1> {tt.divisibility = 16 : i32}, %arg126: !tt.ptr<f32, 1> {tt.divisibility = 16 : i32}, %arg127: !tt.ptr<bf16, 1> {tt.divisibility = 16 : i32}, %arg128: !tt.ptr<f32, 1> {tt.divisibility = 16 : i32}, %arg129: !tt.ptr<f32, 1> {tt.divisibility = 16 : i32}, %arg130: !tt.ptr<bf16, 1> {tt.divisibility = 16 : i32}, %arg131: !tt.ptr<f32, 1> {tt.divisibility = 16 : i32}, %arg132: !tt.ptr<f32, 1> {tt.divisibility = 16 : i32}, %arg133: !tt.ptr<bf16, 1> {tt.divisibility = 16 : i32}, %arg134: !tt.ptr<f32, 1> {tt.divisibility = 16 : i32}, %arg135: !tt.ptr<f32, 1> {tt.divisibility = 16 : i32}, %arg136: !tt.ptr<bf16, 1> {tt.divisibility = 16 : i32}, %arg137: !tt.ptr<f32, 1> {tt.divisibility = 16 : i32}, %arg138: !tt.ptr<f32, 1> {tt.divisibility = 16 : i32}, %arg139: !tt.ptr<bf16, 1> {tt.divisibility = 16 : i32}, %arg140: !tt.ptr<f32, 1> {tt.divisibility = 16 : i32}, %arg141: !tt.ptr<f32, 1> {tt.divisibility = 16 : i32}, %arg142: !tt.ptr<bf16, 1> {tt.divisibility = 16 : i32}, %arg143: !tt.ptr<f32, 1> {tt.divisibility = 16 : i32}, %arg144: !tt.ptr<f32, 1> {tt.divisibility = 16 : i32}, %arg145: !tt.ptr<bf16, 1> {tt.divisibility = 16 : i32}, %arg146: !tt.ptr<f32, 1> {tt.divisibility = 16 : i32}, %arg147: !tt.ptr<f32, 1> {tt.divisibility = 16 : i32}, %arg148: !tt.ptr<bf16, 1> {tt.divisibility = 16 : i32}, %arg149: !tt.ptr<f32, 1> {tt.divisibility = 16 : i32}, %arg150: !tt.ptr<f32, 1> {tt.divisibility = 16 : i32}, %arg151: !tt.ptr<bf16, 1> {tt.divisibility = 16 : i32}, %arg152: !tt.ptr<f32, 1> {tt.divisibility = 16 : i32}, %arg153: !tt.ptr<f32, 1> {tt.divisibility = 16 : i32}, %arg154: !tt.ptr<bf16, 1> {tt.divisibility = 16 : i32}, %arg155: !tt.ptr<f32, 1> {tt.divisibility = 16 : i32}, %arg156: !tt.ptr<f32, 1> {tt.divisibility = 16 : i32}, %arg157: !tt.ptr<bf16, 1> {tt.divisibility = 16 : i32}, %arg158: !tt.ptr<f32, 1> {tt.divisibility = 16 : i32}, %arg159: !tt.ptr<f32, 1> {tt.divisibility = 16 : i32}, %arg160: !tt.ptr<f32, 1> {tt.divisibility = 16 : i32}, %arg161: !tt.ptr<f32, 1> {tt.divisibility = 16 : i32}, %arg162: !tt.ptr<f32, 1> {tt.divisibility = 16 : i32}, %arg163: !tt.ptr<f32, 1> {tt.divisibility = 16 : i32}, %arg164: !tt.ptr<f32, 1> {tt.divisibility = 16 : i32}, %arg165: !tt.ptr<f32, 1> {tt.divisibility = 16 : i32}, %arg166: !tt.ptr<f32, 1> {tt.divisibility = 16 : i32}, %arg167: !tt.ptr<f32, 1> {tt.divisibility = 16 : i32}, %arg168: !tt.ptr<f32, 1> {tt.divisibility = 16 : i32}, %arg169: !tt.ptr<f32, 1> {tt.divisibility = 16 : i32}, %arg170: !tt.ptr<f32, 1> {tt.divisibility = 16 : i32}, %arg171: !tt.ptr<f32, 1> {tt.divisibility = 16 : i32}, %arg172: !tt.ptr<f32, 1> {tt.divisibility = 16 : i32}, %arg173: !tt.ptr<f32, 1> {tt.divisibility = 16 : i32}, %arg174: !tt.ptr<f32, 1> {tt.divisibility = 16 : i32}, %arg175: !tt.ptr<f32, 1> {tt.divisibility = 16 : i32}, %arg176: !tt.ptr<f32, 1> {tt.divisibility = 16 : i32}, %arg177: !tt.ptr<f32, 1> {tt.divisibility = 16 : i32}, %arg178: !tt.ptr<f32, 1> {tt.divisibility = 16 : i32}, %arg179: !tt.ptr<f32, 1> {tt.divisibility = 16 : i32}, %arg180: !tt.ptr<f32, 1> {tt.divisibility = 16 : i32}, %arg181: !tt.ptr<f32, 1> {tt.divisibility = 16 : i32}, %arg182: !tt.ptr<f32, 1> {tt.divisibility = 16 : i32}, %arg183: !tt.ptr<f32, 1> {tt.divisibility = 16 : i32}, %arg184: !tt.ptr<f32, 1> {tt.divisibility = 16 : i32}, %arg185: !tt.ptr<f32, 1> {tt.divisibility = 16 : i32}, %arg186: !tt.ptr<f32, 1> {tt.divisibility = 16 : i32}, %arg187: !tt.ptr<bf16, 1> {tt.divisibility = 16 : i32}, %arg188: i32, %arg189: i32 {tt.divisibility = 16 : i32, tt.max_divisibility = 16 : i32}) attributes {noinline = false} {
    %c4_i32 = arith.constant 4 : i32
    %cst = arith.constant dense<0.000000e+00> : tensor<1x2048xbf16>
    %c2304_i32 = arith.constant 2304 : i32
    %c2048_i32 = arith.constant 2048 : i32
    %c0_i32 = arith.constant 0 : i32
    %cst_0 = arith.constant dense<2.304000e+03> : tensor<1x1xf32>
    %cst_1 = arith.constant dense<-5.000000e-01> : tensor<1x1xf32>
    %cst_2 = arith.constant dense<4.800000e+01> : tensor<1x2048xf32>
    %cst_3 = arith.constant dense<1.000000e+00> : tensor<1x2048xf32>
    %cst_4 = arith.constant dense<2304> : tensor<1x2048xi32>
    %cst_5 = arith.constant dense<0.000000e+00> : tensor<1x2048xf32>
    %0 = tt.get_program_id x : i32
    %1 = arith.cmpi slt, %0, %c4_i32 : i32
    %2 = tt.splat %1 : (i1) -> tensor<1x1xi1>
    %3 = tt.make_range {end = 2048 : i32, start = 0 : i32} : tensor<2048xi32>
    %4 = tt.expand_dims %3 {axis = 0 : i32} : (tensor<2048xi32>) -> tensor<1x2048xi32>
    %5 = tt.addptr %arg1, %0 : !tt.ptr<f32, 1>, i32
    %6 = tt.splat %5 : (!tt.ptr<f32, 1>) -> tensor<1x1x!tt.ptr<f32, 1>>
    %7 = tt.load %6, %2 {cache = 1 : i32, evict = 3 : i32, isVolatile = false} : tensor<1x1xf32>
    %8 = tt.addptr %arg4, %0 : !tt.ptr<f32, 1>, i32
    %9 = tt.splat %8 : (!tt.ptr<f32, 1>) -> tensor<1x1x!tt.ptr<f32, 1>>
    %10 = tt.load %9, %2 {cache = 1 : i32, evict = 3 : i32, isVolatile = false} : tensor<1x1xf32>
    %11 = tt.addptr %arg8, %0 : !tt.ptr<f32, 1>, i32
    %12 = tt.splat %11 : (!tt.ptr<f32, 1>) -> tensor<1x1x!tt.ptr<f32, 1>>
    %13 = tt.load %12, %2 {cache = 1 : i32, evict = 3 : i32, isVolatile = false} : tensor<1x1xf32>
    %14 = tt.addptr %arg11, %0 : !tt.ptr<f32, 1>, i32
    %15 = tt.splat %14 : (!tt.ptr<f32, 1>) -> tensor<1x1x!tt.ptr<f32, 1>>
    %16 = tt.load %15, %2 {cache = 1 : i32, evict = 3 : i32, isVolatile = false} : tensor<1x1xf32>
    %17 = tt.addptr %arg14, %0 : !tt.ptr<f32, 1>, i32
    %18 = tt.splat %17 : (!tt.ptr<f32, 1>) -> tensor<1x1x!tt.ptr<f32, 1>>
    %19 = tt.load %18, %2 {cache = 1 : i32, evict = 3 : i32, isVolatile = false} : tensor<1x1xf32>
    %20 = tt.addptr %arg17, %0 : !tt.ptr<f32, 1>, i32
    %21 = tt.splat %20 : (!tt.ptr<f32, 1>) -> tensor<1x1x!tt.ptr<f32, 1>>
    %22 = tt.load %21, %2 {cache = 1 : i32, evict = 3 : i32, isVolatile = false} : tensor<1x1xf32>
    %23 = tt.addptr %arg20, %0 : !tt.ptr<f32, 1>, i32
    %24 = tt.splat %23 : (!tt.ptr<f32, 1>) -> tensor<1x1x!tt.ptr<f32, 1>>
    %25 = tt.load %24, %2 {cache = 1 : i32, evict = 3 : i32, isVolatile = false} : tensor<1x1xf32>
    %26 = tt.addptr %arg23, %0 : !tt.ptr<f32, 1>, i32
    %27 = tt.splat %26 : (!tt.ptr<f32, 1>) -> tensor<1x1x!tt.ptr<f32, 1>>
    %28 = tt.load %27, %2 {cache = 1 : i32, evict = 3 : i32, isVolatile = false} : tensor<1x1xf32>
    %29 = tt.addptr %arg26, %0 : !tt.ptr<f32, 1>, i32
    %30 = tt.splat %29 : (!tt.ptr<f32, 1>) -> tensor<1x1x!tt.ptr<f32, 1>>
    %31 = tt.load %30, %2 {cache = 1 : i32, evict = 3 : i32, isVolatile = false} : tensor<1x1xf32>
    %32 = tt.addptr %arg29, %0 : !tt.ptr<f32, 1>, i32
    %33 = tt.splat %32 : (!tt.ptr<f32, 1>) -> tensor<1x1x!tt.ptr<f32, 1>>
    %34 = tt.load %33, %2 {cache = 1 : i32, evict = 3 : i32, isVolatile = false} : tensor<1x1xf32>
    %35 = tt.addptr %arg32, %0 : !tt.ptr<f32, 1>, i32
    %36 = tt.splat %35 : (!tt.ptr<f32, 1>) -> tensor<1x1x!tt.ptr<f32, 1>>
    %37 = tt.load %36, %2 {cache = 1 : i32, evict = 3 : i32, isVolatile = false} : tensor<1x1xf32>
    %38 = tt.addptr %arg35, %0 : !tt.ptr<f32, 1>, i32
    %39 = tt.splat %38 : (!tt.ptr<f32, 1>) -> tensor<1x1x!tt.ptr<f32, 1>>
    %40 = tt.load %39, %2 {cache = 1 : i32, evict = 3 : i32, isVolatile = false} : tensor<1x1xf32>
    %41 = tt.addptr %arg38, %0 : !tt.ptr<f32, 1>, i32
    %42 = tt.splat %41 : (!tt.ptr<f32, 1>) -> tensor<1x1x!tt.ptr<f32, 1>>
    %43 = tt.load %42, %2 {cache = 1 : i32, evict = 3 : i32, isVolatile = false} : tensor<1x1xf32>
    %44 = tt.addptr %arg41, %0 : !tt.ptr<f32, 1>, i32
    %45 = tt.splat %44 : (!tt.ptr<f32, 1>) -> tensor<1x1x!tt.ptr<f32, 1>>
    %46 = tt.load %45, %2 {cache = 1 : i32, evict = 3 : i32, isVolatile = false} : tensor<1x1xf32>
    %47 = tt.addptr %arg44, %0 : !tt.ptr<f32, 1>, i32
    %48 = tt.splat %47 : (!tt.ptr<f32, 1>) -> tensor<1x1x!tt.ptr<f32, 1>>
    %49 = tt.load %48, %2 {cache = 1 : i32, evict = 3 : i32, isVolatile = false} : tensor<1x1xf32>
    %50 = tt.addptr %arg47, %0 : !tt.ptr<f32, 1>, i32
    %51 = tt.splat %50 : (!tt.ptr<f32, 1>) -> tensor<1x1x!tt.ptr<f32, 1>>
    %52 = tt.load %51, %2 {cache = 1 : i32, evict = 3 : i32, isVolatile = false} : tensor<1x1xf32>
    %53 = tt.addptr %arg50, %0 : !tt.ptr<f32, 1>, i32
    %54 = tt.splat %53 : (!tt.ptr<f32, 1>) -> tensor<1x1x!tt.ptr<f32, 1>>
    %55 = tt.load %54, %2 {cache = 1 : i32, evict = 3 : i32, isVolatile = false} : tensor<1x1xf32>
    %56 = tt.addptr %arg53, %0 : !tt.ptr<f32, 1>, i32
    %57 = tt.splat %56 : (!tt.ptr<f32, 1>) -> tensor<1x1x!tt.ptr<f32, 1>>
    %58 = tt.load %57, %2 {cache = 1 : i32, evict = 3 : i32, isVolatile = false} : tensor<1x1xf32>
    %59 = tt.addptr %arg56, %0 : !tt.ptr<f32, 1>, i32
    %60 = tt.splat %59 : (!tt.ptr<f32, 1>) -> tensor<1x1x!tt.ptr<f32, 1>>
    %61 = tt.load %60, %2 {cache = 1 : i32, evict = 3 : i32, isVolatile = false} : tensor<1x1xf32>
    %62 = tt.addptr %arg59, %0 : !tt.ptr<f32, 1>, i32
    %63 = tt.splat %62 : (!tt.ptr<f32, 1>) -> tensor<1x1x!tt.ptr<f32, 1>>
    %64 = tt.load %63, %2 {cache = 1 : i32, evict = 3 : i32, isVolatile = false} : tensor<1x1xf32>
    %65 = tt.addptr %arg62, %0 : !tt.ptr<f32, 1>, i32
    %66 = tt.splat %65 : (!tt.ptr<f32, 1>) -> tensor<1x1x!tt.ptr<f32, 1>>
    %67 = tt.load %66, %2 {cache = 1 : i32, evict = 3 : i32, isVolatile = false} : tensor<1x1xf32>
    %68 = tt.addptr %arg65, %0 : !tt.ptr<f32, 1>, i32
    %69 = tt.splat %68 : (!tt.ptr<f32, 1>) -> tensor<1x1x!tt.ptr<f32, 1>>
    %70 = tt.load %69, %2 {cache = 1 : i32, evict = 3 : i32, isVolatile = false} : tensor<1x1xf32>
    %71 = tt.addptr %arg68, %0 : !tt.ptr<f32, 1>, i32
    %72 = tt.splat %71 : (!tt.ptr<f32, 1>) -> tensor<1x1x!tt.ptr<f32, 1>>
    %73 = tt.load %72, %2 {cache = 1 : i32, evict = 3 : i32, isVolatile = false} : tensor<1x1xf32>
    %74 = tt.addptr %arg71, %0 : !tt.ptr<f32, 1>, i32
    %75 = tt.splat %74 : (!tt.ptr<f32, 1>) -> tensor<1x1x!tt.ptr<f32, 1>>
    %76 = tt.load %75, %2 {cache = 1 : i32, evict = 3 : i32, isVolatile = false} : tensor<1x1xf32>
    %77 = tt.addptr %arg74, %0 : !tt.ptr<f32, 1>, i32
    %78 = tt.splat %77 : (!tt.ptr<f32, 1>) -> tensor<1x1x!tt.ptr<f32, 1>>
    %79 = tt.load %78, %2 {cache = 1 : i32, evict = 3 : i32, isVolatile = false} : tensor<1x1xf32>
    %80 = tt.addptr %arg77, %0 : !tt.ptr<f32, 1>, i32
    %81 = tt.splat %80 : (!tt.ptr<f32, 1>) -> tensor<1x1x!tt.ptr<f32, 1>>
    %82 = tt.load %81, %2 {cache = 1 : i32, evict = 3 : i32, isVolatile = false} : tensor<1x1xf32>
    %83 = tt.addptr %arg80, %0 : !tt.ptr<f32, 1>, i32
    %84 = tt.splat %83 : (!tt.ptr<f32, 1>) -> tensor<1x1x!tt.ptr<f32, 1>>
    %85 = tt.load %84, %2 {cache = 1 : i32, evict = 3 : i32, isVolatile = false} : tensor<1x1xf32>
    %86 = tt.addptr %arg83, %0 : !tt.ptr<f32, 1>, i32
    %87 = tt.splat %86 : (!tt.ptr<f32, 1>) -> tensor<1x1x!tt.ptr<f32, 1>>
    %88 = tt.load %87, %2 {cache = 1 : i32, evict = 3 : i32, isVolatile = false} : tensor<1x1xf32>
    %89 = tt.addptr %arg86, %0 : !tt.ptr<f32, 1>, i32
    %90 = tt.splat %89 : (!tt.ptr<f32, 1>) -> tensor<1x1x!tt.ptr<f32, 1>>
    %91 = tt.load %90, %2 {cache = 1 : i32, evict = 3 : i32, isVolatile = false} : tensor<1x1xf32>
    %92 = tt.addptr %arg89, %0 : !tt.ptr<f32, 1>, i32
    %93 = tt.splat %92 : (!tt.ptr<f32, 1>) -> tensor<1x1x!tt.ptr<f32, 1>>
    %94 = tt.load %93, %2 {cache = 1 : i32, evict = 3 : i32, isVolatile = false} : tensor<1x1xf32>
    %95 = tt.addptr %arg92, %0 : !tt.ptr<f32, 1>, i32
    %96 = tt.splat %95 : (!tt.ptr<f32, 1>) -> tensor<1x1x!tt.ptr<f32, 1>>
    %97 = tt.load %96, %2 {cache = 1 : i32, evict = 3 : i32, isVolatile = false} : tensor<1x1xf32>
    %98 = tt.addptr %arg95, %0 : !tt.ptr<f32, 1>, i32
    %99 = tt.splat %98 : (!tt.ptr<f32, 1>) -> tensor<1x1x!tt.ptr<f32, 1>>
    %100 = tt.load %99, %2 {cache = 1 : i32, evict = 3 : i32, isVolatile = false} : tensor<1x1xf32>
    %101 = tt.addptr %arg98, %0 : !tt.ptr<f32, 1>, i32
    %102 = tt.splat %101 : (!tt.ptr<f32, 1>) -> tensor<1x1x!tt.ptr<f32, 1>>
    %103 = tt.load %102, %2 {cache = 1 : i32, evict = 3 : i32, isVolatile = false} : tensor<1x1xf32>
    %104 = tt.addptr %arg101, %0 : !tt.ptr<f32, 1>, i32
    %105 = tt.splat %104 : (!tt.ptr<f32, 1>) -> tensor<1x1x!tt.ptr<f32, 1>>
    %106 = tt.load %105, %2 {cache = 1 : i32, evict = 3 : i32, isVolatile = false} : tensor<1x1xf32>
    %107 = tt.addptr %arg104, %0 : !tt.ptr<f32, 1>, i32
    %108 = tt.splat %107 : (!tt.ptr<f32, 1>) -> tensor<1x1x!tt.ptr<f32, 1>>
    %109 = tt.load %108, %2 {cache = 1 : i32, evict = 3 : i32, isVolatile = false} : tensor<1x1xf32>
    %110 = tt.addptr %arg107, %0 : !tt.ptr<f32, 1>, i32
    %111 = tt.splat %110 : (!tt.ptr<f32, 1>) -> tensor<1x1x!tt.ptr<f32, 1>>
    %112 = tt.load %111, %2 {cache = 1 : i32, evict = 3 : i32, isVolatile = false} : tensor<1x1xf32>
    %113 = tt.addptr %arg110, %0 : !tt.ptr<f32, 1>, i32
    %114 = tt.splat %113 : (!tt.ptr<f32, 1>) -> tensor<1x1x!tt.ptr<f32, 1>>
    %115 = tt.load %114, %2 {cache = 1 : i32, evict = 3 : i32, isVolatile = false} : tensor<1x1xf32>
    %116 = tt.addptr %arg113, %0 : !tt.ptr<f32, 1>, i32
    %117 = tt.splat %116 : (!tt.ptr<f32, 1>) -> tensor<1x1x!tt.ptr<f32, 1>>
    %118 = tt.load %117, %2 {cache = 1 : i32, evict = 3 : i32, isVolatile = false} : tensor<1x1xf32>
    %119 = tt.addptr %arg116, %0 : !tt.ptr<f32, 1>, i32
    %120 = tt.splat %119 : (!tt.ptr<f32, 1>) -> tensor<1x1x!tt.ptr<f32, 1>>
    %121 = tt.load %120, %2 {cache = 1 : i32, evict = 3 : i32, isVolatile = false} : tensor<1x1xf32>
    %122 = tt.addptr %arg119, %0 : !tt.ptr<f32, 1>, i32
    %123 = tt.splat %122 : (!tt.ptr<f32, 1>) -> tensor<1x1x!tt.ptr<f32, 1>>
    %124 = tt.load %123, %2 {cache = 1 : i32, evict = 3 : i32, isVolatile = false} : tensor<1x1xf32>
    %125 = tt.addptr %arg122, %0 : !tt.ptr<f32, 1>, i32
    %126 = tt.splat %125 : (!tt.ptr<f32, 1>) -> tensor<1x1x!tt.ptr<f32, 1>>
    %127 = tt.load %126, %2 {cache = 1 : i32, evict = 3 : i32, isVolatile = false} : tensor<1x1xf32>
    %128 = tt.addptr %arg125, %0 : !tt.ptr<f32, 1>, i32
    %129 = tt.splat %128 : (!tt.ptr<f32, 1>) -> tensor<1x1x!tt.ptr<f32, 1>>
    %130 = tt.load %129, %2 {cache = 1 : i32, evict = 3 : i32, isVolatile = false} : tensor<1x1xf32>
    %131 = tt.addptr %arg128, %0 : !tt.ptr<f32, 1>, i32
    %132 = tt.splat %131 : (!tt.ptr<f32, 1>) -> tensor<1x1x!tt.ptr<f32, 1>>
    %133 = tt.load %132, %2 {cache = 1 : i32, evict = 3 : i32, isVolatile = false} : tensor<1x1xf32>
    %134 = tt.addptr %arg131, %0 : !tt.ptr<f32, 1>, i32
    %135 = tt.splat %134 : (!tt.ptr<f32, 1>) -> tensor<1x1x!tt.ptr<f32, 1>>
    %136 = tt.load %135, %2 {cache = 1 : i32, evict = 3 : i32, isVolatile = false} : tensor<1x1xf32>
    %137 = tt.addptr %arg134, %0 : !tt.ptr<f32, 1>, i32
    %138 = tt.splat %137 : (!tt.ptr<f32, 1>) -> tensor<1x1x!tt.ptr<f32, 1>>
    %139 = tt.load %138, %2 {cache = 1 : i32, evict = 3 : i32, isVolatile = false} : tensor<1x1xf32>
    %140 = tt.addptr %arg137, %0 : !tt.ptr<f32, 1>, i32
    %141 = tt.splat %140 : (!tt.ptr<f32, 1>) -> tensor<1x1x!tt.ptr<f32, 1>>
    %142 = tt.load %141, %2 {cache = 1 : i32, evict = 3 : i32, isVolatile = false} : tensor<1x1xf32>
    %143 = tt.addptr %arg140, %0 : !tt.ptr<f32, 1>, i32
    %144 = tt.splat %143 : (!tt.ptr<f32, 1>) -> tensor<1x1x!tt.ptr<f32, 1>>
    %145 = tt.load %144, %2 {cache = 1 : i32, evict = 3 : i32, isVolatile = false} : tensor<1x1xf32>
    %146 = tt.addptr %arg143, %0 : !tt.ptr<f32, 1>, i32
    %147 = tt.splat %146 : (!tt.ptr<f32, 1>) -> tensor<1x1x!tt.ptr<f32, 1>>
    %148 = tt.load %147, %2 {cache = 1 : i32, evict = 3 : i32, isVolatile = false} : tensor<1x1xf32>
    %149 = tt.addptr %arg146, %0 : !tt.ptr<f32, 1>, i32
    %150 = tt.splat %149 : (!tt.ptr<f32, 1>) -> tensor<1x1x!tt.ptr<f32, 1>>
    %151 = tt.load %150, %2 {cache = 1 : i32, evict = 3 : i32, isVolatile = false} : tensor<1x1xf32>
    %152 = tt.addptr %arg149, %0 : !tt.ptr<f32, 1>, i32
    %153 = tt.splat %152 : (!tt.ptr<f32, 1>) -> tensor<1x1x!tt.ptr<f32, 1>>
    %154 = tt.load %153, %2 {cache = 1 : i32, evict = 3 : i32, isVolatile = false} : tensor<1x1xf32>
    %155 = tt.addptr %arg152, %0 : !tt.ptr<f32, 1>, i32
    %156 = tt.splat %155 : (!tt.ptr<f32, 1>) -> tensor<1x1x!tt.ptr<f32, 1>>
    %157 = tt.load %156, %2 {cache = 1 : i32, evict = 3 : i32, isVolatile = false} : tensor<1x1xf32>
    %158 = tt.addptr %arg155, %0 : !tt.ptr<f32, 1>, i32
    %159 = tt.splat %158 : (!tt.ptr<f32, 1>) -> tensor<1x1x!tt.ptr<f32, 1>>
    %160 = tt.load %159, %2 {cache = 1 : i32, evict = 3 : i32, isVolatile = false} : tensor<1x1xf32>
    %161 = arith.muli %0, %c2304_i32 : i32
    %162 = tt.splat %161 : (i32) -> tensor<1x2048xi32>
    %163 = tt.splat %arg0 : (!tt.ptr<bf16, 1>) -> tensor<1x2048x!tt.ptr<bf16, 1>>
    %164 = tt.splat %1 : (i1) -> tensor<1x2048xi1>
    %165 = tt.splat %arg2 : (!tt.ptr<f32, 1>) -> tensor<1x2048x!tt.ptr<f32, 1>>
    %166 = tt.splat %arg3 : (!tt.ptr<bf16, 1>) -> tensor<1x2048x!tt.ptr<bf16, 1>>
    %167 = tt.splat %arg5 : (!tt.ptr<f32, 1>) -> tensor<1x2048x!tt.ptr<f32, 1>>
    %168 = tt.splat %arg6 : (!tt.ptr<f32, 1>) -> tensor<1x2048x!tt.ptr<f32, 1>>
    %169 = tt.splat %arg7 : (!tt.ptr<bf16, 1>) -> tensor<1x2048x!tt.ptr<bf16, 1>>
    %170 = tt.splat %arg9 : (!tt.ptr<f32, 1>) -> tensor<1x2048x!tt.ptr<f32, 1>>
    %171 = tt.splat %arg10 : (!tt.ptr<bf16, 1>) -> tensor<1x2048x!tt.ptr<bf16, 1>>
    %172 = tt.splat %arg12 : (!tt.ptr<f32, 1>) -> tensor<1x2048x!tt.ptr<f32, 1>>
    %173 = tt.splat %arg13 : (!tt.ptr<bf16, 1>) -> tensor<1x2048x!tt.ptr<bf16, 1>>
    %174 = tt.splat %arg15 : (!tt.ptr<f32, 1>) -> tensor<1x2048x!tt.ptr<f32, 1>>
    %175 = tt.splat %arg16 : (!tt.ptr<bf16, 1>) -> tensor<1x2048x!tt.ptr<bf16, 1>>
    %176 = tt.splat %arg18 : (!tt.ptr<f32, 1>) -> tensor<1x2048x!tt.ptr<f32, 1>>
    %177 = tt.splat %arg19 : (!tt.ptr<bf16, 1>) -> tensor<1x2048x!tt.ptr<bf16, 1>>
    %178 = tt.splat %arg21 : (!tt.ptr<f32, 1>) -> tensor<1x2048x!tt.ptr<f32, 1>>
    %179 = tt.splat %arg22 : (!tt.ptr<bf16, 1>) -> tensor<1x2048x!tt.ptr<bf16, 1>>
    %180 = tt.splat %arg24 : (!tt.ptr<f32, 1>) -> tensor<1x2048x!tt.ptr<f32, 1>>
    %181 = tt.splat %arg25 : (!tt.ptr<bf16, 1>) -> tensor<1x2048x!tt.ptr<bf16, 1>>
    %182 = tt.splat %arg27 : (!tt.ptr<f32, 1>) -> tensor<1x2048x!tt.ptr<f32, 1>>
    %183 = tt.splat %arg28 : (!tt.ptr<bf16, 1>) -> tensor<1x2048x!tt.ptr<bf16, 1>>
    %184 = tt.splat %arg30 : (!tt.ptr<f32, 1>) -> tensor<1x2048x!tt.ptr<f32, 1>>
    %185 = tt.splat %arg31 : (!tt.ptr<bf16, 1>) -> tensor<1x2048x!tt.ptr<bf16, 1>>
    %186 = tt.splat %arg33 : (!tt.ptr<f32, 1>) -> tensor<1x2048x!tt.ptr<f32, 1>>
    %187 = tt.splat %arg34 : (!tt.ptr<bf16, 1>) -> tensor<1x2048x!tt.ptr<bf16, 1>>
    %188 = tt.splat %arg36 : (!tt.ptr<f32, 1>) -> tensor<1x2048x!tt.ptr<f32, 1>>
    %189 = tt.splat %arg37 : (!tt.ptr<bf16, 1>) -> tensor<1x2048x!tt.ptr<bf16, 1>>
    %190 = tt.splat %arg39 : (!tt.ptr<f32, 1>) -> tensor<1x2048x!tt.ptr<f32, 1>>
    %191 = tt.splat %arg40 : (!tt.ptr<bf16, 1>) -> tensor<1x2048x!tt.ptr<bf16, 1>>
    %192 = tt.splat %arg42 : (!tt.ptr<f32, 1>) -> tensor<1x2048x!tt.ptr<f32, 1>>
    %193 = tt.splat %arg43 : (!tt.ptr<bf16, 1>) -> tensor<1x2048x!tt.ptr<bf16, 1>>
    %194 = tt.splat %arg45 : (!tt.ptr<f32, 1>) -> tensor<1x2048x!tt.ptr<f32, 1>>
    %195 = tt.splat %arg46 : (!tt.ptr<bf16, 1>) -> tensor<1x2048x!tt.ptr<bf16, 1>>
    %196 = tt.splat %arg48 : (!tt.ptr<f32, 1>) -> tensor<1x2048x!tt.ptr<f32, 1>>
    %197 = tt.splat %arg49 : (!tt.ptr<bf16, 1>) -> tensor<1x2048x!tt.ptr<bf16, 1>>
    %198 = tt.splat %arg51 : (!tt.ptr<f32, 1>) -> tensor<1x2048x!tt.ptr<f32, 1>>
    %199 = tt.splat %arg52 : (!tt.ptr<bf16, 1>) -> tensor<1x2048x!tt.ptr<bf16, 1>>
    %200 = tt.splat %arg54 : (!tt.ptr<f32, 1>) -> tensor<1x2048x!tt.ptr<f32, 1>>
    %201 = tt.splat %arg55 : (!tt.ptr<bf16, 1>) -> tensor<1x2048x!tt.ptr<bf16, 1>>
    %202 = tt.splat %arg57 : (!tt.ptr<f32, 1>) -> tensor<1x2048x!tt.ptr<f32, 1>>
    %203 = tt.splat %arg58 : (!tt.ptr<bf16, 1>) -> tensor<1x2048x!tt.ptr<bf16, 1>>
    %204 = tt.splat %arg60 : (!tt.ptr<f32, 1>) -> tensor<1x2048x!tt.ptr<f32, 1>>
    %205 = tt.splat %arg61 : (!tt.ptr<bf16, 1>) -> tensor<1x2048x!tt.ptr<bf16, 1>>
    %206 = tt.splat %arg63 : (!tt.ptr<f32, 1>) -> tensor<1x2048x!tt.ptr<f32, 1>>
    %207 = tt.splat %arg64 : (!tt.ptr<bf16, 1>) -> tensor<1x2048x!tt.ptr<bf16, 1>>
    %208 = tt.splat %arg66 : (!tt.ptr<f32, 1>) -> tensor<1x2048x!tt.ptr<f32, 1>>
    %209 = tt.splat %arg67 : (!tt.ptr<bf16, 1>) -> tensor<1x2048x!tt.ptr<bf16, 1>>
    %210 = tt.splat %arg69 : (!tt.ptr<f32, 1>) -> tensor<1x2048x!tt.ptr<f32, 1>>
    %211 = tt.splat %arg70 : (!tt.ptr<bf16, 1>) -> tensor<1x2048x!tt.ptr<bf16, 1>>
    %212 = tt.splat %arg72 : (!tt.ptr<f32, 1>) -> tensor<1x2048x!tt.ptr<f32, 1>>
    %213 = tt.splat %arg73 : (!tt.ptr<bf16, 1>) -> tensor<1x2048x!tt.ptr<bf16, 1>>
    %214 = tt.splat %arg75 : (!tt.ptr<f32, 1>) -> tensor<1x2048x!tt.ptr<f32, 1>>
    %215 = tt.splat %arg76 : (!tt.ptr<bf16, 1>) -> tensor<1x2048x!tt.ptr<bf16, 1>>
    %216 = tt.splat %arg78 : (!tt.ptr<f32, 1>) -> tensor<1x2048x!tt.ptr<f32, 1>>
    %217 = tt.splat %arg79 : (!tt.ptr<bf16, 1>) -> tensor<1x2048x!tt.ptr<bf16, 1>>
    %218 = tt.splat %arg81 : (!tt.ptr<f32, 1>) -> tensor<1x2048x!tt.ptr<f32, 1>>
    %219 = tt.splat %arg82 : (!tt.ptr<bf16, 1>) -> tensor<1x2048x!tt.ptr<bf16, 1>>
    %220 = tt.splat %arg84 : (!tt.ptr<f32, 1>) -> tensor<1x2048x!tt.ptr<f32, 1>>
    %221 = tt.splat %arg85 : (!tt.ptr<bf16, 1>) -> tensor<1x2048x!tt.ptr<bf16, 1>>
    %222 = tt.splat %arg87 : (!tt.ptr<f32, 1>) -> tensor<1x2048x!tt.ptr<f32, 1>>
    %223 = tt.splat %arg88 : (!tt.ptr<bf16, 1>) -> tensor<1x2048x!tt.ptr<bf16, 1>>
    %224 = tt.splat %arg90 : (!tt.ptr<f32, 1>) -> tensor<1x2048x!tt.ptr<f32, 1>>
    %225 = tt.splat %arg91 : (!tt.ptr<bf16, 1>) -> tensor<1x2048x!tt.ptr<bf16, 1>>
    %226 = tt.splat %arg93 : (!tt.ptr<f32, 1>) -> tensor<1x2048x!tt.ptr<f32, 1>>
    %227 = tt.splat %arg94 : (!tt.ptr<bf16, 1>) -> tensor<1x2048x!tt.ptr<bf16, 1>>
    %228 = tt.splat %arg96 : (!tt.ptr<f32, 1>) -> tensor<1x2048x!tt.ptr<f32, 1>>
    %229 = tt.splat %arg97 : (!tt.ptr<bf16, 1>) -> tensor<1x2048x!tt.ptr<bf16, 1>>
    %230 = tt.splat %arg99 : (!tt.ptr<f32, 1>) -> tensor<1x2048x!tt.ptr<f32, 1>>
    %231 = tt.splat %arg100 : (!tt.ptr<bf16, 1>) -> tensor<1x2048x!tt.ptr<bf16, 1>>
    %232 = tt.splat %arg102 : (!tt.ptr<f32, 1>) -> tensor<1x2048x!tt.ptr<f32, 1>>
    %233 = tt.splat %arg103 : (!tt.ptr<bf16, 1>) -> tensor<1x2048x!tt.ptr<bf16, 1>>
    %234 = tt.splat %arg105 : (!tt.ptr<f32, 1>) -> tensor<1x2048x!tt.ptr<f32, 1>>
    %235 = tt.splat %arg106 : (!tt.ptr<bf16, 1>) -> tensor<1x2048x!tt.ptr<bf16, 1>>
    %236 = tt.splat %arg108 : (!tt.ptr<f32, 1>) -> tensor<1x2048x!tt.ptr<f32, 1>>
    %237 = tt.splat %arg109 : (!tt.ptr<bf16, 1>) -> tensor<1x2048x!tt.ptr<bf16, 1>>
    %238 = tt.splat %arg111 : (!tt.ptr<f32, 1>) -> tensor<1x2048x!tt.ptr<f32, 1>>
    %239 = tt.splat %arg112 : (!tt.ptr<bf16, 1>) -> tensor<1x2048x!tt.ptr<bf16, 1>>
    %240 = tt.splat %arg114 : (!tt.ptr<f32, 1>) -> tensor<1x2048x!tt.ptr<f32, 1>>
    %241 = tt.splat %arg115 : (!tt.ptr<bf16, 1>) -> tensor<1x2048x!tt.ptr<bf16, 1>>
    %242 = tt.splat %arg117 : (!tt.ptr<f32, 1>) -> tensor<1x2048x!tt.ptr<f32, 1>>
    %243 = tt.splat %arg118 : (!tt.ptr<bf16, 1>) -> tensor<1x2048x!tt.ptr<bf16, 1>>
    %244 = tt.splat %arg120 : (!tt.ptr<f32, 1>) -> tensor<1x2048x!tt.ptr<f32, 1>>
    %245 = tt.splat %arg121 : (!tt.ptr<bf16, 1>) -> tensor<1x2048x!tt.ptr<bf16, 1>>
    %246 = tt.splat %arg123 : (!tt.ptr<f32, 1>) -> tensor<1x2048x!tt.ptr<f32, 1>>
    %247 = tt.splat %arg124 : (!tt.ptr<bf16, 1>) -> tensor<1x2048x!tt.ptr<bf16, 1>>
    %248 = tt.splat %arg126 : (!tt.ptr<f32, 1>) -> tensor<1x2048x!tt.ptr<f32, 1>>
    %249 = tt.splat %arg127 : (!tt.ptr<bf16, 1>) -> tensor<1x2048x!tt.ptr<bf16, 1>>
    %250 = tt.splat %arg129 : (!tt.ptr<f32, 1>) -> tensor<1x2048x!tt.ptr<f32, 1>>
    %251 = tt.splat %arg130 : (!tt.ptr<bf16, 1>) -> tensor<1x2048x!tt.ptr<bf16, 1>>
    %252 = tt.splat %arg132 : (!tt.ptr<f32, 1>) -> tensor<1x2048x!tt.ptr<f32, 1>>
    %253 = tt.splat %arg133 : (!tt.ptr<bf16, 1>) -> tensor<1x2048x!tt.ptr<bf16, 1>>
    %254 = tt.splat %arg135 : (!tt.ptr<f32, 1>) -> tensor<1x2048x!tt.ptr<f32, 1>>
    %255 = tt.splat %arg136 : (!tt.ptr<bf16, 1>) -> tensor<1x2048x!tt.ptr<bf16, 1>>
    %256 = tt.splat %arg138 : (!tt.ptr<f32, 1>) -> tensor<1x2048x!tt.ptr<f32, 1>>
    %257 = tt.splat %arg139 : (!tt.ptr<bf16, 1>) -> tensor<1x2048x!tt.ptr<bf16, 1>>
    %258 = tt.splat %arg141 : (!tt.ptr<f32, 1>) -> tensor<1x2048x!tt.ptr<f32, 1>>
    %259 = tt.splat %arg142 : (!tt.ptr<bf16, 1>) -> tensor<1x2048x!tt.ptr<bf16, 1>>
    %260 = tt.splat %arg144 : (!tt.ptr<f32, 1>) -> tensor<1x2048x!tt.ptr<f32, 1>>
    %261 = tt.splat %arg145 : (!tt.ptr<bf16, 1>) -> tensor<1x2048x!tt.ptr<bf16, 1>>
    %262 = tt.splat %arg147 : (!tt.ptr<f32, 1>) -> tensor<1x2048x!tt.ptr<f32, 1>>
    %263 = tt.splat %arg148 : (!tt.ptr<bf16, 1>) -> tensor<1x2048x!tt.ptr<bf16, 1>>
    %264 = tt.splat %arg150 : (!tt.ptr<f32, 1>) -> tensor<1x2048x!tt.ptr<f32, 1>>
    %265 = tt.splat %arg151 : (!tt.ptr<bf16, 1>) -> tensor<1x2048x!tt.ptr<bf16, 1>>
    %266 = tt.splat %arg153 : (!tt.ptr<f32, 1>) -> tensor<1x2048x!tt.ptr<f32, 1>>
    %267 = tt.splat %arg154 : (!tt.ptr<bf16, 1>) -> tensor<1x2048x!tt.ptr<bf16, 1>>
    %268 = tt.splat %arg156 : (!tt.ptr<f32, 1>) -> tensor<1x2048x!tt.ptr<f32, 1>>
    %269 = tt.splat %arg157 : (!tt.ptr<bf16, 1>) -> tensor<1x2048x!tt.ptr<bf16, 1>>
    %270 = tt.splat %arg158 : (!tt.ptr<f32, 1>) -> tensor<1x2048x!tt.ptr<f32, 1>>
    %271 = tt.broadcast %7 : (tensor<1x1xf32>) -> tensor<1x2048xf32>
    %272 = tt.broadcast %10 : (tensor<1x1xf32>) -> tensor<1x2048xf32>
    %273 = tt.broadcast %13 : (tensor<1x1xf32>) -> tensor<1x2048xf32>
    %274 = tt.broadcast %16 : (tensor<1x1xf32>) -> tensor<1x2048xf32>
    %275 = tt.broadcast %19 : (tensor<1x1xf32>) -> tensor<1x2048xf32>
    %276 = tt.broadcast %22 : (tensor<1x1xf32>) -> tensor<1x2048xf32>
    %277 = tt.broadcast %25 : (tensor<1x1xf32>) -> tensor<1x2048xf32>
    %278 = tt.broadcast %28 : (tensor<1x1xf32>) -> tensor<1x2048xf32>
    %279 = tt.broadcast %31 : (tensor<1x1xf32>) -> tensor<1x2048xf32>
    %280 = tt.broadcast %34 : (tensor<1x1xf32>) -> tensor<1x2048xf32>
    %281 = tt.broadcast %37 : (tensor<1x1xf32>) -> tensor<1x2048xf32>
    %282 = tt.broadcast %40 : (tensor<1x1xf32>) -> tensor<1x2048xf32>
    %283 = tt.broadcast %43 : (tensor<1x1xf32>) -> tensor<1x2048xf32>
    %284 = tt.broadcast %46 : (tensor<1x1xf32>) -> tensor<1x2048xf32>
    %285 = tt.broadcast %49 : (tensor<1x1xf32>) -> tensor<1x2048xf32>
    %286 = tt.broadcast %52 : (tensor<1x1xf32>) -> tensor<1x2048xf32>
    %287 = tt.broadcast %55 : (tensor<1x1xf32>) -> tensor<1x2048xf32>
    %288 = tt.broadcast %58 : (tensor<1x1xf32>) -> tensor<1x2048xf32>
    %289 = tt.broadcast %61 : (tensor<1x1xf32>) -> tensor<1x2048xf32>
    %290 = tt.broadcast %64 : (tensor<1x1xf32>) -> tensor<1x2048xf32>
    %291 = tt.broadcast %67 : (tensor<1x1xf32>) -> tensor<1x2048xf32>
    %292 = tt.broadcast %70 : (tensor<1x1xf32>) -> tensor<1x2048xf32>
    %293 = tt.broadcast %73 : (tensor<1x1xf32>) -> tensor<1x2048xf32>
    %294 = tt.broadcast %76 : (tensor<1x1xf32>) -> tensor<1x2048xf32>
    %295 = tt.broadcast %79 : (tensor<1x1xf32>) -> tensor<1x2048xf32>
    %296 = tt.broadcast %82 : (tensor<1x1xf32>) -> tensor<1x2048xf32>
    %297 = tt.broadcast %85 : (tensor<1x1xf32>) -> tensor<1x2048xf32>
    %298 = tt.broadcast %88 : (tensor<1x1xf32>) -> tensor<1x2048xf32>
    %299 = tt.broadcast %91 : (tensor<1x1xf32>) -> tensor<1x2048xf32>
    %300 = tt.broadcast %94 : (tensor<1x1xf32>) -> tensor<1x2048xf32>
    %301 = tt.broadcast %97 : (tensor<1x1xf32>) -> tensor<1x2048xf32>
    %302 = tt.broadcast %100 : (tensor<1x1xf32>) -> tensor<1x2048xf32>
    %303 = tt.broadcast %103 : (tensor<1x1xf32>) -> tensor<1x2048xf32>
    %304 = tt.broadcast %106 : (tensor<1x1xf32>) -> tensor<1x2048xf32>
    %305 = tt.broadcast %109 : (tensor<1x1xf32>) -> tensor<1x2048xf32>
    %306 = tt.broadcast %112 : (tensor<1x1xf32>) -> tensor<1x2048xf32>
    %307 = tt.broadcast %115 : (tensor<1x1xf32>) -> tensor<1x2048xf32>
    %308 = tt.broadcast %118 : (tensor<1x1xf32>) -> tensor<1x2048xf32>
    %309 = tt.broadcast %121 : (tensor<1x1xf32>) -> tensor<1x2048xf32>
    %310 = tt.broadcast %124 : (tensor<1x1xf32>) -> tensor<1x2048xf32>
    %311 = tt.broadcast %127 : (tensor<1x1xf32>) -> tensor<1x2048xf32>
    %312 = tt.broadcast %130 : (tensor<1x1xf32>) -> tensor<1x2048xf32>
    %313 = tt.broadcast %133 : (tensor<1x1xf32>) -> tensor<1x2048xf32>
    %314 = tt.broadcast %136 : (tensor<1x1xf32>) -> tensor<1x2048xf32>
    %315 = tt.broadcast %139 : (tensor<1x1xf32>) -> tensor<1x2048xf32>
    %316 = tt.broadcast %142 : (tensor<1x1xf32>) -> tensor<1x2048xf32>
    %317 = tt.broadcast %145 : (tensor<1x1xf32>) -> tensor<1x2048xf32>
    %318 = tt.broadcast %148 : (tensor<1x1xf32>) -> tensor<1x2048xf32>
    %319 = tt.broadcast %151 : (tensor<1x1xf32>) -> tensor<1x2048xf32>
    %320 = tt.broadcast %154 : (tensor<1x1xf32>) -> tensor<1x2048xf32>
    %321 = tt.broadcast %157 : (tensor<1x1xf32>) -> tensor<1x2048xf32>
    %322 = tt.broadcast %160 : (tensor<1x1xf32>) -> tensor<1x2048xf32>
    %323 = tt.splat %arg160 : (!tt.ptr<f32, 1>) -> tensor<1x2048x!tt.ptr<f32, 1>>
    %324 = tt.splat %arg161 : (!tt.ptr<f32, 1>) -> tensor<1x2048x!tt.ptr<f32, 1>>
    %325 = tt.splat %arg162 : (!tt.ptr<f32, 1>) -> tensor<1x2048x!tt.ptr<f32, 1>>
    %326 = tt.splat %arg163 : (!tt.ptr<f32, 1>) -> tensor<1x2048x!tt.ptr<f32, 1>>
    %327 = tt.splat %arg164 : (!tt.ptr<f32, 1>) -> tensor<1x2048x!tt.ptr<f32, 1>>
    %328 = tt.splat %arg165 : (!tt.ptr<f32, 1>) -> tensor<1x2048x!tt.ptr<f32, 1>>
    %329 = tt.splat %arg166 : (!tt.ptr<f32, 1>) -> tensor<1x2048x!tt.ptr<f32, 1>>
    %330 = tt.splat %arg167 : (!tt.ptr<f32, 1>) -> tensor<1x2048x!tt.ptr<f32, 1>>
    %331 = tt.splat %arg168 : (!tt.ptr<f32, 1>) -> tensor<1x2048x!tt.ptr<f32, 1>>
    %332 = tt.splat %arg169 : (!tt.ptr<f32, 1>) -> tensor<1x2048x!tt.ptr<f32, 1>>
    %333 = tt.splat %arg170 : (!tt.ptr<f32, 1>) -> tensor<1x2048x!tt.ptr<f32, 1>>
    %334 = tt.splat %arg171 : (!tt.ptr<f32, 1>) -> tensor<1x2048x!tt.ptr<f32, 1>>
    %335 = tt.splat %arg172 : (!tt.ptr<f32, 1>) -> tensor<1x2048x!tt.ptr<f32, 1>>
    %336 = tt.splat %arg173 : (!tt.ptr<f32, 1>) -> tensor<1x2048x!tt.ptr<f32, 1>>
    %337 = tt.splat %arg174 : (!tt.ptr<f32, 1>) -> tensor<1x2048x!tt.ptr<f32, 1>>
    %338 = tt.splat %arg175 : (!tt.ptr<f32, 1>) -> tensor<1x2048x!tt.ptr<f32, 1>>
    %339 = tt.splat %arg176 : (!tt.ptr<f32, 1>) -> tensor<1x2048x!tt.ptr<f32, 1>>
    %340 = tt.splat %arg177 : (!tt.ptr<f32, 1>) -> tensor<1x2048x!tt.ptr<f32, 1>>
    %341 = tt.splat %arg178 : (!tt.ptr<f32, 1>) -> tensor<1x2048x!tt.ptr<f32, 1>>
    %342 = tt.splat %arg179 : (!tt.ptr<f32, 1>) -> tensor<1x2048x!tt.ptr<f32, 1>>
    %343 = tt.splat %arg180 : (!tt.ptr<f32, 1>) -> tensor<1x2048x!tt.ptr<f32, 1>>
    %344 = tt.splat %arg181 : (!tt.ptr<f32, 1>) -> tensor<1x2048x!tt.ptr<f32, 1>>
    %345 = tt.splat %arg182 : (!tt.ptr<f32, 1>) -> tensor<1x2048x!tt.ptr<f32, 1>>
    %346 = tt.splat %arg183 : (!tt.ptr<f32, 1>) -> tensor<1x2048x!tt.ptr<f32, 1>>
    %347 = tt.splat %arg184 : (!tt.ptr<f32, 1>) -> tensor<1x2048x!tt.ptr<f32, 1>>
    %348 = tt.splat %arg185 : (!tt.ptr<f32, 1>) -> tensor<1x2048x!tt.ptr<f32, 1>>
    %349 = scf.for %arg190 = %c0_i32 to %c2304_i32 step %c2048_i32 iter_args(%arg191 = %cst_5) -> (tensor<1x2048xf32>)  : i32 {
      %388 = tt.splat %arg190 : (i32) -> tensor<1x2048xi32>
      %389 = arith.addi %388, %4 : tensor<1x2048xi32>
      %390 = arith.cmpi slt, %389, %cst_4 : tensor<1x2048xi32>
      %391 = arith.addi %389, %162 : tensor<1x2048xi32>
      %392 = tt.addptr %163, %391 : tensor<1x2048x!tt.ptr<bf16, 1>>, tensor<1x2048xi32>
      %393 = arith.andi %390, %164 : tensor<1x2048xi1>
      %394 = tt.load %392, %393, %cst {cache = 1 : i32, evict = 2 : i32, isVolatile = false} : tensor<1x2048xbf16>
      %395 = arith.extf %394 : tensor<1x2048xbf16> to tensor<1x2048xf32>
      %396 = tt.addptr %165, %389 : tensor<1x2048x!tt.ptr<f32, 1>>, tensor<1x2048xi32>
      %397 = tt.load %396, %390, %cst_5 {cache = 1 : i32, evict = 3 : i32, isVolatile = false} : tensor<1x2048xf32>
      %398 = tt.addptr %166, %391 : tensor<1x2048x!tt.ptr<bf16, 1>>, tensor<1x2048xi32>
      %399 = tt.load %398, %393, %cst {cache = 1 : i32, evict = 2 : i32, isVolatile = false} : tensor<1x2048xbf16>
      %400 = arith.extf %399 : tensor<1x2048xbf16> to tensor<1x2048xf32>
      %401 = tt.addptr %167, %389 : tensor<1x2048x!tt.ptr<f32, 1>>, tensor<1x2048xi32>
      %402 = tt.load %401, %390, %cst_5 {cache = 1 : i32, evict = 3 : i32, isVolatile = false} : tensor<1x2048xf32>
      %403 = tt.addptr %168, %391 : tensor<1x2048x!tt.ptr<f32, 1>>, tensor<1x2048xi32>
      %404 = tt.load %403, %393, %cst_5 {cache = 1 : i32, evict = 2 : i32, isVolatile = false} : tensor<1x2048xf32>
      %405 = tt.addptr %169, %391 : tensor<1x2048x!tt.ptr<bf16, 1>>, tensor<1x2048xi32>
      %406 = tt.load %405, %393, %cst {cache = 1 : i32, evict = 2 : i32, isVolatile = false} : tensor<1x2048xbf16>
      %407 = arith.extf %406 : tensor<1x2048xbf16> to tensor<1x2048xf32>
      %408 = tt.addptr %170, %389 : tensor<1x2048x!tt.ptr<f32, 1>>, tensor<1x2048xi32>
      %409 = tt.load %408, %390, %cst_5 {cache = 1 : i32, evict = 3 : i32, isVolatile = false} : tensor<1x2048xf32>
      %410 = tt.addptr %171, %391 : tensor<1x2048x!tt.ptr<bf16, 1>>, tensor<1x2048xi32>
      %411 = tt.load %410, %393, %cst {cache = 1 : i32, evict = 2 : i32, isVolatile = false} : tensor<1x2048xbf16>
      %412 = arith.extf %411 : tensor<1x2048xbf16> to tensor<1x2048xf32>
      %413 = tt.addptr %172, %389 : tensor<1x2048x!tt.ptr<f32, 1>>, tensor<1x2048xi32>
      %414 = tt.load %413, %390, %cst_5 {cache = 1 : i32, evict = 3 : i32, isVolatile = false} : tensor<1x2048xf32>
      %415 = tt.addptr %173, %391 : tensor<1x2048x!tt.ptr<bf16, 1>>, tensor<1x2048xi32>
      %416 = tt.load %415, %393, %cst {cache = 1 : i32, evict = 2 : i32, isVolatile = false} : tensor<1x2048xbf16>
      %417 = arith.extf %416 : tensor<1x2048xbf16> to tensor<1x2048xf32>
      %418 = tt.addptr %174, %389 : tensor<1x2048x!tt.ptr<f32, 1>>, tensor<1x2048xi32>
      %419 = tt.load %418, %390, %cst_5 {cache = 1 : i32, evict = 3 : i32, isVolatile = false} : tensor<1x2048xf32>
      %420 = tt.addptr %175, %391 : tensor<1x2048x!tt.ptr<bf16, 1>>, tensor<1x2048xi32>
      %421 = tt.load %420, %393, %cst {cache = 1 : i32, evict = 2 : i32, isVolatile = false} : tensor<1x2048xbf16>
      %422 = arith.extf %421 : tensor<1x2048xbf16> to tensor<1x2048xf32>
      %423 = tt.addptr %176, %389 : tensor<1x2048x!tt.ptr<f32, 1>>, tensor<1x2048xi32>
      %424 = tt.load %423, %390, %cst_5 {cache = 1 : i32, evict = 3 : i32, isVolatile = false} : tensor<1x2048xf32>
      %425 = tt.addptr %177, %391 : tensor<1x2048x!tt.ptr<bf16, 1>>, tensor<1x2048xi32>
      %426 = tt.load %425, %393, %cst {cache = 1 : i32, evict = 2 : i32, isVolatile = false} : tensor<1x2048xbf16>
      %427 = arith.extf %426 : tensor<1x2048xbf16> to tensor<1x2048xf32>
      %428 = tt.addptr %178, %389 : tensor<1x2048x!tt.ptr<f32, 1>>, tensor<1x2048xi32>
      %429 = tt.load %428, %390, %cst_5 {cache = 1 : i32, evict = 3 : i32, isVolatile = false} : tensor<1x2048xf32>
      %430 = tt.addptr %179, %391 : tensor<1x2048x!tt.ptr<bf16, 1>>, tensor<1x2048xi32>
      %431 = tt.load %430, %393, %cst {cache = 1 : i32, evict = 2 : i32, isVolatile = false} : tensor<1x2048xbf16>
      %432 = arith.extf %431 : tensor<1x2048xbf16> to tensor<1x2048xf32>
      %433 = tt.addptr %180, %389 : tensor<1x2048x!tt.ptr<f32, 1>>, tensor<1x2048xi32>
      %434 = tt.load %433, %390, %cst_5 {cache = 1 : i32, evict = 3 : i32, isVolatile = false} : tensor<1x2048xf32>
      %435 = tt.addptr %181, %391 : tensor<1x2048x!tt.ptr<bf16, 1>>, tensor<1x2048xi32>
      %436 = tt.load %435, %393, %cst {cache = 1 : i32, evict = 2 : i32, isVolatile = false} : tensor<1x2048xbf16>
      %437 = arith.extf %436 : tensor<1x2048xbf16> to tensor<1x2048xf32>
      %438 = tt.addptr %182, %389 : tensor<1x2048x!tt.ptr<f32, 1>>, tensor<1x2048xi32>
      %439 = tt.load %438, %390, %cst_5 {cache = 1 : i32, evict = 3 : i32, isVolatile = false} : tensor<1x2048xf32>
      %440 = tt.addptr %183, %391 : tensor<1x2048x!tt.ptr<bf16, 1>>, tensor<1x2048xi32>
      %441 = tt.load %440, %393, %cst {cache = 1 : i32, evict = 2 : i32, isVolatile = false} : tensor<1x2048xbf16>
      %442 = arith.extf %441 : tensor<1x2048xbf16> to tensor<1x2048xf32>
      %443 = tt.addptr %184, %389 : tensor<1x2048x!tt.ptr<f32, 1>>, tensor<1x2048xi32>
      %444 = tt.load %443, %390, %cst_5 {cache = 1 : i32, evict = 3 : i32, isVolatile = false} : tensor<1x2048xf32>
      %445 = tt.addptr %185, %391 : tensor<1x2048x!tt.ptr<bf16, 1>>, tensor<1x2048xi32>
      %446 = tt.load %445, %393, %cst {cache = 1 : i32, evict = 2 : i32, isVolatile = false} : tensor<1x2048xbf16>
      %447 = arith.extf %446 : tensor<1x2048xbf16> to tensor<1x2048xf32>
      %448 = tt.addptr %186, %389 : tensor<1x2048x!tt.ptr<f32, 1>>, tensor<1x2048xi32>
      %449 = tt.load %448, %390, %cst_5 {cache = 1 : i32, evict = 3 : i32, isVolatile = false} : tensor<1x2048xf32>
      %450 = tt.addptr %187, %391 : tensor<1x2048x!tt.ptr<bf16, 1>>, tensor<1x2048xi32>
      %451 = tt.load %450, %393, %cst {cache = 1 : i32, evict = 2 : i32, isVolatile = false} : tensor<1x2048xbf16>
      %452 = arith.extf %451 : tensor<1x2048xbf16> to tensor<1x2048xf32>
      %453 = tt.addptr %188, %389 : tensor<1x2048x!tt.ptr<f32, 1>>, tensor<1x2048xi32>
      %454 = tt.load %453, %390, %cst_5 {cache = 1 : i32, evict = 3 : i32, isVolatile = false} : tensor<1x2048xf32>
      %455 = tt.addptr %189, %391 : tensor<1x2048x!tt.ptr<bf16, 1>>, tensor<1x2048xi32>
      %456 = tt.load %455, %393, %cst {cache = 1 : i32, evict = 2 : i32, isVolatile = false} : tensor<1x2048xbf16>
      %457 = arith.extf %456 : tensor<1x2048xbf16> to tensor<1x2048xf32>
      %458 = tt.addptr %190, %389 : tensor<1x2048x!tt.ptr<f32, 1>>, tensor<1x2048xi32>
      %459 = tt.load %458, %390, %cst_5 {cache = 1 : i32, evict = 3 : i32, isVolatile = false} : tensor<1x2048xf32>
      %460 = tt.addptr %191, %391 : tensor<1x2048x!tt.ptr<bf16, 1>>, tensor<1x2048xi32>
      %461 = tt.load %460, %393, %cst {cache = 1 : i32, evict = 2 : i32, isVolatile = false} : tensor<1x2048xbf16>
      %462 = arith.extf %461 : tensor<1x2048xbf16> to tensor<1x2048xf32>
      %463 = tt.addptr %192, %389 : tensor<1x2048x!tt.ptr<f32, 1>>, tensor<1x2048xi32>
      %464 = tt.load %463, %390, %cst_5 {cache = 1 : i32, evict = 3 : i32, isVolatile = false} : tensor<1x2048xf32>
      %465 = tt.addptr %193, %391 : tensor<1x2048x!tt.ptr<bf16, 1>>, tensor<1x2048xi32>
      %466 = tt.load %465, %393, %cst {cache = 1 : i32, evict = 2 : i32, isVolatile = false} : tensor<1x2048xbf16>
      %467 = arith.extf %466 : tensor<1x2048xbf16> to tensor<1x2048xf32>
      %468 = tt.addptr %194, %389 : tensor<1x2048x!tt.ptr<f32, 1>>, tensor<1x2048xi32>
      %469 = tt.load %468, %390, %cst_5 {cache = 1 : i32, evict = 3 : i32, isVolatile = false} : tensor<1x2048xf32>
      %470 = tt.addptr %195, %391 : tensor<1x2048x!tt.ptr<bf16, 1>>, tensor<1x2048xi32>
      %471 = tt.load %470, %393, %cst {cache = 1 : i32, evict = 2 : i32, isVolatile = false} : tensor<1x2048xbf16>
      %472 = arith.extf %471 : tensor<1x2048xbf16> to tensor<1x2048xf32>
      %473 = tt.addptr %196, %389 : tensor<1x2048x!tt.ptr<f32, 1>>, tensor<1x2048xi32>
      %474 = tt.load %473, %390, %cst_5 {cache = 1 : i32, evict = 3 : i32, isVolatile = false} : tensor<1x2048xf32>
      %475 = tt.addptr %197, %391 : tensor<1x2048x!tt.ptr<bf16, 1>>, tensor<1x2048xi32>
      %476 = tt.load %475, %393, %cst {cache = 1 : i32, evict = 2 : i32, isVolatile = false} : tensor<1x2048xbf16>
      %477 = arith.extf %476 : tensor<1x2048xbf16> to tensor<1x2048xf32>
      %478 = tt.addptr %198, %389 : tensor<1x2048x!tt.ptr<f32, 1>>, tensor<1x2048xi32>
      %479 = tt.load %478, %390, %cst_5 {cache = 1 : i32, evict = 3 : i32, isVolatile = false} : tensor<1x2048xf32>
      %480 = tt.addptr %199, %391 : tensor<1x2048x!tt.ptr<bf16, 1>>, tensor<1x2048xi32>
      %481 = tt.load %480, %393, %cst {cache = 1 : i32, evict = 2 : i32, isVolatile = false} : tensor<1x2048xbf16>
      %482 = arith.extf %481 : tensor<1x2048xbf16> to tensor<1x2048xf32>
      %483 = tt.addptr %200, %389 : tensor<1x2048x!tt.ptr<f32, 1>>, tensor<1x2048xi32>
      %484 = tt.load %483, %390, %cst_5 {cache = 1 : i32, evict = 3 : i32, isVolatile = false} : tensor<1x2048xf32>
      %485 = tt.addptr %201, %391 : tensor<1x2048x!tt.ptr<bf16, 1>>, tensor<1x2048xi32>
      %486 = tt.load %485, %393, %cst {cache = 1 : i32, evict = 2 : i32, isVolatile = false} : tensor<1x2048xbf16>
      %487 = arith.extf %486 : tensor<1x2048xbf16> to tensor<1x2048xf32>
      %488 = tt.addptr %202, %389 : tensor<1x2048x!tt.ptr<f32, 1>>, tensor<1x2048xi32>
      %489 = tt.load %488, %390, %cst_5 {cache = 1 : i32, evict = 3 : i32, isVolatile = false} : tensor<1x2048xf32>
      %490 = tt.addptr %203, %391 : tensor<1x2048x!tt.ptr<bf16, 1>>, tensor<1x2048xi32>
      %491 = tt.load %490, %393, %cst {cache = 1 : i32, evict = 2 : i32, isVolatile = false} : tensor<1x2048xbf16>
      %492 = arith.extf %491 : tensor<1x2048xbf16> to tensor<1x2048xf32>
      %493 = tt.addptr %204, %389 : tensor<1x2048x!tt.ptr<f32, 1>>, tensor<1x2048xi32>
      %494 = tt.load %493, %390, %cst_5 {cache = 1 : i32, evict = 3 : i32, isVolatile = false} : tensor<1x2048xf32>
      %495 = tt.addptr %205, %391 : tensor<1x2048x!tt.ptr<bf16, 1>>, tensor<1x2048xi32>
      %496 = tt.load %495, %393, %cst {cache = 1 : i32, evict = 2 : i32, isVolatile = false} : tensor<1x2048xbf16>
      %497 = arith.extf %496 : tensor<1x2048xbf16> to tensor<1x2048xf32>
      %498 = tt.addptr %206, %389 : tensor<1x2048x!tt.ptr<f32, 1>>, tensor<1x2048xi32>
      %499 = tt.load %498, %390, %cst_5 {cache = 1 : i32, evict = 3 : i32, isVolatile = false} : tensor<1x2048xf32>
      %500 = tt.addptr %207, %391 : tensor<1x2048x!tt.ptr<bf16, 1>>, tensor<1x2048xi32>
      %501 = tt.load %500, %393, %cst {cache = 1 : i32, evict = 2 : i32, isVolatile = false} : tensor<1x2048xbf16>
      %502 = arith.extf %501 : tensor<1x2048xbf16> to tensor<1x2048xf32>
      %503 = tt.addptr %208, %389 : tensor<1x2048x!tt.ptr<f32, 1>>, tensor<1x2048xi32>
      %504 = tt.load %503, %390, %cst_5 {cache = 1 : i32, evict = 3 : i32, isVolatile = false} : tensor<1x2048xf32>
      %505 = tt.addptr %209, %391 : tensor<1x2048x!tt.ptr<bf16, 1>>, tensor<1x2048xi32>
      %506 = tt.load %505, %393, %cst {cache = 1 : i32, evict = 2 : i32, isVolatile = false} : tensor<1x2048xbf16>
      %507 = arith.extf %506 : tensor<1x2048xbf16> to tensor<1x2048xf32>
      %508 = tt.addptr %210, %389 : tensor<1x2048x!tt.ptr<f32, 1>>, tensor<1x2048xi32>
      %509 = tt.load %508, %390, %cst_5 {cache = 1 : i32, evict = 3 : i32, isVolatile = false} : tensor<1x2048xf32>
      %510 = tt.addptr %211, %391 : tensor<1x2048x!tt.ptr<bf16, 1>>, tensor<1x2048xi32>
      %511 = tt.load %510, %393, %cst {cache = 1 : i32, evict = 2 : i32, isVolatile = false} : tensor<1x2048xbf16>
      %512 = arith.extf %511 : tensor<1x2048xbf16> to tensor<1x2048xf32>
      %513 = tt.addptr %212, %389 : tensor<1x2048x!tt.ptr<f32, 1>>, tensor<1x2048xi32>
      %514 = tt.load %513, %390, %cst_5 {cache = 1 : i32, evict = 3 : i32, isVolatile = false} : tensor<1x2048xf32>
      %515 = tt.addptr %213, %391 : tensor<1x2048x!tt.ptr<bf16, 1>>, tensor<1x2048xi32>
      %516 = tt.load %515, %393, %cst {cache = 1 : i32, evict = 2 : i32, isVolatile = false} : tensor<1x2048xbf16>
      %517 = arith.extf %516 : tensor<1x2048xbf16> to tensor<1x2048xf32>
      %518 = tt.addptr %214, %389 : tensor<1x2048x!tt.ptr<f32, 1>>, tensor<1x2048xi32>
      %519 = tt.load %518, %390, %cst_5 {cache = 1 : i32, evict = 3 : i32, isVolatile = false} : tensor<1x2048xf32>
      %520 = tt.addptr %215, %391 : tensor<1x2048x!tt.ptr<bf16, 1>>, tensor<1x2048xi32>
      %521 = tt.load %520, %393, %cst {cache = 1 : i32, evict = 2 : i32, isVolatile = false} : tensor<1x2048xbf16>
      %522 = arith.extf %521 : tensor<1x2048xbf16> to tensor<1x2048xf32>
      %523 = tt.addptr %216, %389 : tensor<1x2048x!tt.ptr<f32, 1>>, tensor<1x2048xi32>
      %524 = tt.load %523, %390, %cst_5 {cache = 1 : i32, evict = 3 : i32, isVolatile = false} : tensor<1x2048xf32>
      %525 = tt.addptr %217, %391 : tensor<1x2048x!tt.ptr<bf16, 1>>, tensor<1x2048xi32>
      %526 = tt.load %525, %393, %cst {cache = 1 : i32, evict = 2 : i32, isVolatile = false} : tensor<1x2048xbf16>
      %527 = arith.extf %526 : tensor<1x2048xbf16> to tensor<1x2048xf32>
      %528 = tt.addptr %218, %389 : tensor<1x2048x!tt.ptr<f32, 1>>, tensor<1x2048xi32>
      %529 = tt.load %528, %390, %cst_5 {cache = 1 : i32, evict = 3 : i32, isVolatile = false} : tensor<1x2048xf32>
      %530 = tt.addptr %219, %391 : tensor<1x2048x!tt.ptr<bf16, 1>>, tensor<1x2048xi32>
      %531 = tt.load %530, %393, %cst {cache = 1 : i32, evict = 2 : i32, isVolatile = false} : tensor<1x2048xbf16>
      %532 = arith.extf %531 : tensor<1x2048xbf16> to tensor<1x2048xf32>
      %533 = tt.addptr %220, %389 : tensor<1x2048x!tt.ptr<f32, 1>>, tensor<1x2048xi32>
      %534 = tt.load %533, %390, %cst_5 {cache = 1 : i32, evict = 3 : i32, isVolatile = false} : tensor<1x2048xf32>
      %535 = tt.addptr %221, %391 : tensor<1x2048x!tt.ptr<bf16, 1>>, tensor<1x2048xi32>
      %536 = tt.load %535, %393, %cst {cache = 1 : i32, evict = 2 : i32, isVolatile = false} : tensor<1x2048xbf16>
      %537 = arith.extf %536 : tensor<1x2048xbf16> to tensor<1x2048xf32>
      %538 = tt.addptr %222, %389 : tensor<1x2048x!tt.ptr<f32, 1>>, tensor<1x2048xi32>
      %539 = tt.load %538, %390, %cst_5 {cache = 1 : i32, evict = 3 : i32, isVolatile = false} : tensor<1x2048xf32>
      %540 = tt.addptr %223, %391 : tensor<1x2048x!tt.ptr<bf16, 1>>, tensor<1x2048xi32>
      %541 = tt.load %540, %393, %cst {cache = 1 : i32, evict = 2 : i32, isVolatile = false} : tensor<1x2048xbf16>
      %542 = arith.extf %541 : tensor<1x2048xbf16> to tensor<1x2048xf32>
      %543 = tt.addptr %224, %389 : tensor<1x2048x!tt.ptr<f32, 1>>, tensor<1x2048xi32>
      %544 = tt.load %543, %390, %cst_5 {cache = 1 : i32, evict = 3 : i32, isVolatile = false} : tensor<1x2048xf32>
      %545 = tt.addptr %225, %391 : tensor<1x2048x!tt.ptr<bf16, 1>>, tensor<1x2048xi32>
      %546 = tt.load %545, %393, %cst {cache = 1 : i32, evict = 2 : i32, isVolatile = false} : tensor<1x2048xbf16>
      %547 = arith.extf %546 : tensor<1x2048xbf16> to tensor<1x2048xf32>
      %548 = tt.addptr %226, %389 : tensor<1x2048x!tt.ptr<f32, 1>>, tensor<1x2048xi32>
      %549 = tt.load %548, %390, %cst_5 {cache = 1 : i32, evict = 3 : i32, isVolatile = false} : tensor<1x2048xf32>
      %550 = tt.addptr %227, %391 : tensor<1x2048x!tt.ptr<bf16, 1>>, tensor<1x2048xi32>
      %551 = tt.load %550, %393, %cst {cache = 1 : i32, evict = 2 : i32, isVolatile = false} : tensor<1x2048xbf16>
      %552 = arith.extf %551 : tensor<1x2048xbf16> to tensor<1x2048xf32>
      %553 = tt.addptr %228, %389 : tensor<1x2048x!tt.ptr<f32, 1>>, tensor<1x2048xi32>
      %554 = tt.load %553, %390, %cst_5 {cache = 1 : i32, evict = 3 : i32, isVolatile = false} : tensor<1x2048xf32>
      %555 = tt.addptr %229, %391 : tensor<1x2048x!tt.ptr<bf16, 1>>, tensor<1x2048xi32>
      %556 = tt.load %555, %393, %cst {cache = 1 : i32, evict = 2 : i32, isVolatile = false} : tensor<1x2048xbf16>
      %557 = arith.extf %556 : tensor<1x2048xbf16> to tensor<1x2048xf32>
      %558 = tt.addptr %230, %389 : tensor<1x2048x!tt.ptr<f32, 1>>, tensor<1x2048xi32>
      %559 = tt.load %558, %390, %cst_5 {cache = 1 : i32, evict = 3 : i32, isVolatile = false} : tensor<1x2048xf32>
      %560 = tt.addptr %231, %391 : tensor<1x2048x!tt.ptr<bf16, 1>>, tensor<1x2048xi32>
      %561 = tt.load %560, %393, %cst {cache = 1 : i32, evict = 2 : i32, isVolatile = false} : tensor<1x2048xbf16>
      %562 = arith.extf %561 : tensor<1x2048xbf16> to tensor<1x2048xf32>
      %563 = tt.addptr %232, %389 : tensor<1x2048x!tt.ptr<f32, 1>>, tensor<1x2048xi32>
      %564 = tt.load %563, %390, %cst_5 {cache = 1 : i32, evict = 3 : i32, isVolatile = false} : tensor<1x2048xf32>
      %565 = tt.addptr %233, %391 : tensor<1x2048x!tt.ptr<bf16, 1>>, tensor<1x2048xi32>
      %566 = tt.load %565, %393, %cst {cache = 1 : i32, evict = 2 : i32, isVolatile = false} : tensor<1x2048xbf16>
      %567 = arith.extf %566 : tensor<1x2048xbf16> to tensor<1x2048xf32>
      %568 = tt.addptr %234, %389 : tensor<1x2048x!tt.ptr<f32, 1>>, tensor<1x2048xi32>
      %569 = tt.load %568, %390, %cst_5 {cache = 1 : i32, evict = 3 : i32, isVolatile = false} : tensor<1x2048xf32>
      %570 = tt.addptr %235, %391 : tensor<1x2048x!tt.ptr<bf16, 1>>, tensor<1x2048xi32>
      %571 = tt.load %570, %393, %cst {cache = 1 : i32, evict = 2 : i32, isVolatile = false} : tensor<1x2048xbf16>
      %572 = arith.extf %571 : tensor<1x2048xbf16> to tensor<1x2048xf32>
      %573 = tt.addptr %236, %389 : tensor<1x2048x!tt.ptr<f32, 1>>, tensor<1x2048xi32>
      %574 = tt.load %573, %390, %cst_5 {cache = 1 : i32, evict = 3 : i32, isVolatile = false} : tensor<1x2048xf32>
      %575 = tt.addptr %237, %391 : tensor<1x2048x!tt.ptr<bf16, 1>>, tensor<1x2048xi32>
      %576 = tt.load %575, %393, %cst {cache = 1 : i32, evict = 2 : i32, isVolatile = false} : tensor<1x2048xbf16>
      %577 = arith.extf %576 : tensor<1x2048xbf16> to tensor<1x2048xf32>
      %578 = tt.addptr %238, %389 : tensor<1x2048x!tt.ptr<f32, 1>>, tensor<1x2048xi32>
      %579 = tt.load %578, %390, %cst_5 {cache = 1 : i32, evict = 3 : i32, isVolatile = false} : tensor<1x2048xf32>
      %580 = tt.addptr %239, %391 : tensor<1x2048x!tt.ptr<bf16, 1>>, tensor<1x2048xi32>
      %581 = tt.load %580, %393, %cst {cache = 1 : i32, evict = 2 : i32, isVolatile = false} : tensor<1x2048xbf16>
      %582 = arith.extf %581 : tensor<1x2048xbf16> to tensor<1x2048xf32>
      %583 = tt.addptr %240, %389 : tensor<1x2048x!tt.ptr<f32, 1>>, tensor<1x2048xi32>
      %584 = tt.load %583, %390, %cst_5 {cache = 1 : i32, evict = 3 : i32, isVolatile = false} : tensor<1x2048xf32>
      %585 = tt.addptr %241, %391 : tensor<1x2048x!tt.ptr<bf16, 1>>, tensor<1x2048xi32>
      %586 = tt.load %585, %393, %cst {cache = 1 : i32, evict = 2 : i32, isVolatile = false} : tensor<1x2048xbf16>
      %587 = arith.extf %586 : tensor<1x2048xbf16> to tensor<1x2048xf32>
      %588 = tt.addptr %242, %389 : tensor<1x2048x!tt.ptr<f32, 1>>, tensor<1x2048xi32>
      %589 = tt.load %588, %390, %cst_5 {cache = 1 : i32, evict = 3 : i32, isVolatile = false} : tensor<1x2048xf32>
      %590 = tt.addptr %243, %391 : tensor<1x2048x!tt.ptr<bf16, 1>>, tensor<1x2048xi32>
      %591 = tt.load %590, %393, %cst {cache = 1 : i32, evict = 2 : i32, isVolatile = false} : tensor<1x2048xbf16>
      %592 = arith.extf %591 : tensor<1x2048xbf16> to tensor<1x2048xf32>
      %593 = tt.addptr %244, %389 : tensor<1x2048x!tt.ptr<f32, 1>>, tensor<1x2048xi32>
      %594 = tt.load %593, %390, %cst_5 {cache = 1 : i32, evict = 3 : i32, isVolatile = false} : tensor<1x2048xf32>
      %595 = tt.addptr %245, %391 : tensor<1x2048x!tt.ptr<bf16, 1>>, tensor<1x2048xi32>
      %596 = tt.load %595, %393, %cst {cache = 1 : i32, evict = 2 : i32, isVolatile = false} : tensor<1x2048xbf16>
      %597 = arith.extf %596 : tensor<1x2048xbf16> to tensor<1x2048xf32>
      %598 = tt.addptr %246, %389 : tensor<1x2048x!tt.ptr<f32, 1>>, tensor<1x2048xi32>
      %599 = tt.load %598, %390, %cst_5 {cache = 1 : i32, evict = 3 : i32, isVolatile = false} : tensor<1x2048xf32>
      %600 = tt.addptr %247, %391 : tensor<1x2048x!tt.ptr<bf16, 1>>, tensor<1x2048xi32>
      %601 = tt.load %600, %393, %cst {cache = 1 : i32, evict = 2 : i32, isVolatile = false} : tensor<1x2048xbf16>
      %602 = arith.extf %601 : tensor<1x2048xbf16> to tensor<1x2048xf32>
      %603 = tt.addptr %248, %389 : tensor<1x2048x!tt.ptr<f32, 1>>, tensor<1x2048xi32>
      %604 = tt.load %603, %390, %cst_5 {cache = 1 : i32, evict = 3 : i32, isVolatile = false} : tensor<1x2048xf32>
      %605 = tt.addptr %249, %391 : tensor<1x2048x!tt.ptr<bf16, 1>>, tensor<1x2048xi32>
      %606 = tt.load %605, %393, %cst {cache = 1 : i32, evict = 2 : i32, isVolatile = false} : tensor<1x2048xbf16>
      %607 = arith.extf %606 : tensor<1x2048xbf16> to tensor<1x2048xf32>
      %608 = tt.addptr %250, %389 : tensor<1x2048x!tt.ptr<f32, 1>>, tensor<1x2048xi32>
      %609 = tt.load %608, %390, %cst_5 {cache = 1 : i32, evict = 3 : i32, isVolatile = false} : tensor<1x2048xf32>
      %610 = tt.addptr %251, %391 : tensor<1x2048x!tt.ptr<bf16, 1>>, tensor<1x2048xi32>
      %611 = tt.load %610, %393, %cst {cache = 1 : i32, evict = 2 : i32, isVolatile = false} : tensor<1x2048xbf16>
      %612 = arith.extf %611 : tensor<1x2048xbf16> to tensor<1x2048xf32>
      %613 = tt.addptr %252, %389 : tensor<1x2048x!tt.ptr<f32, 1>>, tensor<1x2048xi32>
      %614 = tt.load %613, %390, %cst_5 {cache = 1 : i32, evict = 3 : i32, isVolatile = false} : tensor<1x2048xf32>
      %615 = tt.addptr %253, %391 : tensor<1x2048x!tt.ptr<bf16, 1>>, tensor<1x2048xi32>
      %616 = tt.load %615, %393, %cst {cache = 1 : i32, evict = 2 : i32, isVolatile = false} : tensor<1x2048xbf16>
      %617 = arith.extf %616 : tensor<1x2048xbf16> to tensor<1x2048xf32>
      %618 = tt.addptr %254, %389 : tensor<1x2048x!tt.ptr<f32, 1>>, tensor<1x2048xi32>
      %619 = tt.load %618, %390, %cst_5 {cache = 1 : i32, evict = 3 : i32, isVolatile = false} : tensor<1x2048xf32>
      %620 = tt.addptr %255, %391 : tensor<1x2048x!tt.ptr<bf16, 1>>, tensor<1x2048xi32>
      %621 = tt.load %620, %393, %cst {cache = 1 : i32, evict = 2 : i32, isVolatile = false} : tensor<1x2048xbf16>
      %622 = arith.extf %621 : tensor<1x2048xbf16> to tensor<1x2048xf32>
      %623 = tt.addptr %256, %389 : tensor<1x2048x!tt.ptr<f32, 1>>, tensor<1x2048xi32>
      %624 = tt.load %623, %390, %cst_5 {cache = 1 : i32, evict = 3 : i32, isVolatile = false} : tensor<1x2048xf32>
      %625 = tt.addptr %257, %391 : tensor<1x2048x!tt.ptr<bf16, 1>>, tensor<1x2048xi32>
      %626 = tt.load %625, %393, %cst {cache = 1 : i32, evict = 2 : i32, isVolatile = false} : tensor<1x2048xbf16>
      %627 = arith.extf %626 : tensor<1x2048xbf16> to tensor<1x2048xf32>
      %628 = tt.addptr %258, %389 : tensor<1x2048x!tt.ptr<f32, 1>>, tensor<1x2048xi32>
      %629 = tt.load %628, %390, %cst_5 {cache = 1 : i32, evict = 3 : i32, isVolatile = false} : tensor<1x2048xf32>
      %630 = tt.addptr %259, %391 : tensor<1x2048x!tt.ptr<bf16, 1>>, tensor<1x2048xi32>
      %631 = tt.load %630, %393, %cst {cache = 1 : i32, evict = 2 : i32, isVolatile = false} : tensor<1x2048xbf16>
      %632 = arith.extf %631 : tensor<1x2048xbf16> to tensor<1x2048xf32>
      %633 = tt.addptr %260, %389 : tensor<1x2048x!tt.ptr<f32, 1>>, tensor<1x2048xi32>
      %634 = tt.load %633, %390, %cst_5 {cache = 1 : i32, evict = 3 : i32, isVolatile = false} : tensor<1x2048xf32>
      %635 = tt.addptr %261, %391 : tensor<1x2048x!tt.ptr<bf16, 1>>, tensor<1x2048xi32>
      %636 = tt.load %635, %393, %cst {cache = 1 : i32, evict = 2 : i32, isVolatile = false} : tensor<1x2048xbf16>
      %637 = arith.extf %636 : tensor<1x2048xbf16> to tensor<1x2048xf32>
      %638 = tt.addptr %262, %389 : tensor<1x2048x!tt.ptr<f32, 1>>, tensor<1x2048xi32>
      %639 = tt.load %638, %390, %cst_5 {cache = 1 : i32, evict = 3 : i32, isVolatile = false} : tensor<1x2048xf32>
      %640 = tt.addptr %263, %391 : tensor<1x2048x!tt.ptr<bf16, 1>>, tensor<1x2048xi32>
      %641 = tt.load %640, %393, %cst {cache = 1 : i32, evict = 2 : i32, isVolatile = false} : tensor<1x2048xbf16>
      %642 = arith.extf %641 : tensor<1x2048xbf16> to tensor<1x2048xf32>
      %643 = tt.addptr %264, %389 : tensor<1x2048x!tt.ptr<f32, 1>>, tensor<1x2048xi32>
      %644 = tt.load %643, %390, %cst_5 {cache = 1 : i32, evict = 3 : i32, isVolatile = false} : tensor<1x2048xf32>
      %645 = tt.addptr %265, %391 : tensor<1x2048x!tt.ptr<bf16, 1>>, tensor<1x2048xi32>
      %646 = tt.load %645, %393, %cst {cache = 1 : i32, evict = 3 : i32, isVolatile = false} : tensor<1x2048xbf16>
      %647 = arith.extf %646 : tensor<1x2048xbf16> to tensor<1x2048xf32>
      %648 = tt.addptr %266, %389 : tensor<1x2048x!tt.ptr<f32, 1>>, tensor<1x2048xi32>
      %649 = tt.load %648, %390, %cst_5 {cache = 1 : i32, evict = 3 : i32, isVolatile = false} : tensor<1x2048xf32>
      %650 = tt.addptr %267, %391 : tensor<1x2048x!tt.ptr<bf16, 1>>, tensor<1x2048xi32>
      %651 = tt.load %650, %393, %cst {cache = 1 : i32, evict = 2 : i32, isVolatile = false} : tensor<1x2048xbf16>
      %652 = arith.extf %651 : tensor<1x2048xbf16> to tensor<1x2048xf32>
      %653 = tt.addptr %268, %389 : tensor<1x2048x!tt.ptr<f32, 1>>, tensor<1x2048xi32>
      %654 = tt.load %653, %390, %cst_5 {cache = 1 : i32, evict = 3 : i32, isVolatile = false} : tensor<1x2048xf32>
      %655 = tt.addptr %269, %391 : tensor<1x2048x!tt.ptr<bf16, 1>>, tensor<1x2048xi32>
      %656 = tt.load %655, %393, %cst {cache = 1 : i32, evict = 3 : i32, isVolatile = false} : tensor<1x2048xbf16>
      %657 = arith.extf %656 : tensor<1x2048xbf16> to tensor<1x2048xf32>
      %658 = tt.addptr %270, %389 : tensor<1x2048x!tt.ptr<f32, 1>>, tensor<1x2048xi32>
      %659 = tt.load %658, %390, %cst_5 {cache = 1 : i32, evict = 3 : i32, isVolatile = false} : tensor<1x2048xf32>
      %660 = arith.mulf %395, %271 : tensor<1x2048xf32>
      %661 = arith.addf %397, %cst_3 : tensor<1x2048xf32>
      %662 = arith.mulf %660, %661 : tensor<1x2048xf32>
      %663 = arith.mulf %400, %272 : tensor<1x2048xf32>
      %664 = arith.addf %402, %cst_3 : tensor<1x2048xf32>
      %665 = arith.mulf %663, %664 : tensor<1x2048xf32>
      %666 = arith.mulf %404, %cst_2 : tensor<1x2048xf32>
      %667 = arith.addf %665, %666 : tensor<1x2048xf32>
      %668 = arith.addf %662, %667 : tensor<1x2048xf32>
      %669 = arith.mulf %407, %273 : tensor<1x2048xf32>
      %670 = arith.addf %409, %cst_3 : tensor<1x2048xf32>
      %671 = arith.mulf %669, %670 : tensor<1x2048xf32>
      %672 = arith.mulf %412, %274 : tensor<1x2048xf32>
      %673 = arith.addf %414, %cst_3 : tensor<1x2048xf32>
      %674 = arith.mulf %672, %673 : tensor<1x2048xf32>
      %675 = arith.addf %674, %668 : tensor<1x2048xf32>
      %676 = arith.addf %671, %675 : tensor<1x2048xf32>
      %677 = arith.mulf %417, %275 : tensor<1x2048xf32>
      %678 = arith.addf %419, %cst_3 : tensor<1x2048xf32>
      %679 = arith.mulf %677, %678 : tensor<1x2048xf32>
      %680 = arith.mulf %422, %276 : tensor<1x2048xf32>
      %681 = arith.addf %424, %cst_3 : tensor<1x2048xf32>
      %682 = arith.mulf %680, %681 : tensor<1x2048xf32>
      %683 = arith.addf %682, %676 : tensor<1x2048xf32>
      %684 = arith.addf %679, %683 : tensor<1x2048xf32>
      %685 = arith.mulf %427, %277 : tensor<1x2048xf32>
      %686 = arith.addf %429, %cst_3 : tensor<1x2048xf32>
      %687 = arith.mulf %685, %686 : tensor<1x2048xf32>
      %688 = arith.mulf %432, %278 : tensor<1x2048xf32>
      %689 = arith.addf %434, %cst_3 : tensor<1x2048xf32>
      %690 = arith.mulf %688, %689 : tensor<1x2048xf32>
      %691 = arith.addf %690, %684 : tensor<1x2048xf32>
      %692 = arith.addf %687, %691 : tensor<1x2048xf32>
      %693 = arith.mulf %437, %279 : tensor<1x2048xf32>
      %694 = arith.addf %439, %cst_3 : tensor<1x2048xf32>
      %695 = arith.mulf %693, %694 : tensor<1x2048xf32>
      %696 = arith.mulf %442, %280 : tensor<1x2048xf32>
      %697 = arith.addf %444, %cst_3 : tensor<1x2048xf32>
      %698 = arith.mulf %696, %697 : tensor<1x2048xf32>
      %699 = arith.addf %698, %692 : tensor<1x2048xf32>
      %700 = arith.addf %695, %699 : tensor<1x2048xf32>
      %701 = arith.mulf %447, %281 : tensor<1x2048xf32>
      %702 = arith.addf %449, %cst_3 : tensor<1x2048xf32>
      %703 = arith.mulf %701, %702 : tensor<1x2048xf32>
      %704 = arith.mulf %452, %282 : tensor<1x2048xf32>
      %705 = arith.addf %454, %cst_3 : tensor<1x2048xf32>
      %706 = arith.mulf %704, %705 : tensor<1x2048xf32>
      %707 = arith.addf %706, %700 : tensor<1x2048xf32>
      %708 = arith.addf %703, %707 : tensor<1x2048xf32>
      %709 = arith.mulf %457, %283 : tensor<1x2048xf32>
      %710 = arith.addf %459, %cst_3 : tensor<1x2048xf32>
      %711 = arith.mulf %709, %710 : tensor<1x2048xf32>
      %712 = arith.mulf %462, %284 : tensor<1x2048xf32>
      %713 = arith.addf %464, %cst_3 : tensor<1x2048xf32>
      %714 = arith.mulf %712, %713 : tensor<1x2048xf32>
      %715 = arith.addf %714, %708 : tensor<1x2048xf32>
      %716 = arith.addf %711, %715 : tensor<1x2048xf32>
      %717 = arith.mulf %467, %285 : tensor<1x2048xf32>
      %718 = arith.addf %469, %cst_3 : tensor<1x2048xf32>
      %719 = arith.mulf %717, %718 : tensor<1x2048xf32>
      %720 = arith.mulf %472, %286 : tensor<1x2048xf32>
      %721 = arith.addf %474, %cst_3 : tensor<1x2048xf32>
      %722 = arith.mulf %720, %721 : tensor<1x2048xf32>
      %723 = arith.addf %722, %716 : tensor<1x2048xf32>
      %724 = arith.addf %719, %723 : tensor<1x2048xf32>
      %725 = arith.mulf %477, %287 : tensor<1x2048xf32>
      %726 = arith.addf %479, %cst_3 : tensor<1x2048xf32>
      %727 = arith.mulf %725, %726 : tensor<1x2048xf32>
      %728 = arith.mulf %482, %288 : tensor<1x2048xf32>
      %729 = arith.addf %484, %cst_3 : tensor<1x2048xf32>
      %730 = arith.mulf %728, %729 : tensor<1x2048xf32>
      %731 = arith.addf %730, %724 : tensor<1x2048xf32>
      %732 = arith.addf %727, %731 : tensor<1x2048xf32>
      %733 = arith.mulf %487, %289 : tensor<1x2048xf32>
      %734 = arith.addf %489, %cst_3 : tensor<1x2048xf32>
      %735 = arith.mulf %733, %734 : tensor<1x2048xf32>
      %736 = arith.mulf %492, %290 : tensor<1x2048xf32>
      %737 = arith.addf %494, %cst_3 : tensor<1x2048xf32>
      %738 = arith.mulf %736, %737 : tensor<1x2048xf32>
      %739 = arith.addf %738, %732 : tensor<1x2048xf32>
      %740 = arith.addf %735, %739 : tensor<1x2048xf32>
      %741 = arith.mulf %497, %291 : tensor<1x2048xf32>
      %742 = arith.addf %499, %cst_3 : tensor<1x2048xf32>
      %743 = arith.mulf %741, %742 : tensor<1x2048xf32>
      %744 = arith.mulf %502, %292 : tensor<1x2048xf32>
      %745 = arith.addf %504, %cst_3 : tensor<1x2048xf32>
      %746 = arith.mulf %744, %745 : tensor<1x2048xf32>
      %747 = arith.addf %746, %740 : tensor<1x2048xf32>
      %748 = arith.addf %743, %747 : tensor<1x2048xf32>
      %749 = arith.mulf %507, %293 : tensor<1x2048xf32>
      %750 = arith.addf %509, %cst_3 : tensor<1x2048xf32>
      %751 = arith.mulf %749, %750 : tensor<1x2048xf32>
      %752 = arith.mulf %512, %294 : tensor<1x2048xf32>
      %753 = arith.addf %514, %cst_3 : tensor<1x2048xf32>
      %754 = arith.mulf %752, %753 : tensor<1x2048xf32>
      %755 = arith.addf %754, %748 : tensor<1x2048xf32>
      %756 = arith.addf %751, %755 : tensor<1x2048xf32>
      %757 = arith.mulf %517, %295 : tensor<1x2048xf32>
      %758 = arith.addf %519, %cst_3 : tensor<1x2048xf32>
      %759 = arith.mulf %757, %758 : tensor<1x2048xf32>
      %760 = arith.mulf %522, %296 : tensor<1x2048xf32>
      %761 = arith.addf %524, %cst_3 : tensor<1x2048xf32>
      %762 = arith.mulf %760, %761 : tensor<1x2048xf32>
      %763 = arith.addf %762, %756 : tensor<1x2048xf32>
      %764 = arith.addf %759, %763 : tensor<1x2048xf32>
      %765 = arith.mulf %527, %297 : tensor<1x2048xf32>
      %766 = arith.addf %529, %cst_3 : tensor<1x2048xf32>
      %767 = arith.mulf %765, %766 : tensor<1x2048xf32>
      %768 = arith.mulf %532, %298 : tensor<1x2048xf32>
      %769 = arith.addf %534, %cst_3 : tensor<1x2048xf32>
      %770 = arith.mulf %768, %769 : tensor<1x2048xf32>
      %771 = arith.addf %770, %764 : tensor<1x2048xf32>
      %772 = arith.addf %767, %771 : tensor<1x2048xf32>
      %773 = arith.mulf %537, %299 : tensor<1x2048xf32>
      %774 = arith.addf %539, %cst_3 : tensor<1x2048xf32>
      %775 = arith.mulf %773, %774 : tensor<1x2048xf32>
      %776 = arith.mulf %542, %300 : tensor<1x2048xf32>
      %777 = arith.addf %544, %cst_3 : tensor<1x2048xf32>
      %778 = arith.mulf %776, %777 : tensor<1x2048xf32>
      %779 = arith.addf %778, %772 : tensor<1x2048xf32>
      %780 = arith.addf %775, %779 : tensor<1x2048xf32>
      %781 = arith.mulf %547, %301 : tensor<1x2048xf32>
      %782 = arith.addf %549, %cst_3 : tensor<1x2048xf32>
      %783 = arith.mulf %781, %782 : tensor<1x2048xf32>
      %784 = arith.mulf %552, %302 : tensor<1x2048xf32>
      %785 = arith.addf %554, %cst_3 : tensor<1x2048xf32>
      %786 = arith.mulf %784, %785 : tensor<1x2048xf32>
      %787 = arith.addf %786, %780 : tensor<1x2048xf32>
      %788 = arith.addf %783, %787 : tensor<1x2048xf32>
      %789 = arith.mulf %557, %303 : tensor<1x2048xf32>
      %790 = arith.addf %559, %cst_3 : tensor<1x2048xf32>
      %791 = arith.mulf %789, %790 : tensor<1x2048xf32>
      %792 = arith.mulf %562, %304 : tensor<1x2048xf32>
      %793 = arith.addf %564, %cst_3 : tensor<1x2048xf32>
      %794 = arith.mulf %792, %793 : tensor<1x2048xf32>
      %795 = arith.addf %794, %788 : tensor<1x2048xf32>
      %796 = arith.addf %791, %795 : tensor<1x2048xf32>
      %797 = arith.mulf %567, %305 : tensor<1x2048xf32>
      %798 = arith.addf %569, %cst_3 : tensor<1x2048xf32>
      %799 = arith.mulf %797, %798 : tensor<1x2048xf32>
      %800 = arith.mulf %572, %306 : tensor<1x2048xf32>
      %801 = arith.addf %574, %cst_3 : tensor<1x2048xf32>
      %802 = arith.mulf %800, %801 : tensor<1x2048xf32>
      %803 = arith.addf %802, %796 : tensor<1x2048xf32>
      %804 = arith.addf %799, %803 : tensor<1x2048xf32>
      %805 = arith.mulf %577, %307 : tensor<1x2048xf32>
      %806 = arith.addf %579, %cst_3 : tensor<1x2048xf32>
      %807 = arith.mulf %805, %806 : tensor<1x2048xf32>
      %808 = arith.mulf %582, %308 : tensor<1x2048xf32>
      %809 = arith.addf %584, %cst_3 : tensor<1x2048xf32>
      %810 = arith.mulf %808, %809 : tensor<1x2048xf32>
      %811 = arith.addf %810, %804 : tensor<1x2048xf32>
      %812 = arith.addf %807, %811 : tensor<1x2048xf32>
      %813 = arith.mulf %587, %309 : tensor<1x2048xf32>
      %814 = arith.addf %589, %cst_3 : tensor<1x2048xf32>
      %815 = arith.mulf %813, %814 : tensor<1x2048xf32>
      %816 = arith.mulf %592, %310 : tensor<1x2048xf32>
      %817 = arith.addf %594, %cst_3 : tensor<1x2048xf32>
      %818 = arith.mulf %816, %817 : tensor<1x2048xf32>
      %819 = arith.addf %818, %812 : tensor<1x2048xf32>
      %820 = arith.addf %815, %819 : tensor<1x2048xf32>
      %821 = arith.mulf %597, %311 : tensor<1x2048xf32>
      %822 = arith.addf %599, %cst_3 : tensor<1x2048xf32>
      %823 = arith.mulf %821, %822 : tensor<1x2048xf32>
      %824 = arith.mulf %602, %312 : tensor<1x2048xf32>
      %825 = arith.addf %604, %cst_3 : tensor<1x2048xf32>
      %826 = arith.mulf %824, %825 : tensor<1x2048xf32>
      %827 = arith.addf %826, %820 : tensor<1x2048xf32>
      %828 = arith.addf %823, %827 : tensor<1x2048xf32>
      %829 = arith.mulf %607, %313 : tensor<1x2048xf32>
      %830 = arith.addf %609, %cst_3 : tensor<1x2048xf32>
      %831 = arith.mulf %829, %830 : tensor<1x2048xf32>
      %832 = arith.mulf %612, %314 : tensor<1x2048xf32>
      %833 = arith.addf %614, %cst_3 : tensor<1x2048xf32>
      %834 = arith.mulf %832, %833 : tensor<1x2048xf32>
      %835 = arith.addf %834, %828 : tensor<1x2048xf32>
      %836 = arith.addf %831, %835 : tensor<1x2048xf32>
      %837 = arith.mulf %617, %315 : tensor<1x2048xf32>
      %838 = arith.addf %619, %cst_3 : tensor<1x2048xf32>
      %839 = arith.mulf %837, %838 : tensor<1x2048xf32>
      %840 = arith.mulf %622, %316 : tensor<1x2048xf32>
      %841 = arith.addf %624, %cst_3 : tensor<1x2048xf32>
      %842 = arith.mulf %840, %841 : tensor<1x2048xf32>
      %843 = arith.addf %842, %836 : tensor<1x2048xf32>
      %844 = arith.addf %839, %843 : tensor<1x2048xf32>
      %845 = arith.mulf %627, %317 : tensor<1x2048xf32>
      %846 = arith.addf %629, %cst_3 : tensor<1x2048xf32>
      %847 = arith.mulf %845, %846 : tensor<1x2048xf32>
      %848 = arith.mulf %632, %318 : tensor<1x2048xf32>
      %849 = arith.addf %634, %cst_3 : tensor<1x2048xf32>
      %850 = arith.mulf %848, %849 : tensor<1x2048xf32>
      %851 = arith.addf %850, %844 : tensor<1x2048xf32>
      %852 = arith.addf %847, %851 : tensor<1x2048xf32>
      %853 = arith.mulf %637, %319 : tensor<1x2048xf32>
      %854 = arith.addf %639, %cst_3 : tensor<1x2048xf32>
      %855 = arith.mulf %853, %854 : tensor<1x2048xf32>
      %856 = arith.mulf %642, %320 : tensor<1x2048xf32>
      %857 = arith.addf %644, %cst_3 : tensor<1x2048xf32>
      %858 = arith.mulf %856, %857 : tensor<1x2048xf32>
      %859 = arith.addf %858, %852 : tensor<1x2048xf32>
      %860 = arith.addf %855, %859 : tensor<1x2048xf32>
      %861 = arith.mulf %647, %321 : tensor<1x2048xf32>
      %862 = arith.addf %649, %cst_3 : tensor<1x2048xf32>
      %863 = arith.mulf %861, %862 : tensor<1x2048xf32>
      %864 = arith.mulf %652, %322 : tensor<1x2048xf32>
      %865 = arith.addf %654, %cst_3 : tensor<1x2048xf32>
      %866 = arith.mulf %864, %865 : tensor<1x2048xf32>
      %867 = arith.addf %866, %860 : tensor<1x2048xf32>
      %868 = arith.addf %863, %867 : tensor<1x2048xf32>
      %869 = arith.addf %659, %cst_3 : tensor<1x2048xf32>
      %870 = arith.mulf %657, %869 : tensor<1x2048xf32>
      %871 = arith.mulf %870, %868 : tensor<1x2048xf32>
      %872 = arith.addf %arg191, %871 : tensor<1x2048xf32>
      %873 = arith.select %393, %872, %arg191 : tensor<1x2048xi1>, tensor<1x2048xf32>
      %874 = tt.addptr %323, %391 : tensor<1x2048x!tt.ptr<f32, 1>>, tensor<1x2048xi32>
      tt.store %874, %668, %393 {cache = 1 : i32, evict = 1 : i32} : tensor<1x2048xf32>
      %875 = tt.addptr %324, %391 : tensor<1x2048x!tt.ptr<f32, 1>>, tensor<1x2048xi32>
      tt.store %875, %676, %393 {cache = 1 : i32, evict = 1 : i32} : tensor<1x2048xf32>
      %876 = tt.addptr %325, %391 : tensor<1x2048x!tt.ptr<f32, 1>>, tensor<1x2048xi32>
      tt.store %876, %684, %393 {cache = 1 : i32, evict = 1 : i32} : tensor<1x2048xf32>
      %877 = tt.addptr %326, %391 : tensor<1x2048x!tt.ptr<f32, 1>>, tensor<1x2048xi32>
      tt.store %877, %692, %393 {cache = 1 : i32, evict = 1 : i32} : tensor<1x2048xf32>
      %878 = tt.addptr %327, %391 : tensor<1x2048x!tt.ptr<f32, 1>>, tensor<1x2048xi32>
      tt.store %878, %700, %393 {cache = 1 : i32, evict = 1 : i32} : tensor<1x2048xf32>
      %879 = tt.addptr %328, %391 : tensor<1x2048x!tt.ptr<f32, 1>>, tensor<1x2048xi32>
      tt.store %879, %708, %393 {cache = 1 : i32, evict = 1 : i32} : tensor<1x2048xf32>
      %880 = tt.addptr %329, %391 : tensor<1x2048x!tt.ptr<f32, 1>>, tensor<1x2048xi32>
      tt.store %880, %716, %393 {cache = 1 : i32, evict = 1 : i32} : tensor<1x2048xf32>
      %881 = tt.addptr %330, %391 : tensor<1x2048x!tt.ptr<f32, 1>>, tensor<1x2048xi32>
      tt.store %881, %724, %393 {cache = 1 : i32, evict = 1 : i32} : tensor<1x2048xf32>
      %882 = tt.addptr %331, %391 : tensor<1x2048x!tt.ptr<f32, 1>>, tensor<1x2048xi32>
      tt.store %882, %732, %393 {cache = 1 : i32, evict = 1 : i32} : tensor<1x2048xf32>
      %883 = tt.addptr %332, %391 : tensor<1x2048x!tt.ptr<f32, 1>>, tensor<1x2048xi32>
      tt.store %883, %740, %393 {cache = 1 : i32, evict = 1 : i32} : tensor<1x2048xf32>
      %884 = tt.addptr %333, %391 : tensor<1x2048x!tt.ptr<f32, 1>>, tensor<1x2048xi32>
      tt.store %884, %748, %393 {cache = 1 : i32, evict = 1 : i32} : tensor<1x2048xf32>
      %885 = tt.addptr %334, %391 : tensor<1x2048x!tt.ptr<f32, 1>>, tensor<1x2048xi32>
      tt.store %885, %756, %393 {cache = 1 : i32, evict = 1 : i32} : tensor<1x2048xf32>
      %886 = tt.addptr %335, %391 : tensor<1x2048x!tt.ptr<f32, 1>>, tensor<1x2048xi32>
      tt.store %886, %764, %393 {cache = 1 : i32, evict = 1 : i32} : tensor<1x2048xf32>
      %887 = tt.addptr %336, %391 : tensor<1x2048x!tt.ptr<f32, 1>>, tensor<1x2048xi32>
      tt.store %887, %772, %393 {cache = 1 : i32, evict = 1 : i32} : tensor<1x2048xf32>
      %888 = tt.addptr %337, %391 : tensor<1x2048x!tt.ptr<f32, 1>>, tensor<1x2048xi32>
      tt.store %888, %780, %393 {cache = 1 : i32, evict = 1 : i32} : tensor<1x2048xf32>
      %889 = tt.addptr %338, %391 : tensor<1x2048x!tt.ptr<f32, 1>>, tensor<1x2048xi32>
      tt.store %889, %788, %393 {cache = 1 : i32, evict = 1 : i32} : tensor<1x2048xf32>
      %890 = tt.addptr %339, %391 : tensor<1x2048x!tt.ptr<f32, 1>>, tensor<1x2048xi32>
      tt.store %890, %796, %393 {cache = 1 : i32, evict = 1 : i32} : tensor<1x2048xf32>
      %891 = tt.addptr %340, %391 : tensor<1x2048x!tt.ptr<f32, 1>>, tensor<1x2048xi32>
      tt.store %891, %804, %393 {cache = 1 : i32, evict = 1 : i32} : tensor<1x2048xf32>
      %892 = tt.addptr %341, %391 : tensor<1x2048x!tt.ptr<f32, 1>>, tensor<1x2048xi32>
      tt.store %892, %812, %393 {cache = 1 : i32, evict = 1 : i32} : tensor<1x2048xf32>
      %893 = tt.addptr %342, %391 : tensor<1x2048x!tt.ptr<f32, 1>>, tensor<1x2048xi32>
      tt.store %893, %820, %393 {cache = 1 : i32, evict = 1 : i32} : tensor<1x2048xf32>
      %894 = tt.addptr %343, %391 : tensor<1x2048x!tt.ptr<f32, 1>>, tensor<1x2048xi32>
      tt.store %894, %828, %393 {cache = 1 : i32, evict = 1 : i32} : tensor<1x2048xf32>
      %895 = tt.addptr %344, %391 : tensor<1x2048x!tt.ptr<f32, 1>>, tensor<1x2048xi32>
      tt.store %895, %836, %393 {cache = 1 : i32, evict = 1 : i32} : tensor<1x2048xf32>
      %896 = tt.addptr %345, %391 : tensor<1x2048x!tt.ptr<f32, 1>>, tensor<1x2048xi32>
      tt.store %896, %844, %393 {cache = 1 : i32, evict = 1 : i32} : tensor<1x2048xf32>
      %897 = tt.addptr %346, %391 : tensor<1x2048x!tt.ptr<f32, 1>>, tensor<1x2048xi32>
      tt.store %897, %852, %393 {cache = 1 : i32, evict = 1 : i32} : tensor<1x2048xf32>
      %898 = tt.addptr %347, %391 : tensor<1x2048x!tt.ptr<f32, 1>>, tensor<1x2048xi32>
      tt.store %898, %860, %393 {cache = 1 : i32, evict = 1 : i32} : tensor<1x2048xf32>
      %899 = tt.addptr %348, %391 : tensor<1x2048x!tt.ptr<f32, 1>>, tensor<1x2048xi32>
      tt.store %899, %868, %393 {cache = 1 : i32, evict = 1 : i32} : tensor<1x2048xf32>
      scf.yield %873 : tensor<1x2048xf32>
    }
    %350 = "tt.reduce"(%349) <{axis = 1 : i32}> ({
    ^bb0(%arg190: f32, %arg191: f32):
      %388 = arith.addf %arg190, %arg191 : f32
      tt.reduce.return %388 : f32
    }) : (tensor<1x2048xf32>) -> tensor<1xf32>
    %351 = tt.expand_dims %350 {axis = 1 : i32} : (tensor<1xf32>) -> tensor<1x1xf32>
    %352 = tt.addptr %arg159, %0 : !tt.ptr<f32, 1>, i32
    %353 = tt.splat %352 : (!tt.ptr<f32, 1>) -> tensor<1x1x!tt.ptr<f32, 1>>
    %354 = tt.load %353, %2 {cache = 1 : i32, evict = 3 : i32, isVolatile = false} : tensor<1x1xf32>
    %355 = arith.muli %0, %c2304_i32 : i32
    %356 = tt.splat %355 : (i32) -> tensor<1x2048xi32>
    %357 = tt.splat %arg157 : (!tt.ptr<bf16, 1>) -> tensor<1x2048x!tt.ptr<bf16, 1>>
    %358 = tt.splat %1 : (i1) -> tensor<1x2048xi1>
    %359 = tt.splat %arg158 : (!tt.ptr<f32, 1>) -> tensor<1x2048x!tt.ptr<f32, 1>>
    %360 = tt.splat %arg185 : (!tt.ptr<f32, 1>) -> tensor<1x2048x!tt.ptr<f32, 1>>
    %361 = tt.splat %arg153 : (!tt.ptr<f32, 1>) -> tensor<1x2048x!tt.ptr<f32, 1>>
    %362 = tt.splat %arg151 : (!tt.ptr<bf16, 1>) -> tensor<1x2048x!tt.ptr<bf16, 1>>
    %363 = tt.broadcast %354 : (tensor<1x1xf32>) -> tensor<1x2048xf32>
    %364 = arith.mulf %351, %cst_1 : tensor<1x1xf32>
    %365 = arith.mulf %354, %354 : tensor<1x1xf32>
    %366 = arith.mulf %365, %354 : tensor<1x1xf32>
    %367 = arith.mulf %364, %366 : tensor<1x1xf32>
    %368 = arith.divf %367, %cst_0 : tensor<1x1xf32>
    %369 = tt.broadcast %368 : (tensor<1x1xf32>) -> tensor<1x2048xf32>
    %370 = tt.splat %arg186 : (!tt.ptr<f32, 1>) -> tensor<1x2048x!tt.ptr<f32, 1>>
    %371 = scf.for %arg190 = %c0_i32 to %c2304_i32 step %c2048_i32 iter_args(%arg191 = %cst_5) -> (tensor<1x2048xf32>)  : i32 {
      %388 = tt.splat %arg190 : (i32) -> tensor<1x2048xi32>
      %389 = arith.addi %388, %4 : tensor<1x2048xi32>
      %390 = arith.cmpi slt, %389, %cst_4 : tensor<1x2048xi32>
      %391 = arith.addi %389, %356 : tensor<1x2048xi32>
      %392 = tt.addptr %357, %391 : tensor<1x2048x!tt.ptr<bf16, 1>>, tensor<1x2048xi32>
      %393 = arith.andi %390, %358 : tensor<1x2048xi1>
      %394 = tt.load %392, %393, %cst {cache = 1 : i32, evict = 2 : i32, isVolatile = false} : tensor<1x2048xbf16>
      %395 = arith.extf %394 : tensor<1x2048xbf16> to tensor<1x2048xf32>
      %396 = tt.addptr %359, %389 : tensor<1x2048x!tt.ptr<f32, 1>>, tensor<1x2048xi32>
      %397 = tt.load %396, %390, %cst_5 {cache = 1 : i32, evict = 3 : i32, isVolatile = false} : tensor<1x2048xf32>
      %398 = tt.addptr %360, %391 : tensor<1x2048x!tt.ptr<f32, 1>>, tensor<1x2048xi32>
      %399 = tt.load %398, %393, %cst_5 {cache = 1 : i32, evict = 2 : i32, isVolatile = false} : tensor<1x2048xf32>
      %400 = tt.addptr %361, %389 : tensor<1x2048x!tt.ptr<f32, 1>>, tensor<1x2048xi32>
      %401 = tt.load %400, %390, %cst_5 {cache = 1 : i32, evict = 3 : i32, isVolatile = false} : tensor<1x2048xf32>
      %402 = tt.addptr %362, %391 : tensor<1x2048x!tt.ptr<bf16, 1>>, tensor<1x2048xi32>
      %403 = tt.load %402, %393, %cst {cache = 1 : i32, evict = 3 : i32, isVolatile = false} : tensor<1x2048xbf16>
      %404 = arith.extf %403 : tensor<1x2048xbf16> to tensor<1x2048xf32>
      %405 = arith.addf %397, %cst_3 : tensor<1x2048xf32>
      %406 = arith.mulf %395, %405 : tensor<1x2048xf32>
      %407 = arith.mulf %406, %363 : tensor<1x2048xf32>
      %408 = arith.mulf %369, %399 : tensor<1x2048xf32>
      %409 = arith.addf %407, %408 : tensor<1x2048xf32>
      %410 = arith.addf %409, %408 : tensor<1x2048xf32>
      %411 = arith.addf %401, %cst_3 : tensor<1x2048xf32>
      %412 = arith.mulf %410, %411 : tensor<1x2048xf32>
      %413 = arith.mulf %412, %404 : tensor<1x2048xf32>
      %414 = arith.addf %arg191, %413 : tensor<1x2048xf32>
      %415 = arith.select %393, %414, %arg191 : tensor<1x2048xi1>, tensor<1x2048xf32>
      %416 = tt.addptr %370, %391 : tensor<1x2048x!tt.ptr<f32, 1>>, tensor<1x2048xi32>
      tt.store %416, %410, %393 {cache = 1 : i32, evict = 1 : i32} : tensor<1x2048xf32>
      scf.yield %415 : tensor<1x2048xf32>
    }
    %372 = "tt.reduce"(%371) <{axis = 1 : i32}> ({
    ^bb0(%arg190: f32, %arg191: f32):
      %388 = arith.addf %arg190, %arg191 : f32
      tt.reduce.return %388 : f32
    }) : (tensor<1x2048xf32>) -> tensor<1xf32>
    %373 = tt.expand_dims %372 {axis = 1 : i32} : (tensor<1xf32>) -> tensor<1x1xf32>
    %374 = arith.muli %0, %c2304_i32 : i32
    %375 = tt.splat %374 : (i32) -> tensor<1x2048xi32>
    %376 = tt.splat %arg186 : (!tt.ptr<f32, 1>) -> tensor<1x2048x!tt.ptr<f32, 1>>
    %377 = tt.splat %1 : (i1) -> tensor<1x2048xi1>
    %378 = tt.splat %arg153 : (!tt.ptr<f32, 1>) -> tensor<1x2048x!tt.ptr<f32, 1>>
    %379 = tt.splat %arg151 : (!tt.ptr<bf16, 1>) -> tensor<1x2048x!tt.ptr<bf16, 1>>
    %380 = tt.broadcast %157 : (tensor<1x1xf32>) -> tensor<1x2048xf32>
    %381 = arith.mulf %373, %cst_1 : tensor<1x1xf32>
    %382 = arith.mulf %157, %157 : tensor<1x1xf32>
    %383 = arith.mulf %382, %157 : tensor<1x1xf32>
    %384 = arith.mulf %381, %383 : tensor<1x1xf32>
    %385 = arith.divf %384, %cst_0 : tensor<1x1xf32>
    %386 = tt.broadcast %385 : (tensor<1x1xf32>) -> tensor<1x2048xf32>
    %387 = tt.splat %arg187 : (!tt.ptr<bf16, 1>) -> tensor<1x2048x!tt.ptr<bf16, 1>>
    scf.for %arg190 = %c0_i32 to %c2304_i32 step %c2048_i32  : i32 {
      %388 = tt.splat %arg190 : (i32) -> tensor<1x2048xi32>
      %389 = arith.addi %388, %4 : tensor<1x2048xi32>
      %390 = arith.cmpi slt, %389, %cst_4 : tensor<1x2048xi32>
      %391 = arith.addi %389, %375 : tensor<1x2048xi32>
      %392 = tt.addptr %376, %391 : tensor<1x2048x!tt.ptr<f32, 1>>, tensor<1x2048xi32>
      %393 = arith.andi %390, %377 : tensor<1x2048xi1>
      %394 = tt.load %392, %393, %cst_5 {cache = 1 : i32, evict = 2 : i32, isVolatile = false} : tensor<1x2048xf32>
      %395 = tt.addptr %378, %389 : tensor<1x2048x!tt.ptr<f32, 1>>, tensor<1x2048xi32>
      %396 = tt.load %395, %390, %cst_5 {cache = 1 : i32, evict = 3 : i32, isVolatile = false} : tensor<1x2048xf32>
      %397 = tt.addptr %379, %391 : tensor<1x2048x!tt.ptr<bf16, 1>>, tensor<1x2048xi32>
      %398 = tt.load %397, %393, %cst {cache = 1 : i32, evict = 2 : i32, isVolatile = false} : tensor<1x2048xbf16>
      %399 = arith.extf %398 : tensor<1x2048xbf16> to tensor<1x2048xf32>
      %400 = arith.addf %396, %cst_3 : tensor<1x2048xf32>
      %401 = arith.mulf %394, %400 : tensor<1x2048xf32>
      %402 = arith.mulf %401, %380 : tensor<1x2048xf32>
      %403 = arith.mulf %386, %399 : tensor<1x2048xf32>
      %404 = arith.addf %402, %403 : tensor<1x2048xf32>
      %405 = arith.addf %404, %403 : tensor<1x2048xf32>
      %406 = tt.addptr %387, %391 : tensor<1x2048x!tt.ptr<bf16, 1>>, tensor<1x2048xi32>
      %407 = arith.truncf %405 : tensor<1x2048xf32> to tensor<1x2048xbf16>
      tt.store %406, %407, %393 {cache = 1 : i32, evict = 1 : i32} : tensor<1x2048xbf16>
    }
    tt.return
  }
}
