module {
  tt.func public @triton__0d1d2d3d4de5de(%arg0: !tt.ptr<bf16, 1> {tt.divisibility = 16 : i32}, %arg1: !tt.ptr<f32, 1> {tt.divisibility = 16 : i32}, %arg2: !tt.ptr<f32, 1> {tt.divisibility = 16 : i32}, %arg3: !tt.ptr<f32, 1> {tt.divisibility = 16 : i32}, %arg4: i32 {tt.divisibility = 16 : i32, tt.max_divisibility = 16 : i32}, %arg5: i32 {tt.divisibility = 16 : i32, tt.max_divisibility = 16 : i32}) attributes {noinline = false} {
    %cst = arith.constant dense<0.000000e+00> : tensor<256x4xbf16>
    %cst_0 = arith.constant dense<786432> : tensor<1x4xi32>
    %cst_1 = arith.constant dense<128> : tensor<256x1xi32>
    %cst_2 = arith.constant dense<262144> : tensor<1x4xi32>
    %cst_3 = arith.constant dense<-128> : tensor<256x1xi32>
    %cst_4 = arith.constant dense<-262144> : tensor<1x4xi32>
    %cst_5 = arith.constant dense<128> : tensor<256x1xi64>
    %cst_6 = arith.constant dense<0.000000e+00> : tensor<256x4xf32>
    %cst_7 = arith.constant dense<256> : tensor<256x1xi64>
    %cst_8 = arith.constant dense<524288> : tensor<1x4xi32>
    %cst_9 = arith.constant dense<256> : tensor<1x4xi32>
    %cst_10 = arith.constant dense<1048576> : tensor<1x4xi32>
    %cst_11 = arith.constant dense<2048> : tensor<256x1xi32>
    %cst_12 = arith.constant dense<2048> : tensor<1x4xi32>
    %cst_13 = arith.constant dense<256> : tensor<256x1xi32>
    %c4_i32 = arith.constant 4 : i32
    %c256_i32 = arith.constant 256 : i32
    %0 = tt.get_program_id y : i32
    %1 = arith.muli %0, %c4_i32 : i32
    %2 = tt.make_range {end = 4 : i32, start = 0 : i32} : tensor<4xi32>
    %3 = tt.expand_dims %2 {axis = 0 : i32} : (tensor<4xi32>) -> tensor<1x4xi32>
    %4 = tt.splat %1 : (i32) -> tensor<1x4xi32>
    %5 = arith.addi %4, %3 : tensor<1x4xi32>
    %6 = tt.get_program_id x : i32
    %7 = arith.muli %6, %c256_i32 : i32
    %8 = tt.make_range {end = 256 : i32, start = 0 : i32} : tensor<256xi32>
    %9 = tt.expand_dims %8 {axis = 1 : i32} : (tensor<256xi32>) -> tensor<256x1xi32>
    %10 = tt.splat %7 : (i32) -> tensor<256x1xi32>
    %11 = arith.addi %10, %9 : tensor<256x1xi32>
    %12 = arith.cmpi slt, %11, %cst_13 : tensor<256x1xi32>
    %13 = arith.remsi %5, %cst_12 : tensor<1x4xi32>
    %14 = arith.divsi %5, %cst_12 : tensor<1x4xi32>
    %15 = arith.muli %11, %cst_11 : tensor<256x1xi32>
    %16 = tt.broadcast %13 : (tensor<1x4xi32>) -> tensor<256x4xi32>
    %17 = tt.broadcast %15 : (tensor<256x1xi32>) -> tensor<256x4xi32>
    %18 = arith.addi %16, %17 : tensor<256x4xi32>
    %19 = arith.muli %14, %cst_10 : tensor<1x4xi32>
    %20 = tt.broadcast %19 : (tensor<1x4xi32>) -> tensor<256x4xi32>
    %21 = arith.addi %18, %20 : tensor<256x4xi32>
    %22 = tt.splat %arg0 : (!tt.ptr<bf16, 1>) -> tensor<256x4x!tt.ptr<bf16, 1>>
    %23 = tt.addptr %22, %21 : tensor<256x4x!tt.ptr<bf16, 1>>, tensor<256x4xi32>
    %24 = tt.broadcast %12 : (tensor<256x1xi1>) -> tensor<256x4xi1>
    %25 = tt.load %23, %24 {cache = 1 : i32, evict = 3 : i32, isVolatile = false} : tensor<256x4xbf16>
    %26 = arith.extf %25 : tensor<256x4xbf16> to tensor<256x4xf32>
    %27 = arith.muli %13, %cst_9 : tensor<1x4xi32>
    %28 = tt.broadcast %11 : (tensor<256x1xi32>) -> tensor<256x4xi32>
    %29 = tt.broadcast %27 : (tensor<1x4xi32>) -> tensor<256x4xi32>
    %30 = arith.addi %28, %29 : tensor<256x4xi32>
    %31 = tt.splat %arg1 : (!tt.ptr<f32, 1>) -> tensor<256x4x!tt.ptr<f32, 1>>
    %32 = tt.addptr %31, %30 : tensor<256x4x!tt.ptr<f32, 1>>, tensor<256x4xi32>
    %33 = tt.load %32, %24 {cache = 1 : i32, evict = 3 : i32, isVolatile = false} : tensor<256x4xf32>
    %34 = arith.addi %13, %cst_8 : tensor<1x4xi32>
    %35 = tt.broadcast %34 : (tensor<1x4xi32>) -> tensor<256x4xi32>
    %36 = arith.addi %35, %17 : tensor<256x4xi32>
    %37 = arith.addi %36, %20 : tensor<256x4xi32>
    %38 = tt.addptr %22, %37 : tensor<256x4x!tt.ptr<bf16, 1>>, tensor<256x4xi32>
    %39 = tt.load %38, %24 {cache = 1 : i32, evict = 3 : i32, isVolatile = false} : tensor<256x4xbf16>
    %40 = arith.extf %39 : tensor<256x4xbf16> to tensor<256x4xf32>
    %41 = arith.extsi %11 : tensor<256x1xi32> to tensor<256x1xi64>
    %42 = arith.cmpi sge, %41, %cst_7 : tensor<256x1xi64>
    %43 = arith.andi %42, %12 : tensor<256x1xi1>
    %44 = tt.broadcast %43 : (tensor<256x1xi1>) -> tensor<256x4xi1>
    %45 = tt.load %23, %44, %cst {cache = 1 : i32, evict = 3 : i32, isVolatile = false} : tensor<256x4xbf16>
    %46 = arith.extf %45 : tensor<256x4xbf16> to tensor<256x4xf32>
    %47 = tt.broadcast %42 : (tensor<256x1xi1>) -> tensor<256x4xi1>
    %48 = arith.select %47, %46, %cst_6 : tensor<256x4xi1>, tensor<256x4xf32>
    %49 = arith.mulf %26, %33 : tensor<256x4xf32>
    %50 = arith.cmpi sge, %41, %cst_5 : tensor<256x1xi64>
    %51 = arith.addi %13, %cst_4 : tensor<1x4xi32>
    %52 = tt.broadcast %51 : (tensor<1x4xi32>) -> tensor<256x4xi32>
    %53 = arith.addi %52, %17 : tensor<256x4xi32>
    %54 = arith.addi %53, %20 : tensor<256x4xi32>
    %55 = tt.addptr %22, %54 : tensor<256x4x!tt.ptr<bf16, 1>>, tensor<256x4xi32>
    %56 = arith.andi %50, %12 : tensor<256x1xi1>
    %57 = tt.broadcast %56 : (tensor<256x1xi1>) -> tensor<256x4xi1>
    %58 = tt.load %55, %57, %cst {cache = 1 : i32, evict = 3 : i32, isVolatile = false} : tensor<256x4xbf16>
    %59 = arith.extf %58 : tensor<256x4xbf16> to tensor<256x4xf32>
    %60 = arith.addi %11, %cst_3 : tensor<256x1xi32>
    %61 = tt.broadcast %60 : (tensor<256x1xi32>) -> tensor<256x4xi32>
    %62 = arith.addi %61, %29 : tensor<256x4xi32>
    %63 = tt.splat %arg2 : (!tt.ptr<f32, 1>) -> tensor<256x4x!tt.ptr<f32, 1>>
    %64 = tt.addptr %63, %62 : tensor<256x4x!tt.ptr<f32, 1>>, tensor<256x4xi32>
    %65 = tt.load %64, %57, %cst_6 {cache = 1 : i32, evict = 3 : i32, isVolatile = false} : tensor<256x4xf32>
    %66 = arith.mulf %59, %65 : tensor<256x4xf32>
    %67 = arith.subf %cst_6, %66 : tensor<256x4xf32>
    %68 = tt.broadcast %50 : (tensor<256x1xi1>) -> tensor<256x4xi1>
    %69 = arith.select %68, %67, %cst_6 : tensor<256x4xi1>, tensor<256x4xf32>
    %70 = arith.addf %49, %69 : tensor<256x4xf32>
    %71 = arith.cmpi slt, %41, %cst_5 : tensor<256x1xi64>
    %72 = arith.addi %13, %cst_2 : tensor<1x4xi32>
    %73 = tt.broadcast %72 : (tensor<1x4xi32>) -> tensor<256x4xi32>
    %74 = arith.addi %73, %17 : tensor<256x4xi32>
    %75 = arith.addi %74, %20 : tensor<256x4xi32>
    %76 = tt.addptr %22, %75 : tensor<256x4x!tt.ptr<bf16, 1>>, tensor<256x4xi32>
    %77 = arith.andi %71, %12 : tensor<256x1xi1>
    %78 = tt.broadcast %77 : (tensor<256x1xi1>) -> tensor<256x4xi1>
    %79 = tt.load %76, %78, %cst {cache = 1 : i32, evict = 3 : i32, isVolatile = false} : tensor<256x4xbf16>
    %80 = arith.extf %79 : tensor<256x4xbf16> to tensor<256x4xf32>
    %81 = arith.addi %11, %cst_1 : tensor<256x1xi32>
    %82 = tt.broadcast %81 : (tensor<256x1xi32>) -> tensor<256x4xi32>
    %83 = arith.addi %82, %29 : tensor<256x4xi32>
    %84 = tt.addptr %63, %83 : tensor<256x4x!tt.ptr<f32, 1>>, tensor<256x4xi32>
    %85 = tt.load %84, %78, %cst_6 {cache = 1 : i32, evict = 3 : i32, isVolatile = false} : tensor<256x4xf32>
    %86 = arith.mulf %80, %85 : tensor<256x4xf32>
    %87 = tt.broadcast %71 : (tensor<256x1xi1>) -> tensor<256x4xi1>
    %88 = arith.select %87, %86, %cst_6 : tensor<256x4xi1>, tensor<256x4xf32>
    %89 = arith.addf %70, %88 : tensor<256x4xf32>
    %90 = arith.addf %48, %89 : tensor<256x4xf32>
    %91 = tt.load %38, %44, %cst {cache = 1 : i32, evict = 3 : i32, isVolatile = false} : tensor<256x4xbf16>
    %92 = arith.extf %91 : tensor<256x4xbf16> to tensor<256x4xf32>
    %93 = arith.select %47, %92, %cst_6 : tensor<256x4xi1>, tensor<256x4xf32>
    %94 = arith.mulf %40, %33 : tensor<256x4xf32>
    %95 = tt.load %76, %57, %cst {cache = 1 : i32, evict = 3 : i32, isVolatile = false} : tensor<256x4xbf16>
    %96 = arith.extf %95 : tensor<256x4xbf16> to tensor<256x4xf32>
    %97 = arith.mulf %96, %65 : tensor<256x4xf32>
    %98 = arith.subf %cst_6, %97 : tensor<256x4xf32>
    %99 = arith.select %68, %98, %cst_6 : tensor<256x4xi1>, tensor<256x4xf32>
    %100 = arith.addf %94, %99 : tensor<256x4xf32>
    %101 = arith.addi %13, %cst_0 : tensor<1x4xi32>
    %102 = tt.broadcast %101 : (tensor<1x4xi32>) -> tensor<256x4xi32>
    %103 = arith.addi %102, %17 : tensor<256x4xi32>
    %104 = arith.addi %103, %20 : tensor<256x4xi32>
    %105 = tt.addptr %22, %104 : tensor<256x4x!tt.ptr<bf16, 1>>, tensor<256x4xi32>
    %106 = tt.load %105, %78, %cst {cache = 1 : i32, evict = 3 : i32, isVolatile = false} : tensor<256x4xbf16>
    %107 = arith.extf %106 : tensor<256x4xbf16> to tensor<256x4xf32>
    %108 = arith.mulf %107, %85 : tensor<256x4xf32>
    %109 = arith.select %87, %108, %cst_6 : tensor<256x4xi1>, tensor<256x4xf32>
    %110 = arith.addf %100, %109 : tensor<256x4xf32>
    %111 = arith.addf %93, %110 : tensor<256x4xf32>
    %112 = arith.addf %90, %111 : tensor<256x4xf32>
    %113 = arith.muli %14, %cst_8 : tensor<1x4xi32>
    %114 = tt.broadcast %113 : (tensor<1x4xi32>) -> tensor<256x4xi32>
    %115 = arith.addi %18, %114 : tensor<256x4xi32>
    %116 = tt.splat %arg3 : (!tt.ptr<f32, 1>) -> tensor<256x4x!tt.ptr<f32, 1>>
    %117 = tt.addptr %116, %115 : tensor<256x4x!tt.ptr<f32, 1>>, tensor<256x4xi32>
    tt.store %117, %112, %24 {cache = 1 : i32, evict = 1 : i32} : tensor<256x4xf32>
    tt.return
  }
}
