module {
  tt.func public @triton__0d1d2de(%arg0: !tt.ptr<bf16, 1> {tt.divisibility = 16 : i32}, %arg1: !tt.ptr<bf16, 1> {tt.divisibility = 16 : i32}, %arg2: i64 {tt.divisibility = 16 : i32, tt.max_divisibility = 16 : i32}) attributes {noinline = false} {
    %c512_i64 = arith.constant 512 : i64
    %cst = arith.constant dense<1.000000e+00> : tensor<512xf32>
    %cst_0 = arith.constant dense<0.797884583> : tensor<512xf32>
    %cst_1 = arith.constant dense<4.471500e-02> : tensor<512xf32>
    %cst_2 = arith.constant dense<5.000000e-01> : tensor<512xf32>
    %0 = tt.get_program_id x : i32
    %1 = arith.extsi %0 : i32 to i64
    %2 = arith.muli %1, %c512_i64 : i64
    %3 = tt.make_range {end = 512 : i32, start = 0 : i32} : tensor<512xi32>
    %4 = arith.extsi %3 : tensor<512xi32> to tensor<512xi64>
    %5 = tt.splat %2 : (i64) -> tensor<512xi64>
    %6 = arith.addi %5, %4 : tensor<512xi64>
    %7 = tt.splat %arg0 : (!tt.ptr<bf16, 1>) -> tensor<512x!tt.ptr<bf16, 1>>
    %8 = tt.addptr %7, %6 : tensor<512x!tt.ptr<bf16, 1>>, tensor<512xi64>
    %9 = tt.load %8 {cache = 1 : i32, evict = 1 : i32, isVolatile = false} : tensor<512xbf16>
    %10 = arith.extf %9 : tensor<512xbf16> to tensor<512xf32>
    %11 = tt.splat %arg1 : (!tt.ptr<bf16, 1>) -> tensor<512x!tt.ptr<bf16, 1>>
    %12 = tt.addptr %11, %6 : tensor<512x!tt.ptr<bf16, 1>>, tensor<512xi64>
    %13 = tt.load %12 {cache = 1 : i32, evict = 1 : i32, isVolatile = false} : tensor<512xbf16>
    %14 = arith.extf %13 : tensor<512xbf16> to tensor<512xf32>
    %15 = arith.mulf %10, %cst_2 : tensor<512xf32>
    %16 = arith.mulf %10, %10 : tensor<512xf32>
    %17 = arith.mulf %16, %10 : tensor<512xf32>
    %18 = arith.mulf %17, %cst_1 : tensor<512xf32>
    %19 = arith.addf %10, %18 : tensor<512xf32>
    %20 = arith.mulf %19, %cst_0 : tensor<512xf32>
    %21 = tt.extern_elementwise %20 {libname = "libdevice", libpath = "/home/zeus/miniconda3/envs/cloudspace/lib/python3.10/site-packages/triton/language/../third_party/cuda/lib/libdevice.10.bc", pure = true, symbol = "__nv_tanhf"} : (tensor<512xf32>) -> tensor<512xf32>
    %22 = arith.addf %21, %cst : tensor<512xf32>
    %23 = arith.mulf %15, %22 : tensor<512xf32>
    %24 = arith.mulf %23, %14 : tensor<512xf32>
    %25 = arith.truncf %24 : tensor<512xf32> to tensor<512xbf16>
    tt.store %8, %25 {cache = 1 : i32, evict = 1 : i32} : tensor<512xbf16>
    tt.return
  }
}
