module {
  tt.func public @triton__0d1d2d3d4d5d6d7de8de(%arg0: !tt.ptr<f32, 1> {tt.divisibility = 16 : i32}, %arg1: !tt.ptr<f32, 1> {tt.divisibility = 16 : i32}, %arg2: !tt.ptr<bf16, 1> {tt.divisibility = 16 : i32}, %arg3: !tt.ptr<f32, 1> {tt.divisibility = 16 : i32}, %arg4: !tt.ptr<f32, 1> {tt.divisibility = 16 : i32}, %arg5: !tt.ptr<f32, 1> {tt.divisibility = 16 : i32}, %arg6: !tt.ptr<bf16, 1> {tt.divisibility = 16 : i32}, %arg7: i32 {tt.divisibility = 16 : i32, tt.max_divisibility = 16 : i32}, %arg8: i32 {tt.divisibility = 16 : i32, tt.max_divisibility = 16 : i32}) attributes {noinline = false} {
    %cst = arith.constant dense<0.000000e+00> : tensor<1x2048xbf16>
    %c3584_i32 = arith.constant 3584 : i32
    %c2048_i32 = arith.constant 2048 : i32
    %c0_i32 = arith.constant 0 : i32
    %cst_0 = arith.constant dense<1.000000e+00> : tensor<1x2048xf32>
    %cst_1 = arith.constant dense<9.99999974E-6> : tensor<1x1xf32>
    %cst_2 = arith.constant dense<3.584000e+03> : tensor<1x1xf32>
    %cst_3 = arith.constant dense<3584> : tensor<1x2048xi32>
    %cst_4 = arith.constant dense<0.000000e+00> : tensor<1x2048xf32>
    %0 = tt.get_program_id x : i32
    %1 = tt.make_range {end = 2048 : i32, start = 0 : i32} : tensor<2048xi32>
    %2 = tt.expand_dims %1 {axis = 0 : i32} : (tensor<2048xi32>) -> tensor<1x2048xi32>
    %3 = arith.muli %0, %c3584_i32 : i32
    %4 = tt.splat %3 : (i32) -> tensor<1x2048xi32>
    %5 = tt.splat %arg2 : (!tt.ptr<bf16, 1>) -> tensor<1x2048x!tt.ptr<bf16, 1>>
    %6 = scf.for %arg9 = %c0_i32 to %c3584_i32 step %c2048_i32 iter_args(%arg10 = %cst_4) -> (tensor<1x2048xf32>)  : i32 {
      %37 = tt.splat %arg9 : (i32) -> tensor<1x2048xi32>
      %38 = arith.addi %37, %2 : tensor<1x2048xi32>
      %39 = arith.cmpi slt, %38, %cst_3 : tensor<1x2048xi32>
      %40 = arith.addi %38, %4 : tensor<1x2048xi32>
      %41 = tt.addptr %5, %40 : tensor<1x2048x!tt.ptr<bf16, 1>>, tensor<1x2048xi32>
      %42 = tt.load %41, %39, %cst {cache = 1 : i32, evict = 3 : i32, isVolatile = false} : tensor<1x2048xbf16>
      %43 = arith.extf %42 : tensor<1x2048xbf16> to tensor<1x2048xf32>
      %44 = arith.mulf %43, %43 : tensor<1x2048xf32>
      %45 = arith.addf %arg10, %44 : tensor<1x2048xf32>
      %46 = arith.select %39, %45, %arg10 : tensor<1x2048xi1>, tensor<1x2048xf32>
      scf.yield %46 : tensor<1x2048xf32>
    }
    %7 = "tt.reduce"(%6) <{axis = 1 : i32}> ({
    ^bb0(%arg9: f32, %arg10: f32):
      %37 = arith.addf %arg9, %arg10 : f32
      tt.reduce.return %37 : f32
    }) : (tensor<1x2048xf32>) -> tensor<1xf32>
    %8 = tt.expand_dims %7 {axis = 1 : i32} : (tensor<1xf32>) -> tensor<1x1xf32>
    %9 = arith.divf %8, %cst_2 : tensor<1x1xf32>
    %10 = arith.addf %9, %cst_1 : tensor<1x1xf32>
    %11 = tt.extern_elementwise %10 {libname = "libdevice", libpath = "/home/zeus/miniconda3/envs/cloudspace/lib/python3.10/site-packages/triton/language/../third_party/cuda/lib/libdevice.10.bc", pure = true, symbol = "__nv_rsqrtf"} : (tensor<1x1xf32>) -> tensor<1x1xf32>
    gpu.barrier
    %12 = tt.addptr %arg0, %0 : !tt.ptr<f32, 1>, i32
    %13 = tt.splat %12 : (!tt.ptr<f32, 1>) -> tensor<1x1x!tt.ptr<f32, 1>>
    tt.store %13, %11 {cache = 1 : i32, evict = 1 : i32} : tensor<1x1xf32>
    %14 = arith.muli %0, %c3584_i32 : i32
    %15 = tt.splat %14 : (i32) -> tensor<1x2048xi32>
    %16 = tt.splat %arg2 : (!tt.ptr<bf16, 1>) -> tensor<1x2048x!tt.ptr<bf16, 1>>
    %17 = tt.splat %arg3 : (!tt.ptr<f32, 1>) -> tensor<1x2048x!tt.ptr<f32, 1>>
    %18 = tt.splat %arg4 : (!tt.ptr<f32, 1>) -> tensor<1x2048x!tt.ptr<f32, 1>>
    %19 = tt.broadcast %11 : (tensor<1x1xf32>) -> tensor<1x2048xf32>
    %20 = scf.for %arg9 = %c0_i32 to %c3584_i32 step %c2048_i32 iter_args(%arg10 = %cst_4) -> (tensor<1x2048xf32>)  : i32 {
      %37 = tt.splat %arg9 : (i32) -> tensor<1x2048xi32>
      %38 = arith.addi %37, %2 : tensor<1x2048xi32>
      %39 = arith.cmpi slt, %38, %cst_3 : tensor<1x2048xi32>
      %40 = arith.addi %38, %15 : tensor<1x2048xi32>
      %41 = tt.addptr %16, %40 : tensor<1x2048x!tt.ptr<bf16, 1>>, tensor<1x2048xi32>
      %42 = tt.load %41, %39, %cst {cache = 1 : i32, evict = 3 : i32, isVolatile = false} : tensor<1x2048xbf16>
      %43 = arith.extf %42 : tensor<1x2048xbf16> to tensor<1x2048xf32>
      %44 = tt.addptr %17, %38 : tensor<1x2048x!tt.ptr<f32, 1>>, tensor<1x2048xi32>
      %45 = tt.load %44, %39, %cst_4 {cache = 1 : i32, evict = 3 : i32, isVolatile = false} : tensor<1x2048xf32>
      %46 = tt.addptr %18, %40 : tensor<1x2048x!tt.ptr<f32, 1>>, tensor<1x2048xi32>
      %47 = tt.load %46, %39, %cst_4 {cache = 1 : i32, evict = 3 : i32, isVolatile = false} : tensor<1x2048xf32>
      %48 = arith.mulf %43, %19 : tensor<1x2048xf32>
      %49 = arith.addf %45, %cst_0 : tensor<1x2048xf32>
      %50 = arith.mulf %48, %49 : tensor<1x2048xf32>
      %51 = arith.addf %50, %47 : tensor<1x2048xf32>
      %52 = arith.mulf %51, %51 : tensor<1x2048xf32>
      %53 = arith.addf %arg10, %52 : tensor<1x2048xf32>
      %54 = arith.select %39, %53, %arg10 : tensor<1x2048xi1>, tensor<1x2048xf32>
      scf.yield %54 : tensor<1x2048xf32>
    }
    %21 = "tt.reduce"(%20) <{axis = 1 : i32}> ({
    ^bb0(%arg9: f32, %arg10: f32):
      %37 = arith.addf %arg9, %arg10 : f32
      tt.reduce.return %37 : f32
    }) : (tensor<1x2048xf32>) -> tensor<1xf32>
    %22 = tt.expand_dims %21 {axis = 1 : i32} : (tensor<1xf32>) -> tensor<1x1xf32>
    %23 = arith.divf %22, %cst_2 : tensor<1x1xf32>
    %24 = arith.addf %23, %cst_1 : tensor<1x1xf32>
    %25 = tt.extern_elementwise %24 {libname = "libdevice", libpath = "/home/zeus/miniconda3/envs/cloudspace/lib/python3.10/site-packages/triton/language/../third_party/cuda/lib/libdevice.10.bc", pure = true, symbol = "__nv_rsqrtf"} : (tensor<1x1xf32>) -> tensor<1x1xf32>
    gpu.barrier
    %26 = tt.addptr %arg1, %0 : !tt.ptr<f32, 1>, i32
    %27 = tt.splat %26 : (!tt.ptr<f32, 1>) -> tensor<1x1x!tt.ptr<f32, 1>>
    tt.store %27, %25 {cache = 1 : i32, evict = 1 : i32} : tensor<1x1xf32>
    %28 = arith.muli %0, %c3584_i32 : i32
    %29 = tt.splat %28 : (i32) -> tensor<1x2048xi32>
    %30 = tt.splat %arg2 : (!tt.ptr<bf16, 1>) -> tensor<1x2048x!tt.ptr<bf16, 1>>
    %31 = tt.splat %arg3 : (!tt.ptr<f32, 1>) -> tensor<1x2048x!tt.ptr<f32, 1>>
    %32 = tt.splat %arg4 : (!tt.ptr<f32, 1>) -> tensor<1x2048x!tt.ptr<f32, 1>>
    %33 = tt.splat %arg5 : (!tt.ptr<f32, 1>) -> tensor<1x2048x!tt.ptr<f32, 1>>
    %34 = tt.broadcast %11 : (tensor<1x1xf32>) -> tensor<1x2048xf32>
    %35 = tt.broadcast %25 : (tensor<1x1xf32>) -> tensor<1x2048xf32>
    %36 = tt.splat %arg6 : (!tt.ptr<bf16, 1>) -> tensor<1x2048x!tt.ptr<bf16, 1>>
    scf.for %arg9 = %c0_i32 to %c3584_i32 step %c2048_i32  : i32 {
      %37 = tt.splat %arg9 : (i32) -> tensor<1x2048xi32>
      %38 = arith.addi %37, %2 : tensor<1x2048xi32>
      %39 = arith.cmpi slt, %38, %cst_3 : tensor<1x2048xi32>
      %40 = arith.addi %38, %29 : tensor<1x2048xi32>
      %41 = tt.addptr %30, %40 : tensor<1x2048x!tt.ptr<bf16, 1>>, tensor<1x2048xi32>
      %42 = tt.load %41, %39, %cst {cache = 1 : i32, evict = 2 : i32, isVolatile = false} : tensor<1x2048xbf16>
      %43 = arith.extf %42 : tensor<1x2048xbf16> to tensor<1x2048xf32>
      %44 = tt.addptr %31, %38 : tensor<1x2048x!tt.ptr<f32, 1>>, tensor<1x2048xi32>
      %45 = tt.load %44, %39, %cst_4 {cache = 1 : i32, evict = 3 : i32, isVolatile = false} : tensor<1x2048xf32>
      %46 = tt.addptr %32, %40 : tensor<1x2048x!tt.ptr<f32, 1>>, tensor<1x2048xi32>
      %47 = tt.load %46, %39, %cst_4 {cache = 1 : i32, evict = 2 : i32, isVolatile = false} : tensor<1x2048xf32>
      %48 = tt.addptr %33, %38 : tensor<1x2048x!tt.ptr<f32, 1>>, tensor<1x2048xi32>
      %49 = tt.load %48, %39, %cst_4 {cache = 1 : i32, evict = 3 : i32, isVolatile = false} : tensor<1x2048xf32>
      %50 = arith.mulf %43, %34 : tensor<1x2048xf32>
      %51 = arith.addf %45, %cst_0 : tensor<1x2048xf32>
      %52 = arith.mulf %50, %51 : tensor<1x2048xf32>
      %53 = arith.addf %52, %47 : tensor<1x2048xf32>
      %54 = arith.mulf %53, %35 : tensor<1x2048xf32>
      %55 = arith.addf %49, %cst_0 : tensor<1x2048xf32>
      %56 = arith.mulf %54, %55 : tensor<1x2048xf32>
      %57 = tt.addptr %36, %40 : tensor<1x2048x!tt.ptr<bf16, 1>>, tensor<1x2048xi32>
      %58 = arith.truncf %56 : tensor<1x2048xf32> to tensor<1x2048xbf16>
      tt.store %57, %58, %39 {cache = 1 : i32, evict = 1 : i32} : tensor<1x2048xbf16>
    }
    tt.return
  }
}
