module {
  tt.func public @triton__…(%arg0: !tt.ptr<bf16, 1> {tt.divisibility = 16 : i32}, %arg1: !tt.ptr<f32, 1> {tt.divisibility = 16 : i32}, %arg2: !tt.ptr<f32, 1> {tt.divisibility = 16 : i32}, %arg3: !tt.ptr<bf16, 1> {tt.divisibility = 16 : i32}, %arg4: !tt.ptr<f32, 1> {tt.divisibility = 16 : i32}, %arg5: !tt.ptr<f32, 1> {tt.divisibility = 16 : i32}, %arg6: !tt.ptr<f32, 1> {tt.divisibility = 16 : i32}, %arg7: !tt.ptr<bf16, 1> {tt.divisibility = 16 : i32}, %arg8: !tt.ptr<f32, 1> {tt.divisibility = 16 : i32}, %arg9: !tt.ptr<f32, 1> {tt.divisibility = 16 : i32}, %arg10: !tt.ptr<bf16, 1> {tt.divisibility = 16 : i32}, %arg11: !tt.ptr<f32, 1> {tt.divisibility = 16 : i32}, %arg12: !tt.ptr<f32, 1> {tt.divisibility = 16 : i32}, %arg13: !tt.ptr<bf16, 1> {tt.divisibility = 16 : i32}, %arg14: !tt.ptr<f32, 1> {tt.divisibility = 16 : i32}, %arg15: !tt.ptr<f32, 1> {tt.divisibility = 16 : i32}, %arg16: !tt.ptr<bf16, 1> {tt.divisibility = 16 : i32}, %arg17: !tt.ptr<f32, 1> {tt.divisibility = 16 : i32}, %arg18: !tt.ptr<f32, 1> {tt.divisibility = 16 : i32}, %arg19: !tt.ptr<bf16, 1> {tt.divisibility = 16 : i32}, %arg20: !tt.ptr<f32, 1> {tt.divisibility = 16 : i32}, %arg21: !tt.ptr<f32, 1> {tt.divisibility = 16 : i32}, %arg22: !tt.ptr<bf16, 1> {tt.divisibility = 16 : i32}, %arg23: !tt.ptr<f32, 1> {tt.divisibility = 16 : i32}, %arg24: !tt.ptr<f32, 1> {tt.divisibility = 16 : i32}, %arg25: !tt.ptr<bf16, 1> {tt.divisibility = 16 : i32}, %arg26: !tt.ptr<f32, 1> {tt.divisibility = 16 : i32}, %arg27: !tt.ptr<f32, 1> {tt.divisibility = 16 : i32}, %arg28: !tt.ptr<bf16, 1> {tt.divisibility = 16 : i32}, %arg29: !tt.ptr<f32, 1> {tt.divisibility = 16 : i32}, %arg30: !tt.ptr<f32, 1> {tt.divisibility = 16 : i32}, %arg31: !tt.ptr<bf16, 1> {tt.divisibility = 16 : i32}, %arg32: !tt.ptr<f32, 1> {tt.divisibility = 16 : i32}, %arg33: !tt.ptr<f32, 1> {tt.divisibility = 16 : i32}, %arg34: !tt.ptr<bf16, 1> {tt.divisibility = 16 : i32}, %arg35: !tt.ptr<f32, 1> {tt.divisibility = 16 : i32}, %arg36: !tt.ptr<f32, 1> {tt.divisibility = 16 : i32}, %arg37: !tt.ptr<bf16, 1> {tt.divisibility = 16 : i32}, %arg38: !tt.ptr<f32, 1> {tt.divisibility = 16 : i32}, %arg39: !tt.ptr<f32, 1> {tt.divisibility = 16 : i32}, %arg40: !tt.ptr<bf16, 1> {tt.divisibility = 16 : i32}, %arg41: !tt.ptr<f32, 1> {tt.divisibility = 16 : i32}, %arg42: !tt.ptr<f32, 1> {tt.divisibility = 16 : i32}, %arg43: !tt.ptr<bf16, 1> {tt.divisibility = 16 : i32}, %arg44: !tt.ptr<f32, 1> {tt.divisibility = 16 : i32}, %arg45: !tt.ptr<f32, 1> {tt.divisibility = 16 : i32}, %arg46: !tt.ptr<bf16, 1> {tt.divisibility = 16 : i32}, %arg47: !tt.ptr<f32, 1> {tt.divisibility = 16 : i32}, %arg48: !tt.ptr<f32, 1> {tt.divisibility = 16 : i32}, %arg49: !tt.ptr<bf16, 1> {tt.divisibility = 16 : i32}, %arg50: !tt.ptr<f32, 1> {tt.divisibility = 16 : i32}, %arg51: !tt.ptr<f32, 1> {tt.divisibility = 16 : i32}, %arg52: !tt.ptr<bf16, 1> {tt.divisibility = 16 : i32}, %arg53: !tt.ptr<f32, 1> {tt.divisibility = 16 : i32}, %arg54: !tt.ptr<f32, 1> {tt.divisibility = 16 : i32}, %arg55: !tt.ptr<bf16, 1> {tt.divisibility = 16 : i32}, %arg56: !tt.ptr<f32, 1> {tt.divisibility = 16 : i32}, %arg57: !tt.ptr<f32, 1> {tt.divisibility = 16 : i32}, %arg58: !tt.ptr<bf16, 1> {tt.divisibility = 16 : i32}, %arg59: !tt.ptr<f32, 1> {tt.divisibility = 16 : i32}, %arg60: !tt.ptr<f32, 1> {tt.divisibility = 16 : i32}, %arg61: !tt.ptr<bf16, 1> {tt.divisibility = 16 : i32}, %arg62: !tt.ptr<f32, 1> {tt.divisibility = 16 : i32}, %arg63: !tt.ptr<f32, 1> {tt.divisibility = 16 : i32}, %arg64: !tt.ptr<bf16, 1> {tt.divisibility = 16 : i32}, %arg65: !tt.ptr<f32, 1> {tt.divisibility = 16 : i32}, %arg66: !tt.ptr<f32, 1> {tt.divisibility = 16 : i32}, %arg67: !tt.ptr<bf16, 1> {tt.divisibility = 16 : i32}, %arg68: !tt.ptr<f32, 1> {tt.divisibility = 16 : i32}, %arg69: !tt.ptr<f32, 1> {tt.divisibility = 16 : i32}, %arg70: !tt.ptr<bf16, 1> {tt.divisibility = 16 : i32}, %arg71: !tt.ptr<f32, 1> {tt.divisibility = 16 : i32}, %arg72: !tt.ptr<f32, 1> {tt.divisibility = 16 : i32}, %arg73: !tt.ptr<bf16, 1> {tt.divisibility = 16 : i32}, %arg74: !tt.ptr<f32, 1> {tt.divisibility = 16 : i32}, %arg75: !tt.ptr<f32, 1> {tt.divisibility = 16 : i32}, %arg76: !tt.ptr<bf16, 1> {tt.divisibility = 16 : i32}, %arg77: !tt.ptr<f32, 1> {tt.divisibility = 16 : i32}, %arg78: !tt.ptr<f32, 1> {tt.divisibility = 16 : i32}, %arg79: !tt.ptr<bf16, 1> {tt.divisibility = 16 : i32}, %arg80: !tt.ptr<f32, 1> {tt.divisibility = 16 : i32}, %arg81: !tt.ptr<f32, 1> {tt.divisibility = 16 : i32}, %arg82: !tt.ptr<bf16, 1> {tt.divisibility = 16 : i32}, %arg83: !tt.ptr<f32, 1> {tt.divisibility = 16 : i32}, %arg84: !tt.ptr<f32, 1> {tt.divisibility = 16 : i32}, %arg85: !tt.ptr<bf16, 1> {tt.divisibility = 16 : i32}, %arg86: !tt.ptr<f32, 1> {tt.divisibility = 16 : i32}, %arg87: !tt.ptr<f32, 1> {tt.divisibility = 16 : i32}, %arg88: !tt.ptr<bf16, 1> {tt.divisibility = 16 : i32}, %arg89: !tt.ptr<f32, 1> {tt.divisibility = 16 : i32}, %arg90: !tt.ptr<f32, 1> {tt.divisibility = 16 : i32}, %arg91: !tt.ptr<bf16, 1> {tt.divisibility = 16 : i32}, %arg92: !tt.ptr<f32, 1> {tt.divisibility = 16 : i32}, %arg93: !tt.ptr<f32, 1> {tt.divisibility = 16 : i32}, %arg94: !tt.ptr<bf16, 1> {tt.divisibility = 16 : i32}, %arg95: !tt.ptr<f32, 1> {tt.divisibility = 16 : i32}, %arg96: !tt.ptr<f32, 1> {tt.divisibility = 16 : i32}, %arg97: !tt.ptr<bf16, 1> {tt.divisibility = 16 : i32}, %arg98: !tt.ptr<f32, 1> {tt.divisibility = 16 : i32}, %arg99: !tt.ptr<f32, 1> {tt.divisibility = 16 : i32}, %arg100: !tt.ptr<bf16, 1> {tt.divisibility = 16 : i32}, %arg101: !tt.ptr<f32, 1> {tt.divisibility = 16 : i32}, %arg102: !tt.ptr<f32, 1> {tt.divisibility = 16 : i32}, %arg103: !tt.ptr<bf16, 1> {tt.divisibility = 16 : i32}, %arg104: !tt.ptr<f32, 1> {tt.divisibility = 16 : i32}, %arg105: !tt.ptr<f32, 1> {tt.divisibility = 16 : i32}, %arg106: !tt.ptr<bf16, 1> {tt.divisibility = 16 : i32}, %arg107: !tt.ptr<f32, 1> {tt.divisibility = 16 : i32}, %arg108: !tt.ptr<f32, 1> {tt.divisibility = 16 : i32}, %arg109: !tt.ptr<bf16, 1> {tt.divisibility = 16 : i32}, %arg110: !tt.ptr<f32, 1> {tt.divisibility = 16 : i32}, %arg111: !tt.ptr<f32, 1> {tt.divisibility = 16 : i32}, %arg112: !tt.ptr<bf16, 1> {tt.divisibility = 16 : i32}, %arg113: !tt.ptr<f32, 1> {tt.divisibility = 16 : i32}, %arg114: !tt.ptr<f32, 1> {tt.divisibility = 16 : i32}, %arg115: !tt.ptr<bf16, 1> {tt.divisibility = 16 : i32}, %arg116: !tt.ptr<f32, 1> {tt.divisibility = 16 : i32}, %arg117: !tt.ptr<f32, 1> {tt.divisibility = 16 : i32}, %arg118: !tt.ptr<bf16, 1> {tt.divisibility = 16 : i32}, %arg119: !tt.ptr<f32, 1> {tt.divisibility = 16 : i32}, %arg120: !tt.ptr<f32, 1> {tt.divisibility = 16 : i32}, %arg121: !tt.ptr<bf16, 1> {tt.divisibility = 16 : i32}, %arg122: !tt.ptr<f32, 1> {tt.divisibility = 16 : i32}, %arg123: !tt.ptr<f32, 1> {tt.divisibility = 16 : i32}, %arg124: !tt.ptr<bf16, 1> {tt.divisibility = 16 : i32}, %arg125: !tt.ptr<f32, 1> {tt.divisibility = 16 : i32}, %arg126: !tt.ptr<f32, 1> {tt.divisibility = 16 : i32}, %arg127: !tt.ptr<bf16, 1> {tt.divisibility = 16 : i32}, %arg128: !tt.ptr<f32, 1> {tt.divisibility = 16 : i32}, %arg129: !tt.ptr<f32, 1> {tt.divisibility = 16 : i32}, %arg130: !tt.ptr<bf16, 1> {tt.divisibility = 16 : i32}, %arg131: !tt.ptr<f32, 1> {tt.divisibility = 16 : i32}, %arg132: !tt.ptr<f32, 1> {tt.divisibility = 16 : i32}, %arg133: !tt.ptr<bf16, 1> {tt.divisibility = 16 : i32}, %arg134: !tt.ptr<f32, 1> {tt.divisibility = 16 : i32}, %arg135: !tt.ptr<f32, 1> {tt.divisibility = 16 : i32}, %arg136: !tt.ptr<bf16, 1> {tt.divisibility = 16 : i32}, %arg137: !tt.ptr<f32, 1> {tt.divisibility = 16 : i32}, %arg138: !tt.ptr<f32, 1> {tt.divisibility = 16 : i32}, %arg139: !tt.ptr<bf16, 1> {tt.divisibility = 16 : i32}, %arg140: !tt.ptr<f32, 1> {tt.divisibility = 16 : i32}, %arg141: !tt.ptr<f32, 1> {tt.divisibility = 16 : i32}, %arg142: !tt.ptr<bf16, 1> {tt.divisibility = 16 : i32}, %arg143: !tt.ptr<f32, 1> {tt.divisibility = 16 : i32}, %arg144: !tt.ptr<f32, 1> {tt.divisibility = 16 : i32}, %arg145: !tt.ptr<bf16, 1> {tt.divisibility = 16 : i32}, %arg146: !tt.ptr<f32, 1> {tt.divisibility = 16 : i32}, %arg147: !tt.ptr<f32, 1> {tt.divisibility = 16 : i32}, %arg148: !tt.ptr<bf16, 1> {tt.divisibility = 16 : i32}, %arg149: !tt.ptr<f32, 1> {tt.divisibility = 16 : i32}, %arg150: !tt.ptr<f32, 1> {tt.divisibility = 16 : i32}, %arg151: !tt.ptr<bf16, 1> {tt.divisibility = 16 : i32}, %arg152: !tt.ptr<f32, 1> {tt.divisibility = 16 : i32}, %arg153: !tt.ptr<f32, 1> {tt.divisibility = 16 : i32}, %arg154: !tt.ptr<bf16, 1> {tt.divisibility = 16 : i32}, %arg155: !tt.ptr<f32, 1> {tt.divisibility = 16 : i32}, %arg156: !tt.ptr<f32, 1> {tt.divisibility = 16 : i32}, %arg157: !tt.ptr<bf16, 1> {tt.divisibility = 16 : i32}, %arg158: !tt.ptr<f32, 1> {tt.divisibility = 16 : i32}, %arg159: !tt.ptr<f32, 1> {tt.divisibility = 16 : i32}, %arg160: !tt.ptr<f32, 1> {tt.divisibility = 16 : i32}, %arg161: !tt.ptr<f32, 1> {tt.divisibility = 16 : i32}, %arg162: !tt.ptr<f32, 1> {tt.divisibility = 16 : i32}, %arg163: !tt.ptr<f32, 1> {tt.divisibility = 16 : i32}, %arg164: !tt.ptr<f32, 1> {tt.divisibility = 16 : i32}, %arg165: !tt.ptr<f32, 1> {tt.divisibility = 16 : i32}, %arg166: !tt.ptr<f32, 1> {tt.divisibility = 16 : i32}, %arg167: !tt.ptr<f32, 1> {tt.divisibility = 16 : i32}, %arg168: !tt.ptr<f32, 1> {tt.divisibility = 16 : i32}, %arg169: !tt.ptr<f32, 1> {tt.divisibility = 16 : i32}, %arg170: !tt.ptr<f32, 1> {tt.divisibility = 16 : i32}, %arg171: !tt.ptr<f32, 1> {tt.divisibility = 16 : i32}, %arg172: !tt.ptr<f32, 1> {tt.divisibility = 16 : i32}, %arg173: !tt.ptr<f32, 1> {tt.divisibility = 16 : i32}, %arg174: !tt.ptr<f32, 1> {tt.divisibility = 16 : i32}, %arg175: !tt.ptr<f32, 1> {tt.divisibility = 16 : i32}, %arg176: !tt.ptr<f32, 1> {tt.divisibility = 16 : i32}, %arg177: !tt.ptr<f32, 1> {tt.divisibility = 16 : i32}, %arg178: !tt.ptr<f32, 1> {tt.divisibility = 16 : i32}, %arg179: !tt.ptr<f32, 1> {tt.divisibility = 16 : i32}, %arg180: !tt.ptr<f32, 1> {tt.divisibility = 16 : i32}, %arg181: !tt.ptr<f32, 1> {tt.divisibility = 16 : i32}, %arg182: !tt.ptr<f32, 1> {tt.divisibility = 16 : i32}, %arg183: !tt.ptr<f32, 1> {tt.divisibility = 16 : i32}, %arg184: !tt.ptr<f32, 1> {tt.divisibility = 16 : i32}, %arg185: !tt.ptr<f32, 1> {tt.divisibility = 16 : i32}, %arg186: !tt.ptr<f32, 1> {tt.divisibility = 16 : i32}, %arg187: !tt.ptr<bf16, 1> {tt.divisibility = 16 : i32}, %arg188: i32 {tt.divisibility = 16 : i32, tt.max_divisibility = 16 : i32}, %arg189: i32 {tt.divisibility = 16 : i32, tt.max_divisibility = 16 : i32}) attributes {noinline = false} {
    %cst = arith.constant dense<0.000000e+00> : tensor<1x2048xbf16>
    %c2304_i32 = arith.constant 2304 : i32
    %c2048_i32 = arith.constant 2048 : i32
    %c0_i32 = arith.constant 0 : i32
    %cst_0 = arith.constant dense<2.304000e+03> : tensor<1x1xf32>
    %cst_1 = arith.constant dense<-5.000000e-01> : tensor<1x1xf32>
    %cst_2 = arith.constant dense<4.800000e+01> : tensor<1x2048xf32>
    %cst_3 = arith.constant dense<1.000000e+00> : tensor<1x2048xf32>
    %cst_4 = arith.constant dense<2304> : tensor<1x2048xi32>
    %cst_5 = arith.constant dense<0.000000e+00> : tensor<1x2048xf32>
    %0 = tt.get_program_id x : i32
    %1 = tt.make_range {end = 2048 : i32, start = 0 : i32} : tensor<2048xi32>
    %2 = tt.expand_dims %1 {axis = 0 : i32} : (tensor<2048xi32>) -> tensor<1x2048xi32>
    %3 = tt.addptr %arg1, %0 : !tt.ptr<f32, 1>, i32
    %4 = tt.splat %3 : (!tt.ptr<f32, 1>) -> tensor<1x1x!tt.ptr<f32, 1>>
    %5 = tt.load %4 {cache = 1 : i32, evict = 3 : i32, isVolatile = false} : tensor<1x1xf32>
    %6 = tt.addptr %arg4, %0 : !tt.ptr<f32, 1>, i32
    %7 = tt.splat %6 : (!tt.ptr<f32, 1>) -> tensor<1x1x!tt.ptr<f32, 1>>
    %8 = tt.load %7 {cache = 1 : i32, evict = 3 : i32, isVolatile = false} : tensor<1x1xf32>
    %9 = tt.addptr %arg8, %0 : !tt.ptr<f32, 1>, i32
    %10 = tt.splat %9 : (!tt.ptr<f32, 1>) -> tensor<1x1x!tt.ptr<f32, 1>>
    %11 = tt.load %10 {cache = 1 : i32, evict = 3 : i32, isVolatile = false} : tensor<1x1xf32>
    %12 = tt.addptr %arg11, %0 : !tt.ptr<f32, 1>, i32
    %13 = tt.splat %12 : (!tt.ptr<f32, 1>) -> tensor<1x1x!tt.ptr<f32, 1>>
    %14 = tt.load %13 {cache = 1 : i32, evict = 3 : i32, isVolatile = false} : tensor<1x1xf32>
    %15 = tt.addptr %arg14, %0 : !tt.ptr<f32, 1>, i32
    %16 = tt.splat %15 : (!tt.ptr<f32, 1>) -> tensor<1x1x!tt.ptr<f32, 1>>
    %17 = tt.load %16 {cache = 1 : i32, evict = 3 : i32, isVolatile = false} : tensor<1x1xf32>
    %18 = tt.addptr %arg17, %0 : !tt.ptr<f32, 1>, i32
    %19 = tt.splat %18 : (!tt.ptr<f32, 1>) -> tensor<1x1x!tt.ptr<f32, 1>>
    %20 = tt.load %19 {cache = 1 : i32, evict = 3 : i32, isVolatile = false} : tensor<1x1xf32>
    %21 = tt.addptr %arg20, %0 : !tt.ptr<f32, 1>, i32
    %22 = tt.splat %21 : (!tt.ptr<f32, 1>) -> tensor<1x1x!tt.ptr<f32, 1>>
    %23 = tt.load %22 {cache = 1 : i32, evict = 3 : i32, isVolatile = false} : tensor<1x1xf32>
    %24 = tt.addptr %arg23, %0 : !tt.ptr<f32, 1>, i32
    %25 = tt.splat %24 : (!tt.ptr<f32, 1>) -> tensor<1x1x!tt.ptr<f32, 1>>
    %26 = tt.load %25 {cache = 1 : i32, evict = 3 : i32, isVolatile = false} : tensor<1x1xf32>
    %27 = tt.addptr %arg26, %0 : !tt.ptr<f32, 1>, i32
    %28 = tt.splat %27 : (!tt.ptr<f32, 1>) -> tensor<1x1x!tt.ptr<f32, 1>>
    %29 = tt.load %28 {cache = 1 : i32, evict = 3 : i32, isVolatile = false} : tensor<1x1xf32>
    %30 = tt.addptr %arg29, %0 : !tt.ptr<f32, 1>, i32
    %31 = tt.splat %30 : (!tt.ptr<f32, 1>) -> tensor<1x1x!tt.ptr<f32, 1>>
    %32 = tt.load %31 {cache = 1 : i32, evict = 3 : i32, isVolatile = false} : tensor<1x1xf32>
    %33 = tt.addptr %arg32, %0 : !tt.ptr<f32, 1>, i32
    %34 = tt.splat %33 : (!tt.ptr<f32, 1>) -> tensor<1x1x!tt.ptr<f32, 1>>
    %35 = tt.load %34 {cache = 1 : i32, evict = 3 : i32, isVolatile = false} : tensor<1x1xf32>
    %36 = tt.addptr %arg35, %0 : !tt.ptr<f32, 1>, i32
    %37 = tt.splat %36 : (!tt.ptr<f32, 1>) -> tensor<1x1x!tt.ptr<f32, 1>>
    %38 = tt.load %37 {cache = 1 : i32, evict = 3 : i32, isVolatile = false} : tensor<1x1xf32>
    %39 = tt.addptr %arg38, %0 : !tt.ptr<f32, 1>, i32
    %40 = tt.splat %39 : (!tt.ptr<f32, 1>) -> tensor<1x1x!tt.ptr<f32, 1>>
    %41 = tt.load %40 {cache = 1 : i32, evict = 3 : i32, isVolatile = false} : tensor<1x1xf32>
    %42 = tt.addptr %arg41, %0 : !tt.ptr<f32, 1>, i32
    %43 = tt.splat %42 : (!tt.ptr<f32, 1>) -> tensor<1x1x!tt.ptr<f32, 1>>
    %44 = tt.load %43 {cache = 1 : i32, evict = 3 : i32, isVolatile = false} : tensor<1x1xf32>
    %45 = tt.addptr %arg44, %0 : !tt.ptr<f32, 1>, i32
    %46 = tt.splat %45 : (!tt.ptr<f32, 1>) -> tensor<1x1x!tt.ptr<f32, 1>>
    %47 = tt.load %46 {cache = 1 : i32, evict = 3 : i32, isVolatile = false} : tensor<1x1xf32>
    %48 = tt.addptr %arg47, %0 : !tt.ptr<f32, 1>, i32
    %49 = tt.splat %48 : (!tt.ptr<f32, 1>) -> tensor<1x1x!tt.ptr<f32, 1>>
    %50 = tt.load %49 {cache = 1 : i32, evict = 3 : i32, isVolatile = false} : tensor<1x1xf32>
    %51 = tt.addptr %arg50, %0 : !tt.ptr<f32, 1>, i32
    %52 = tt.splat %51 : (!tt.ptr<f32, 1>) -> tensor<1x1x!tt.ptr<f32, 1>>
    %53 = tt.load %52 {cache = 1 : i32, evict = 3 : i32, isVolatile = false} : tensor<1x1xf32>
    %54 = tt.addptr %arg53, %0 : !tt.ptr<f32, 1>, i32
    %55 = tt.splat %54 : (!tt.ptr<f32, 1>) -> tensor<1x1x!tt.ptr<f32, 1>>
    %56 = tt.load %55 {cache = 1 : i32, evict = 3 : i32, isVolatile = false} : tensor<1x1xf32>
    %57 = tt.addptr %arg56, %0 : !tt.ptr<f32, 1>, i32
    %58 = tt.splat %57 : (!tt.ptr<f32, 1>) -> tensor<1x1x!tt.ptr<f32, 1>>
    %59 = tt.load %58 {cache = 1 : i32, evict = 3 : i32, isVolatile = false} : tensor<1x1xf32>
    %60 = tt.addptr %arg59, %0 : !tt.ptr<f32, 1>, i32
    %61 = tt.splat %60 : (!tt.ptr<f32, 1>) -> tensor<1x1x!tt.ptr<f32, 1>>
    %62 = tt.load %61 {cache = 1 : i32, evict = 3 : i32, isVolatile = false} : tensor<1x1xf32>
    %63 = tt.addptr %arg62, %0 : !tt.ptr<f32, 1>, i32
    %64 = tt.splat %63 : (!tt.ptr<f32, 1>) -> tensor<1x1x!tt.ptr<f32, 1>>
    %65 = tt.load %64 {cache = 1 : i32, evict = 3 : i32, isVolatile = false} : tensor<1x1xf32>
    %66 = tt.addptr %arg65, %0 : !tt.ptr<f32, 1>, i32
    %67 = tt.splat %66 : (!tt.ptr<f32, 1>) -> tensor<1x1x!tt.ptr<f32, 1>>
    %68 = tt.load %67 {cache = 1 : i32, evict = 3 : i32, isVolatile = false} : tensor<1x1xf32>
    %69 = tt.addptr %arg68, %0 : !tt.ptr<f32, 1>, i32
    %70 = tt.splat %69 : (!tt.ptr<f32, 1>) -> tensor<1x1x!tt.ptr<f32, 1>>
    %71 = tt.load %70 {cache = 1 : i32, evict = 3 : i32, isVolatile = false} : tensor<1x1xf32>
    %72 = tt.addptr %arg71, %0 : !tt.ptr<f32, 1>, i32
    %73 = tt.splat %72 : (!tt.ptr<f32, 1>) -> tensor<1x1x!tt.ptr<f32, 1>>
    %74 = tt.load %73 {cache = 1 : i32, evict = 3 : i32, isVolatile = false} : tensor<1x1xf32>
    %75 = tt.addptr %arg74, %0 : !tt.ptr<f32, 1>, i32
    %76 = tt.splat %75 : (!tt.ptr<f32, 1>) -> tensor<1x1x!tt.ptr<f32, 1>>
    %77 = tt.load %76 {cache = 1 : i32, evict = 3 : i32, isVolatile = false} : tensor<1x1xf32>
    %78 = tt.addptr %arg77, %0 : !tt.ptr<f32, 1>, i32
    %79 = tt.splat %78 : (!tt.ptr<f32, 1>) -> tensor<1x1x!tt.ptr<f32, 1>>
    %80 = tt.load %79 {cache = 1 : i32, evict = 3 : i32, isVolatile = false} : tensor<1x1xf32>
    %81 = tt.addptr %arg80, %0 : !tt.ptr<f32, 1>, i32
    %82 = tt.splat %81 : (!tt.ptr<f32, 1>) -> tensor<1x1x!tt.ptr<f32, 1>>
    %83 = tt.load %82 {cache = 1 : i32, evict = 3 : i32, isVolatile = false} : tensor<1x1xf32>
    %84 = tt.addptr %arg83, %0 : !tt.ptr<f32, 1>, i32
    %85 = tt.splat %84 : (!tt.ptr<f32, 1>) -> tensor<1x1x!tt.ptr<f32, 1>>
    %86 = tt.load %85 {cache = 1 : i32, evict = 3 : i32, isVolatile = false} : tensor<1x1xf32>
    %87 = tt.addptr %arg86, %0 : !tt.ptr<f32, 1>, i32
    %88 = tt.splat %87 : (!tt.ptr<f32, 1>) -> tensor<1x1x!tt.ptr<f32, 1>>
    %89 = tt.load %88 {cache = 1 : i32, evict = 3 : i32, isVolatile = false} : tensor<1x1xf32>
    %90 = tt.addptr %arg89, %0 : !tt.ptr<f32, 1>, i32
    %91 = tt.splat %90 : (!tt.ptr<f32, 1>) -> tensor<1x1x!tt.ptr<f32, 1>>
    %92 = tt.load %91 {cache = 1 : i32, evict = 3 : i32, isVolatile = false} : tensor<1x1xf32>
    %93 = tt.addptr %arg92, %0 : !tt.ptr<f32, 1>, i32
    %94 = tt.splat %93 : (!tt.ptr<f32, 1>) -> tensor<1x1x!tt.ptr<f32, 1>>
    %95 = tt.load %94 {cache = 1 : i32, evict = 3 : i32, isVolatile = false} : tensor<1x1xf32>
    %96 = tt.addptr %arg95, %0 : !tt.ptr<f32, 1>, i32
    %97 = tt.splat %96 : (!tt.ptr<f32, 1>) -> tensor<1x1x!tt.ptr<f32, 1>>
    %98 = tt.load %97 {cache = 1 : i32, evict = 3 : i32, isVolatile = false} : tensor<1x1xf32>
    %99 = tt.addptr %arg98, %0 : !tt.ptr<f32, 1>, i32
    %100 = tt.splat %99 : (!tt.ptr<f32, 1>) -> tensor<1x1x!tt.ptr<f32, 1>>
    %101 = tt.load %100 {cache = 1 : i32, evict = 3 : i32, isVolatile = false} : tensor<1x1xf32>
    %102 = tt.addptr %arg101, %0 : !tt.ptr<f32, 1>, i32
    %103 = tt.splat %102 : (!tt.ptr<f32, 1>) -> tensor<1x1x!tt.ptr<f32, 1>>
    %104 = tt.load %103 {cache = 1 : i32, evict = 3 : i32, isVolatile = false} : tensor<1x1xf32>
    %105 = tt.addptr %arg104, %0 : !tt.ptr<f32, 1>, i32
    %106 = tt.splat %105 : (!tt.ptr<f32, 1>) -> tensor<1x1x!tt.ptr<f32, 1>>
    %107 = tt.load %106 {cache = 1 : i32, evict = 3 : i32, isVolatile = false} : tensor<1x1xf32>
    %108 = tt.addptr %arg107, %0 : !tt.ptr<f32, 1>, i32
    %109 = tt.splat %108 : (!tt.ptr<f32, 1>) -> tensor<1x1x!tt.ptr<f32, 1>>
    %110 = tt.load %109 {cache = 1 : i32, evict = 3 : i32, isVolatile = false} : tensor<1x1xf32>
    %111 = tt.addptr %arg110, %0 : !tt.ptr<f32, 1>, i32
    %112 = tt.splat %111 : (!tt.ptr<f32, 1>) -> tensor<1x1x!tt.ptr<f32, 1>>
    %113 = tt.load %112 {cache = 1 : i32, evict = 3 : i32, isVolatile = false} : tensor<1x1xf32>
    %114 = tt.addptr %arg113, %0 : !tt.ptr<f32, 1>, i32
    %115 = tt.splat %114 : (!tt.ptr<f32, 1>) -> tensor<1x1x!tt.ptr<f32, 1>>
    %116 = tt.load %115 {cache = 1 : i32, evict = 3 : i32, isVolatile = false} : tensor<1x1xf32>
    %117 = tt.addptr %arg116, %0 : !tt.ptr<f32, 1>, i32
    %118 = tt.splat %117 : (!tt.ptr<f32, 1>) -> tensor<1x1x!tt.ptr<f32, 1>>
    %119 = tt.load %118 {cache = 1 : i32, evict = 3 : i32, isVolatile = false} : tensor<1x1xf32>
    %120 = tt.addptr %arg119, %0 : !tt.ptr<f32, 1>, i32
    %121 = tt.splat %120 : (!tt.ptr<f32, 1>) -> tensor<1x1x!tt.ptr<f32, 1>>
    %122 = tt.load %121 {cache = 1 : i32, evict = 3 : i32, isVolatile = false} : tensor<1x1xf32>
    %123 = tt.addptr %arg122, %0 : !tt.ptr<f32, 1>, i32
    %124 = tt.splat %123 : (!tt.ptr<f32, 1>) -> tensor<1x1x!tt.ptr<f32, 1>>
    %125 = tt.load %124 {cache = 1 : i32, evict = 3 : i32, isVolatile = false} : tensor<1x1xf32>
    %126 = tt.addptr %arg125, %0 : !tt.ptr<f32, 1>, i32
    %127 = tt.splat %126 : (!tt.ptr<f32, 1>) -> tensor<1x1x!tt.ptr<f32, 1>>
    %128 = tt.load %127 {cache = 1 : i32, evict = 3 : i32, isVolatile = false} : tensor<1x1xf32>
    %129 = tt.addptr %arg128, %0 : !tt.ptr<f32, 1>, i32
    %130 = tt.splat %129 : (!tt.ptr<f32, 1>) -> tensor<1x1x!tt.ptr<f32, 1>>
    %131 = tt.load %130 {cache = 1 : i32, evict = 3 : i32, isVolatile = false} : tensor<1x1xf32>
    %132 = tt.addptr %arg131, %0 : !tt.ptr<f32, 1>, i32
    %133 = tt.splat %132 : (!tt.ptr<f32, 1>) -> tensor<1x1x!tt.ptr<f32, 1>>
    %134 = tt.load %133 {cache = 1 : i32, evict = 3 : i32, isVolatile = false} : tensor<1x1xf32>
    %135 = tt.addptr %arg134, %0 : !tt.ptr<f32, 1>, i32
    %136 = tt.splat %135 : (!tt.ptr<f32, 1>) -> tensor<1x1x!tt.ptr<f32, 1>>
    %137 = tt.load %136 {cache = 1 : i32, evict = 3 : i32, isVolatile = false} : tensor<1x1xf32>
    %138 = tt.addptr %arg137, %0 : !tt.ptr<f32, 1>, i32
    %139 = tt.splat %138 : (!tt.ptr<f32, 1>) -> tensor<1x1x!tt.ptr<f32, 1>>
    %140 = tt.load %139 {cache = 1 : i32, evict = 3 : i32, isVolatile = false} : tensor<1x1xf32>
    %141 = tt.addptr %arg140, %0 : !tt.ptr<f32, 1>, i32
    %142 = tt.splat %141 : (!tt.ptr<f32, 1>) -> tensor<1x1x!tt.ptr<f32, 1>>
    %143 = tt.load %142 {cache = 1 : i32, evict = 3 : i32, isVolatile = false} : tensor<1x1xf32>
    %144 = tt.addptr %arg143, %0 : !tt.ptr<f32, 1>, i32
    %145 = tt.splat %144 : (!tt.ptr<f32, 1>) -> tensor<1x1x!tt.ptr<f32, 1>>
    %146 = tt.load %145 {cache = 1 : i32, evict = 3 : i32, isVolatile = false} : tensor<1x1xf32>
    %147 = tt.addptr %arg146, %0 : !tt.ptr<f32, 1>, i32
    %148 = tt.splat %147 : (!tt.ptr<f32, 1>) -> tensor<1x1x!tt.ptr<f32, 1>>
    %149 = tt.load %148 {cache = 1 : i32, evict = 3 : i32, isVolatile = false} : tensor<1x1xf32>
    %150 = tt.addptr %arg149, %0 : !tt.ptr<f32, 1>, i32
    %151 = tt.splat %150 : (!tt.ptr<f32, 1>) -> tensor<1x1x!tt.ptr<f32, 1>>
    %152 = tt.load %151 {cache = 1 : i32, evict = 3 : i32, isVolatile = false} : tensor<1x1xf32>
    %153 = tt.addptr %arg152, %0 : !tt.ptr<f32, 1>, i32
    %154 = tt.splat %153 : (!tt.ptr<f32, 1>) -> tensor<1x1x!tt.ptr<f32, 1>>
    %155 = tt.load %154 {cache = 1 : i32, evict = 3 : i32, isVolatile = false} : tensor<1x1xf32>
    %156 = tt.addptr %arg155, %0 : !tt.ptr<f32, 1>, i32
    %157 = tt.splat %156 : (!tt.ptr<f32, 1>) -> tensor<1x1x!tt.ptr<f32, 1>>
    %158 = tt.load %157 {cache = 1 : i32, evict = 3 : i32, isVolatile = false} : tensor<1x1xf32>
    %159 = arith.muli %0, %c2304_i32 : i32
    %160 = tt.splat %159 : (i32) -> tensor<1x2048xi32>
    %161 = tt.splat %arg0 : (!tt.ptr<bf16, 1>) -> tensor<1x2048x!tt.ptr<bf16, 1>>
    %162 = tt.splat %arg2 : (!tt.ptr<f32, 1>) -> tensor<1x2048x!tt.ptr<f32, 1>>
    %163 = tt.splat %arg3 : (!tt.ptr<bf16, 1>) -> tensor<1x2048x!tt.ptr<bf16, 1>>
    %164 = tt.splat %arg5 : (!tt.ptr<f32, 1>) -> tensor<1x2048x!tt.ptr<f32, 1>>
    %165 = tt.splat %arg6 : (!tt.ptr<f32, 1>) -> tensor<1x2048x!tt.ptr<f32, 1>>
    %166 = tt.splat %arg7 : (!tt.ptr<bf16, 1>) -> tensor<1x2048x!tt.ptr<bf16, 1>>
    %167 = tt.splat %arg9 : (!tt.ptr<f32, 1>) -> tensor<1x2048x!tt.ptr<f32, 1>>
    %168 = tt.splat %arg10 : (!tt.ptr<bf16, 1>) -> tensor<1x2048x!tt.ptr<bf16, 1>>
    %169 = tt.splat %arg12 : (!tt.ptr<f32, 1>) -> tensor<1x2048x!tt.ptr<f32, 1>>
    %170 = tt.splat %arg13 : (!tt.ptr<bf16, 1>) -> tensor<1x2048x!tt.ptr<bf16, 1>>
    %171 = tt.splat %arg15 : (!tt.ptr<f32, 1>) -> tensor<1x2048x!tt.ptr<f32, 1>>
    %172 = tt.splat %arg16 : (!tt.ptr<bf16, 1>) -> tensor<1x2048x!tt.ptr<bf16, 1>>
    %173 = tt.splat %arg18 : (!tt.ptr<f32, 1>) -> tensor<1x2048x!tt.ptr<f32, 1>>
    %174 = tt.splat %arg19 : (!tt.ptr<bf16, 1>) -> tensor<1x2048x!tt.ptr<bf16, 1>>
    %175 = tt.splat %arg21 : (!tt.ptr<f32, 1>) -> tensor<1x2048x!tt.ptr<f32, 1>>
    %176 = tt.splat %arg22 : (!tt.ptr<bf16, 1>) -> tensor<1x2048x!tt.ptr<bf16, 1>>
    %177 = tt.splat %arg24 : (!tt.ptr<f32, 1>) -> tensor<1x2048x!tt.ptr<f32, 1>>
    %178 = tt.splat %arg25 : (!tt.ptr<bf16, 1>) -> tensor<1x2048x!tt.ptr<bf16, 1>>
    %179 = tt.splat %arg27 : (!tt.ptr<f32, 1>) -> tensor<1x2048x!tt.ptr<f32, 1>>
    %180 = tt.splat %arg28 : (!tt.ptr<bf16, 1>) -> tensor<1x2048x!tt.ptr<bf16, 1>>
    %181 = tt.splat %arg30 : (!tt.ptr<f32, 1>) -> tensor<1x2048x!tt.ptr<f32, 1>>
    %182 = tt.splat %arg31 : (!tt.ptr<bf16, 1>) -> tensor<1x2048x!tt.ptr<bf16, 1>>
    %183 = tt.splat %arg33 : (!tt.ptr<f32, 1>) -> tensor<1x2048x!tt.ptr<f32, 1>>
    %184 = tt.splat %arg34 : (!tt.ptr<bf16, 1>) -> tensor<1x2048x!tt.ptr<bf16, 1>>
    %185 = tt.splat %arg36 : (!tt.ptr<f32, 1>) -> tensor<1x2048x!tt.ptr<f32, 1>>
    %186 = tt.splat %arg37 : (!tt.ptr<bf16, 1>) -> tensor<1x2048x!tt.ptr<bf16, 1>>
    %187 = tt.splat %arg39 : (!tt.ptr<f32, 1>) -> tensor<1x2048x!tt.ptr<f32, 1>>
    %188 = tt.splat %arg40 : (!tt.ptr<bf16, 1>) -> tensor<1x2048x!tt.ptr<bf16, 1>>
    %189 = tt.splat %arg42 : (!tt.ptr<f32, 1>) -> tensor<1x2048x!tt.ptr<f32, 1>>
    %190 = tt.splat %arg43 : (!tt.ptr<bf16, 1>) -> tensor<1x2048x!tt.ptr<bf16, 1>>
    %191 = tt.splat %arg45 : (!tt.ptr<f32, 1>) -> tensor<1x2048x!tt.ptr<f32, 1>>
    %192 = tt.splat %arg46 : (!tt.ptr<bf16, 1>) -> tensor<1x2048x!tt.ptr<bf16, 1>>
    %193 = tt.splat %arg48 : (!tt.ptr<f32, 1>) -> tensor<1x2048x!tt.ptr<f32, 1>>
    %194 = tt.splat %arg49 : (!tt.ptr<bf16, 1>) -> tensor<1x2048x!tt.ptr<bf16, 1>>
    %195 = tt.splat %arg51 : (!tt.ptr<f32, 1>) -> tensor<1x2048x!tt.ptr<f32, 1>>
    %196 = tt.splat %arg52 : (!tt.ptr<bf16, 1>) -> tensor<1x2048x!tt.ptr<bf16, 1>>
    %197 = tt.splat %arg54 : (!tt.ptr<f32, 1>) -> tensor<1x2048x!tt.ptr<f32, 1>>
    %198 = tt.splat %arg55 : (!tt.ptr<bf16, 1>) -> tensor<1x2048x!tt.ptr<bf16, 1>>
    %199 = tt.splat %arg57 : (!tt.ptr<f32, 1>) -> tensor<1x2048x!tt.ptr<f32, 1>>
    %200 = tt.splat %arg58 : (!tt.ptr<bf16, 1>) -> tensor<1x2048x!tt.ptr<bf16, 1>>
    %201 = tt.splat %arg60 : (!tt.ptr<f32, 1>) -> tensor<1x2048x!tt.ptr<f32, 1>>
    %202 = tt.splat %arg61 : (!tt.ptr<bf16, 1>) -> tensor<1x2048x!tt.ptr<bf16, 1>>
    %203 = tt.splat %arg63 : (!tt.ptr<f32, 1>) -> tensor<1x2048x!tt.ptr<f32, 1>>
    %204 = tt.splat %arg64 : (!tt.ptr<bf16, 1>) -> tensor<1x2048x!tt.ptr<bf16, 1>>
    %205 = tt.splat %arg66 : (!tt.ptr<f32, 1>) -> tensor<1x2048x!tt.ptr<f32, 1>>
    %206 = tt.splat %arg67 : (!tt.ptr<bf16, 1>) -> tensor<1x2048x!tt.ptr<bf16, 1>>
    %207 = tt.splat %arg69 : (!tt.ptr<f32, 1>) -> tensor<1x2048x!tt.ptr<f32, 1>>
    %208 = tt.splat %arg70 : (!tt.ptr<bf16, 1>) -> tensor<1x2048x!tt.ptr<bf16, 1>>
    %209 = tt.splat %arg72 : (!tt.ptr<f32, 1>) -> tensor<1x2048x!tt.ptr<f32, 1>>
    %210 = tt.splat %arg73 : (!tt.ptr<bf16, 1>) -> tensor<1x2048x!tt.ptr<bf16, 1>>
    %211 = tt.splat %arg75 : (!tt.ptr<f32, 1>) -> tensor<1x2048x!tt.ptr<f32, 1>>
    %212 = tt.splat %arg76 : (!tt.ptr<bf16, 1>) -> tensor<1x2048x!tt.ptr<bf16, 1>>
    %213 = tt.splat %arg78 : (!tt.ptr<f32, 1>) -> tensor<1x2048x!tt.ptr<f32, 1>>
    %214 = tt.splat %arg79 : (!tt.ptr<bf16, 1>) -> tensor<1x2048x!tt.ptr<bf16, 1>>
    %215 = tt.splat %arg81 : (!tt.ptr<f32, 1>) -> tensor<1x2048x!tt.ptr<f32, 1>>
    %216 = tt.splat %arg82 : (!tt.ptr<bf16, 1>) -> tensor<1x2048x!tt.ptr<bf16, 1>>
    %217 = tt.splat %arg84 : (!tt.ptr<f32, 1>) -> tensor<1x2048x!tt.ptr<f32, 1>>
    %218 = tt.splat %arg85 : (!tt.ptr<bf16, 1>) -> tensor<1x2048x!tt.ptr<bf16, 1>>
    %219 = tt.splat %arg87 : (!tt.ptr<f32, 1>) -> tensor<1x2048x!tt.ptr<f32, 1>>
    %220 = tt.splat %arg88 : (!tt.ptr<bf16, 1>) -> tensor<1x2048x!tt.ptr<bf16, 1>>
    %221 = tt.splat %arg90 : (!tt.ptr<f32, 1>) -> tensor<1x2048x!tt.ptr<f32, 1>>
    %222 = tt.splat %arg91 : (!tt.ptr<bf16, 1>) -> tensor<1x2048x!tt.ptr<bf16, 1>>
    %223 = tt.splat %arg93 : (!tt.ptr<f32, 1>) -> tensor<1x2048x!tt.ptr<f32, 1>>
    %224 = tt.splat %arg94 : (!tt.ptr<bf16, 1>) -> tensor<1x2048x!tt.ptr<bf16, 1>>
    %225 = tt.splat %arg96 : (!tt.ptr<f32, 1>) -> tensor<1x2048x!tt.ptr<f32, 1>>
    %226 = tt.splat %arg97 : (!tt.ptr<bf16, 1>) -> tensor<1x2048x!tt.ptr<bf16, 1>>
    %227 = tt.splat %arg99 : (!tt.ptr<f32, 1>) -> tensor<1x2048x!tt.ptr<f32, 1>>
    %228 = tt.splat %arg100 : (!tt.ptr<bf16, 1>) -> tensor<1x2048x!tt.ptr<bf16, 1>>
    %229 = tt.splat %arg102 : (!tt.ptr<f32, 1>) -> tensor<1x2048x!tt.ptr<f32, 1>>
    %230 = tt.splat %arg103 : (!tt.ptr<bf16, 1>) -> tensor<1x2048x!tt.ptr<bf16, 1>>
    %231 = tt.splat %arg105 : (!tt.ptr<f32, 1>) -> tensor<1x2048x!tt.ptr<f32, 1>>
    %232 = tt.splat %arg106 : (!tt.ptr<bf16, 1>) -> tensor<1x2048x!tt.ptr<bf16, 1>>
    %233 = tt.splat %arg108 : (!tt.ptr<f32, 1>) -> tensor<1x2048x!tt.ptr<f32, 1>>
    %234 = tt.splat %arg109 : (!tt.ptr<bf16, 1>) -> tensor<1x2048x!tt.ptr<bf16, 1>>
    %235 = tt.splat %arg111 : (!tt.ptr<f32, 1>) -> tensor<1x2048x!tt.ptr<f32, 1>>
    %236 = tt.splat %arg112 : (!tt.ptr<bf16, 1>) -> tensor<1x2048x!tt.ptr<bf16, 1>>
    %237 = tt.splat %arg114 : (!tt.ptr<f32, 1>) -> tensor<1x2048x!tt.ptr<f32, 1>>
    %238 = tt.splat %arg115 : (!tt.ptr<bf16, 1>) -> tensor<1x2048x!tt.ptr<bf16, 1>>
    %239 = tt.splat %arg117 : (!tt.ptr<f32, 1>) -> tensor<1x2048x!tt.ptr<f32, 1>>
    %240 = tt.splat %arg118 : (!tt.ptr<bf16, 1>) -> tensor<1x2048x!tt.ptr<bf16, 1>>
    %241 = tt.splat %arg120 : (!tt.ptr<f32, 1>) -> tensor<1x2048x!tt.ptr<f32, 1>>
    %242 = tt.splat %arg121 : (!tt.ptr<bf16, 1>) -> tensor<1x2048x!tt.ptr<bf16, 1>>
    %243 = tt.splat %arg123 : (!tt.ptr<f32, 1>) -> tensor<1x2048x!tt.ptr<f32, 1>>
    %244 = tt.splat %arg124 : (!tt.ptr<bf16, 1>) -> tensor<1x2048x!tt.ptr<bf16, 1>>
    %245 = tt.splat %arg126 : (!tt.ptr<f32, 1>) -> tensor<1x2048x!tt.ptr<f32, 1>>
    %246 = tt.splat %arg127 : (!tt.ptr<bf16, 1>) -> tensor<1x2048x!tt.ptr<bf16, 1>>
    %247 = tt.splat %arg129 : (!tt.ptr<f32, 1>) -> tensor<1x2048x!tt.ptr<f32, 1>>
    %248 = tt.splat %arg130 : (!tt.ptr<bf16, 1>) -> tensor<1x2048x!tt.ptr<bf16, 1>>
    %249 = tt.splat %arg132 : (!tt.ptr<f32, 1>) -> tensor<1x2048x!tt.ptr<f32, 1>>
    %250 = tt.splat %arg133 : (!tt.ptr<bf16, 1>) -> tensor<1x2048x!tt.ptr<bf16, 1>>
    %251 = tt.splat %arg135 : (!tt.ptr<f32, 1>) -> tensor<1x2048x!tt.ptr<f32, 1>>
    %252 = tt.splat %arg136 : (!tt.ptr<bf16, 1>) -> tensor<1x2048x!tt.ptr<bf16, 1>>
    %253 = tt.splat %arg138 : (!tt.ptr<f32, 1>) -> tensor<1x2048x!tt.ptr<f32, 1>>
    %254 = tt.splat %arg139 : (!tt.ptr<bf16, 1>) -> tensor<1x2048x!tt.ptr<bf16, 1>>
    %255 = tt.splat %arg141 : (!tt.ptr<f32, 1>) -> tensor<1x2048x!tt.ptr<f32, 1>>
    %256 = tt.splat %arg142 : (!tt.ptr<bf16, 1>) -> tensor<1x2048x!tt.ptr<bf16, 1>>
    %257 = tt.splat %arg144 : (!tt.ptr<f32, 1>) -> tensor<1x2048x!tt.ptr<f32, 1>>
    %258 = tt.splat %arg145 : (!tt.ptr<bf16, 1>) -> tensor<1x2048x!tt.ptr<bf16, 1>>
    %259 = tt.splat %arg147 : (!tt.ptr<f32, 1>) -> tensor<1x2048x!tt.ptr<f32, 1>>
    %260 = tt.splat %arg148 : (!tt.ptr<bf16, 1>) -> tensor<1x2048x!tt.ptr<bf16, 1>>
    %261 = tt.splat %arg150 : (!tt.ptr<f32, 1>) -> tensor<1x2048x!tt.ptr<f32, 1>>
    %262 = tt.splat %arg151 : (!tt.ptr<bf16, 1>) -> tensor<1x2048x!tt.ptr<bf16, 1>>
    %263 = tt.splat %arg153 : (!tt.ptr<f32, 1>) -> tensor<1x2048x!tt.ptr<f32, 1>>
    %264 = tt.splat %arg154 : (!tt.ptr<bf16, 1>) -> tensor<1x2048x!tt.ptr<bf16, 1>>
    %265 = tt.splat %arg156 : (!tt.ptr<f32, 1>) -> tensor<1x2048x!tt.ptr<f32, 1>>
    %266 = tt.splat %arg157 : (!tt.ptr<bf16, 1>) -> tensor<1x2048x!tt.ptr<bf16, 1>>
    %267 = tt.splat %arg158 : (!tt.ptr<f32, 1>) -> tensor<1x2048x!tt.ptr<f32, 1>>
    %268 = tt.broadcast %5 : (tensor<1x1xf32>) -> tensor<1x2048xf32>
    %269 = tt.broadcast %8 : (tensor<1x1xf32>) -> tensor<1x2048xf32>
    %270 = tt.broadcast %11 : (tensor<1x1xf32>) -> tensor<1x2048xf32>
    %271 = tt.broadcast %14 : (tensor<1x1xf32>) -> tensor<1x2048xf32>
    %272 = tt.broadcast %17 : (tensor<1x1xf32>) -> tensor<1x2048xf32>
    %273 = tt.broadcast %20 : (tensor<1x1xf32>) -> tensor<1x2048xf32>
    %274 = tt.broadcast %23 : (tensor<1x1xf32>) -> tensor<1x2048xf32>
    %275 = tt.broadcast %26 : (tensor<1x1xf32>) -> tensor<1x2048xf32>
    %276 = tt.broadcast %29 : (tensor<1x1xf32>) -> tensor<1x2048xf32>
    %277 = tt.broadcast %32 : (tensor<1x1xf32>) -> tensor<1x2048xf32>
    %278 = tt.broadcast %35 : (tensor<1x1xf32>) -> tensor<1x2048xf32>
    %279 = tt.broadcast %38 : (tensor<1x1xf32>) -> tensor<1x2048xf32>
    %280 = tt.broadcast %41 : (tensor<1x1xf32>) -> tensor<1x2048xf32>
    %281 = tt.broadcast %44 : (tensor<1x1xf32>) -> tensor<1x2048xf32>
    %282 = tt.broadcast %47 : (tensor<1x1xf32>) -> tensor<1x2048xf32>
    %283 = tt.broadcast %50 : (tensor<1x1xf32>) -> tensor<1x2048xf32>
    %284 = tt.broadcast %53 : (tensor<1x1xf32>) -> tensor<1x2048xf32>
    %285 = tt.broadcast %56 : (tensor<1x1xf32>) -> tensor<1x2048xf32>
    %286 = tt.broadcast %59 : (tensor<1x1xf32>) -> tensor<1x2048xf32>
    %287 = tt.broadcast %62 : (tensor<1x1xf32>) -> tensor<1x2048xf32>
    %288 = tt.broadcast %65 : (tensor<1x1xf32>) -> tensor<1x2048xf32>
    %289 = tt.broadcast %68 : (tensor<1x1xf32>) -> tensor<1x2048xf32>
    %290 = tt.broadcast %71 : (tensor<1x1xf32>) -> tensor<1x2048xf32>
    %291 = tt.broadcast %74 : (tensor<1x1xf32>) -> tensor<1x2048xf32>
    %292 = tt.broadcast %77 : (tensor<1x1xf32>) -> tensor<1x2048xf32>
    %293 = tt.broadcast %80 : (tensor<1x1xf32>) -> tensor<1x2048xf32>
    %294 = tt.broadcast %83 : (tensor<1x1xf32>) -> tensor<1x2048xf32>
    %295 = tt.broadcast %86 : (tensor<1x1xf32>) -> tensor<1x2048xf32>
    %296 = tt.broadcast %89 : (tensor<1x1xf32>) -> tensor<1x2048xf32>
    %297 = tt.broadcast %92 : (tensor<1x1xf32>) -> tensor<1x2048xf32>
    %298 = tt.broadcast %95 : (tensor<1x1xf32>) -> tensor<1x2048xf32>
    %299 = tt.broadcast %98 : (tensor<1x1xf32>) -> tensor<1x2048xf32>
    %300 = tt.broadcast %101 : (tensor<1x1xf32>) -> tensor<1x2048xf32>
    %301 = tt.broadcast %104 : (tensor<1x1xf32>) -> tensor<1x2048xf32>
    %302 = tt.broadcast %107 : (tensor<1x1xf32>) -> tensor<1x2048xf32>
    %303 = tt.broadcast %110 : (tensor<1x1xf32>) -> tensor<1x2048xf32>
    %304 = tt.broadcast %113 : (tensor<1x1xf32>) -> tensor<1x2048xf32>
    %305 = tt.broadcast %116 : (tensor<1x1xf32>) -> tensor<1x2048xf32>
    %306 = tt.broadcast %119 : (tensor<1x1xf32>) -> tensor<1x2048xf32>
    %307 = tt.broadcast %122 : (tensor<1x1xf32>) -> tensor<1x2048xf32>
    %308 = tt.broadcast %125 : (tensor<1x1xf32>) -> tensor<1x2048xf32>
    %309 = tt.broadcast %128 : (tensor<1x1xf32>) -> tensor<1x2048xf32>
    %310 = tt.broadcast %131 : (tensor<1x1xf32>) -> tensor<1x2048xf32>
    %311 = tt.broadcast %134 : (tensor<1x1xf32>) -> tensor<1x2048xf32>
    %312 = tt.broadcast %137 : (tensor<1x1xf32>) -> tensor<1x2048xf32>
    %313 = tt.broadcast %140 : (tensor<1x1xf32>) -> tensor<1x2048xf32>
    %314 = tt.broadcast %143 : (tensor<1x1xf32>) -> tensor<1x2048xf32>
    %315 = tt.broadcast %146 : (tensor<1x1xf32>) -> tensor<1x2048xf32>
    %316 = tt.broadcast %149 : (tensor<1x1xf32>) -> tensor<1x2048xf32>
    %317 = tt.broadcast %152 : (tensor<1x1xf32>) -> tensor<1x2048xf32>
    %318 = tt.broadcast %155 : (tensor<1x1xf32>) -> tensor<1x2048xf32>
    %319 = tt.broadcast %158 : (tensor<1x1xf32>) -> tensor<1x2048xf32>
    %320 = tt.splat %arg160 : (!tt.ptr<f32, 1>) -> tensor<1x2048x!tt.ptr<f32, 1>>
    %321 = tt.splat %arg161 : (!tt.ptr<f32, 1>) -> tensor<1x2048x!tt.ptr<f32, 1>>
    %322 = tt.splat %arg162 : (!tt.ptr<f32, 1>) -> tensor<1x2048x!tt.ptr<f32, 1>>
    %323 = tt.splat %arg163 : (!tt.ptr<f32, 1>) -> tensor<1x2048x!tt.ptr<f32, 1>>
    %324 = tt.splat %arg164 : (!tt.ptr<f32, 1>) -> tensor<1x2048x!tt.ptr<f32, 1>>
    %325 = tt.splat %arg165 : (!tt.ptr<f32, 1>) -> tensor<1x2048x!tt.ptr<f32, 1>>
    %326 = tt.splat %arg166 : (!tt.ptr<f32, 1>) -> tensor<1x2048x!tt.ptr<f32, 1>>
    %327 = tt.splat %arg167 : (!tt.ptr<f32, 1>) -> tensor<1x2048x!tt.ptr<f32, 1>>
    %328 = tt.splat %arg168 : (!tt.ptr<f32, 1>) -> tensor<1x2048x!tt.ptr<f32, 1>>
    %329 = tt.splat %arg169 : (!tt.ptr<f32, 1>) -> tensor<1x2048x!tt.ptr<f32, 1>>
    %330 = tt.splat %arg170 : (!tt.ptr<f32, 1>) -> tensor<1x2048x!tt.ptr<f32, 1>>
    %331 = tt.splat %arg171 : (!tt.ptr<f32, 1>) -> tensor<1x2048x!tt.ptr<f32, 1>>
    %332 = tt.splat %arg172 : (!tt.ptr<f32, 1>) -> tensor<1x2048x!tt.ptr<f32, 1>>
    %333 = tt.splat %arg173 : (!tt.ptr<f32, 1>) -> tensor<1x2048x!tt.ptr<f32, 1>>
    %334 = tt.splat %arg174 : (!tt.ptr<f32, 1>) -> tensor<1x2048x!tt.ptr<f32, 1>>
    %335 = tt.splat %arg175 : (!tt.ptr<f32, 1>) -> tensor<1x2048x!tt.ptr<f32, 1>>
    %336 = tt.splat %arg176 : (!tt.ptr<f32, 1>) -> tensor<1x2048x!tt.ptr<f32, 1>>
    %337 = tt.splat %arg177 : (!tt.ptr<f32, 1>) -> tensor<1x2048x!tt.ptr<f32, 1>>
    %338 = tt.splat %arg178 : (!tt.ptr<f32, 1>) -> tensor<1x2048x!tt.ptr<f32, 1>>
    %339 = tt.splat %arg179 : (!tt.ptr<f32, 1>) -> tensor<1x2048x!tt.ptr<f32, 1>>
    %340 = tt.splat %arg180 : (!tt.ptr<f32, 1>) -> tensor<1x2048x!tt.ptr<f32, 1>>
    %341 = tt.splat %arg181 : (!tt.ptr<f32, 1>) -> tensor<1x2048x!tt.ptr<f32, 1>>
    %342 = tt.splat %arg182 : (!tt.ptr<f32, 1>) -> tensor<1x2048x!tt.ptr<f32, 1>>
    %343 = tt.splat %arg183 : (!tt.ptr<f32, 1>) -> tensor<1x2048x!tt.ptr<f32, 1>>
    %344 = tt.splat %arg184 : (!tt.ptr<f32, 1>) -> tensor<1x2048x!tt.ptr<f32, 1>>
    %345 = tt.splat %arg185 : (!tt.ptr<f32, 1>) -> tensor<1x2048x!tt.ptr<f32, 1>>
    %346 = scf.for %arg190 = %c0_i32 to %c2304_i32 step %c2048_i32 iter_args(%arg191 = %cst_5) -> (tensor<1x2048xf32>)  : i32 {
      %383 = tt.splat %arg190 : (i32) -> tensor<1x2048xi32>
      %384 = arith.addi %383, %2 : tensor<1x2048xi32>
      %385 = arith.cmpi slt, %384, %cst_4 : tensor<1x2048xi32>
      %386 = arith.addi %384, %160 : tensor<1x2048xi32>
      %387 = tt.addptr %161, %386 : tensor<1x2048x!tt.ptr<bf16, 1>>, tensor<1x2048xi32>
      %388 = tt.load %387, %385, %cst {cache = 1 : i32, evict = 2 : i32, isVolatile = false} : tensor<1x2048xbf16>
      %389 = arith.extf %388 : tensor<1x2048xbf16> to tensor<1x2048xf32>
      %390 = tt.addptr %162, %384 : tensor<1x2048x!tt.ptr<f32, 1>>, tensor<1x2048xi32>
      %391 = tt.load %390, %385, %cst_5 {cache = 1 : i32, evict = 3 : i32, isVolatile = false} : tensor<1x2048xf32>
      %392 = tt.addptr %163, %386 : tensor<1x2048x!tt.ptr<bf16, 1>>, tensor<1x2048xi32>
      %393 = tt.load %392, %385, %cst {cache = 1 : i32, evict = 2 : i32, isVolatile = false} : tensor<1x2048xbf16>
      %394 = arith.extf %393 : tensor<1x2048xbf16> to tensor<1x2048xf32>
      %395 = tt.addptr %164, %384 : tensor<1x2048x!tt.ptr<f32, 1>>, tensor<1x2048xi32>
      %396 = tt.load %395, %385, %cst_5 {cache = 1 : i32, evict = 3 : i32, isVolatile = false} : tensor<1x2048xf32>
      %397 = tt.addptr %165, %386 : tensor<1x2048x!tt.ptr<f32, 1>>, tensor<1x2048xi32>
      %398 = tt.load %397, %385, %cst_5 {cache = 1 : i32, evict = 2 : i32, isVolatile = false} : tensor<1x2048xf32>
      %399 = tt.addptr %166, %386 : tensor<1x2048x!tt.ptr<bf16, 1>>, tensor<1x2048xi32>
      %400 = tt.load %399, %385, %cst {cache = 1 : i32, evict = 2 : i32, isVolatile = false} : tensor<1x2048xbf16>
      %401 = arith.extf %400 : tensor<1x2048xbf16> to tensor<1x2048xf32>
      %402 = tt.addptr %167, %384 : tensor<1x2048x!tt.ptr<f32, 1>>, tensor<1x2048xi32>
      %403 = tt.load %402, %385, %cst_5 {cache = 1 : i32, evict = 3 : i32, isVolatile = false} : tensor<1x2048xf32>
      %404 = tt.addptr %168, %386 : tensor<1x2048x!tt.ptr<bf16, 1>>, tensor<1x2048xi32>
      %405 = tt.load %404, %385, %cst {cache = 1 : i32, evict = 2 : i32, isVolatile = false} : tensor<1x2048xbf16>
      %406 = arith.extf %405 : tensor<1x2048xbf16> to tensor<1x2048xf32>
      %407 = tt.addptr %169, %384 : tensor<1x2048x!tt.ptr<f32, 1>>, tensor<1x2048xi32>
      %408 = tt.load %407, %385, %cst_5 {cache = 1 : i32, evict = 3 : i32, isVolatile = false} : tensor<1x2048xf32>
      %409 = tt.addptr %170, %386 : tensor<1x2048x!tt.ptr<bf16, 1>>, tensor<1x2048xi32>
      %410 = tt.load %409, %385, %cst {cache = 1 : i32, evict = 2 : i32, isVolatile = false} : tensor<1x2048xbf16>
      %411 = arith.extf %410 : tensor<1x2048xbf16> to tensor<1x2048xf32>
      %412 = tt.addptr %171, %384 : tensor<1x2048x!tt.ptr<f32, 1>>, tensor<1x2048xi32>
      %413 = tt.load %412, %385, %cst_5 {cache = 1 : i32, evict = 3 : i32, isVolatile = false} : tensor<1x2048xf32>
      %414 = tt.addptr %172, %386 : tensor<1x2048x!tt.ptr<bf16, 1>>, tensor<1x2048xi32>
      %415 = tt.load %414, %385, %cst {cache = 1 : i32, evict = 2 : i32, isVolatile = false} : tensor<1x2048xbf16>
      %416 = arith.extf %415 : tensor<1x2048xbf16> to tensor<1x2048xf32>
      %417 = tt.addptr %173, %384 : tensor<1x2048x!tt.ptr<f32, 1>>, tensor<1x2048xi32>
      %418 = tt.load %417, %385, %cst_5 {cache = 1 : i32, evict = 3 : i32, isVolatile = false} : tensor<1x2048xf32>
      %419 = tt.addptr %174, %386 : tensor<1x2048x!tt.ptr<bf16, 1>>, tensor<1x2048xi32>
      %420 = tt.load %419, %385, %cst {cache = 1 : i32, evict = 2 : i32, isVolatile = false} : tensor<1x2048xbf16>
      %421 = arith.extf %420 : tensor<1x2048xbf16> to tensor<1x2048xf32>
      %422 = tt.addptr %175, %384 : tensor<1x2048x!tt.ptr<f32, 1>>, tensor<1x2048xi32>
      %423 = tt.load %422, %385, %cst_5 {cache = 1 : i32, evict = 3 : i32, isVolatile = false} : tensor<1x2048xf32>
      %424 = tt.addptr %176, %386 : tensor<1x2048x!tt.ptr<bf16, 1>>, tensor<1x2048xi32>
      %425 = tt.load %424, %385, %cst {cache = 1 : i32, evict = 2 : i32, isVolatile = false} : tensor<1x2048xbf16>
      %426 = arith.extf %425 : tensor<1x2048xbf16> to tensor<1x2048xf32>
      %427 = tt.addptr %177, %384 : tensor<1x2048x!tt.ptr<f32, 1>>, tensor<1x2048xi32>
      %428 = tt.load %427, %385, %cst_5 {cache = 1 : i32, evict = 3 : i32, isVolatile = false} : tensor<1x2048xf32>
      %429 = tt.addptr %178, %386 : tensor<1x2048x!tt.ptr<bf16, 1>>, tensor<1x2048xi32>
      %430 = tt.load %429, %385, %cst {cache = 1 : i32, evict = 2 : i32, isVolatile = false} : tensor<1x2048xbf16>
      %431 = arith.extf %430 : tensor<1x2048xbf16> to tensor<1x2048xf32>
      %432 = tt.addptr %179, %384 : tensor<1x2048x!tt.ptr<f32, 1>>, tensor<1x2048xi32>
      %433 = tt.load %432, %385, %cst_5 {cache = 1 : i32, evict = 3 : i32, isVolatile = false} : tensor<1x2048xf32>
      %434 = tt.addptr %180, %386 : tensor<1x2048x!tt.ptr<bf16, 1>>, tensor<1x2048xi32>
      %435 = tt.load %434, %385, %cst {cache = 1 : i32, evict = 2 : i32, isVolatile = false} : tensor<1x2048xbf16>
      %436 = arith.extf %435 : tensor<1x2048xbf16> to tensor<1x2048xf32>
      %437 = tt.addptr %181, %384 : tensor<1x2048x!tt.ptr<f32, 1>>, tensor<1x2048xi32>
      %438 = tt.load %437, %385, %cst_5 {cache = 1 : i32, evict = 3 : i32, isVolatile = false} : tensor<1x2048xf32>
      %439 = tt.addptr %182, %386 : tensor<1x2048x!tt.ptr<bf16, 1>>, tensor<1x2048xi32>
      %440 = tt.load %439, %385, %cst {cache = 1 : i32, evict = 2 : i32, isVolatile = false} : tensor<1x2048xbf16>
      %441 = arith.extf %440 : tensor<1x2048xbf16> to tensor<1x2048xf32>
      %442 = tt.addptr %183, %384 : tensor<1x2048x!tt.ptr<f32, 1>>, tensor<1x2048xi32>
      %443 = tt.load %442, %385, %cst_5 {cache = 1 : i32, evict = 3 : i32, isVolatile = false} : tensor<1x2048xf32>
      %444 = tt.addptr %184, %386 : tensor<1x2048x!tt.ptr<bf16, 1>>, tensor<1x2048xi32>
      %445 = tt.load %444, %385, %cst {cache = 1 : i32, evict = 2 : i32, isVolatile = false} : tensor<1x2048xbf16>
      %446 = arith.extf %445 : tensor<1x2048xbf16> to tensor<1x2048xf32>
      %447 = tt.addptr %185, %384 : tensor<1x2048x!tt.ptr<f32, 1>>, tensor<1x2048xi32>
      %448 = tt.load %447, %385, %cst_5 {cache = 1 : i32, evict = 3 : i32, isVolatile = false} : tensor<1x2048xf32>
      %449 = tt.addptr %186, %386 : tensor<1x2048x!tt.ptr<bf16, 1>>, tensor<1x2048xi32>
      %450 = tt.load %449, %385, %cst {cache = 1 : i32, evict = 2 : i32, isVolatile = false} : tensor<1x2048xbf16>
      %451 = arith.extf %450 : tensor<1x2048xbf16> to tensor<1x2048xf32>
      %452 = tt.addptr %187, %384 : tensor<1x2048x!tt.ptr<f32, 1>>, tensor<1x2048xi32>
      %453 = tt.load %452, %385, %cst_5 {cache = 1 : i32, evict = 3 : i32, isVolatile = false} : tensor<1x2048xf32>
      %454 = tt.addptr %188, %386 : tensor<1x2048x!tt.ptr<bf16, 1>>, tensor<1x2048xi32>
      %455 = tt.load %454, %385, %cst {cache = 1 : i32, evict = 2 : i32, isVolatile = false} : tensor<1x2048xbf16>
      %456 = arith.extf %455 : tensor<1x2048xbf16> to tensor<1x2048xf32>
      %457 = tt.addptr %189, %384 : tensor<1x2048x!tt.ptr<f32, 1>>, tensor<1x2048xi32>
      %458 = tt.load %457, %385, %cst_5 {cache = 1 : i32, evict = 3 : i32, isVolatile = false} : tensor<1x2048xf32>
      %459 = tt.addptr %190, %386 : tensor<1x2048x!tt.ptr<bf16, 1>>, tensor<1x2048xi32>
      %460 = tt.load %459, %385, %cst {cache = 1 : i32, evict = 2 : i32, isVolatile = false} : tensor<1x2048xbf16>
      %461 = arith.extf %460 : tensor<1x2048xbf16> to tensor<1x2048xf32>
      %462 = tt.addptr %191, %384 : tensor<1x2048x!tt.ptr<f32, 1>>, tensor<1x2048xi32>
      %463 = tt.load %462, %385, %cst_5 {cache = 1 : i32, evict = 3 : i32, isVolatile = false} : tensor<1x2048xf32>
      %464 = tt.addptr %192, %386 : tensor<1x2048x!tt.ptr<bf16, 1>>, tensor<1x2048xi32>
      %465 = tt.load %464, %385, %cst {cache = 1 : i32, evict = 2 : i32, isVolatile = false} : tensor<1x2048xbf16>
      %466 = arith.extf %465 : tensor<1x2048xbf16> to tensor<1x2048xf32>
      %467 = tt.addptr %193, %384 : tensor<1x2048x!tt.ptr<f32, 1>>, tensor<1x2048xi32>
      %468 = tt.load %467, %385, %cst_5 {cache = 1 : i32, evict = 3 : i32, isVolatile = false} : tensor<1x2048xf32>
      %469 = tt.addptr %194, %386 : tensor<1x2048x!tt.ptr<bf16, 1>>, tensor<1x2048xi32>
      %470 = tt.load %469, %385, %cst {cache = 1 : i32, evict = 2 : i32, isVolatile = false} : tensor<1x2048xbf16>
      %471 = arith.extf %470 : tensor<1x2048xbf16> to tensor<1x2048xf32>
      %472 = tt.addptr %195, %384 : tensor<1x2048x!tt.ptr<f32, 1>>, tensor<1x2048xi32>
      %473 = tt.load %472, %385, %cst_5 {cache = 1 : i32, evict = 3 : i32, isVolatile = false} : tensor<1x2048xf32>
      %474 = tt.addptr %196, %386 : tensor<1x2048x!tt.ptr<bf16, 1>>, tensor<1x2048xi32>
      %475 = tt.load %474, %385, %cst {cache = 1 : i32, evict = 2 : i32, isVolatile = false} : tensor<1x2048xbf16>
      %476 = arith.extf %475 : tensor<1x2048xbf16> to tensor<1x2048xf32>
      %477 = tt.addptr %197, %384 : tensor<1x2048x!tt.ptr<f32, 1>>, tensor<1x2048xi32>
      %478 = tt.load %477, %385, %cst_5 {cache = 1 : i32, evict = 3 : i32, isVolatile = false} : tensor<1x2048xf32>
      %479 = tt.addptr %198, %386 : tensor<1x2048x!tt.ptr<bf16, 1>>, tensor<1x2048xi32>
      %480 = tt.load %479, %385, %cst {cache = 1 : i32, evict = 2 : i32, isVolatile = false} : tensor<1x2048xbf16>
      %481 = arith.extf %480 : tensor<1x2048xbf16> to tensor<1x2048xf32>
      %482 = tt.addptr %199, %384 : tensor<1x2048x!tt.ptr<f32, 1>>, tensor<1x2048xi32>
      %483 = tt.load %482, %385, %cst_5 {cache = 1 : i32, evict = 3 : i32, isVolatile = false} : tensor<1x2048xf32>
      %484 = tt.addptr %200, %386 : tensor<1x2048x!tt.ptr<bf16, 1>>, tensor<1x2048xi32>
      %485 = tt.load %484, %385, %cst {cache = 1 : i32, evict = 2 : i32, isVolatile = false} : tensor<1x2048xbf16>
      %486 = arith.extf %485 : tensor<1x2048xbf16> to tensor<1x2048xf32>
      %487 = tt.addptr %201, %384 : tensor<1x2048x!tt.ptr<f32, 1>>, tensor<1x2048xi32>
      %488 = tt.load %487, %385, %cst_5 {cache = 1 : i32, evict = 3 : i32, isVolatile = false} : tensor<1x2048xf32>
      %489 = tt.addptr %202, %386 : tensor<1x2048x!tt.ptr<bf16, 1>>, tensor<1x2048xi32>
      %490 = tt.load %489, %385, %cst {cache = 1 : i32, evict = 2 : i32, isVolatile = false} : tensor<1x2048xbf16>
      %491 = arith.extf %490 : tensor<1x2048xbf16> to tensor<1x2048xf32>
      %492 = tt.addptr %203, %384 : tensor<1x2048x!tt.ptr<f32, 1>>, tensor<1x2048xi32>
      %493 = tt.load %492, %385, %cst_5 {cache = 1 : i32, evict = 3 : i32, isVolatile = false} : tensor<1x2048xf32>
      %494 = tt.addptr %204, %386 : tensor<1x2048x!tt.ptr<bf16, 1>>, tensor<1x2048xi32>
      %495 = tt.load %494, %385, %cst {cache = 1 : i32, evict = 2 : i32, isVolatile = false} : tensor<1x2048xbf16>
      %496 = arith.extf %495 : tensor<1x2048xbf16> to tensor<1x2048xf32>
      %497 = tt.addptr %205, %384 : tensor<1x2048x!tt.ptr<f32, 1>>, tensor<1x2048xi32>
      %498 = tt.load %497, %385, %cst_5 {cache = 1 : i32, evict = 3 : i32, isVolatile = false} : tensor<1x2048xf32>
      %499 = tt.addptr %206, %386 : tensor<1x2048x!tt.ptr<bf16, 1>>, tensor<1x2048xi32>
      %500 = tt.load %499, %385, %cst {cache = 1 : i32, evict = 2 : i32, isVolatile = false} : tensor<1x2048xbf16>
      %501 = arith.extf %500 : tensor<1x2048xbf16> to tensor<1x2048xf32>
      %502 = tt.addptr %207, %384 : tensor<1x2048x!tt.ptr<f32, 1>>, tensor<1x2048xi32>
      %503 = tt.load %502, %385, %cst_5 {cache = 1 : i32, evict = 3 : i32, isVolatile = false} : tensor<1x2048xf32>
      %504 = tt.addptr %208, %386 : tensor<1x2048x!tt.ptr<bf16, 1>>, tensor<1x2048xi32>
      %505 = tt.load %504, %385, %cst {cache = 1 : i32, evict = 2 : i32, isVolatile = false} : tensor<1x2048xbf16>
      %506 = arith.extf %505 : tensor<1x2048xbf16> to tensor<1x2048xf32>
      %507 = tt.addptr %209, %384 : tensor<1x2048x!tt.ptr<f32, 1>>, tensor<1x2048xi32>
      %508 = tt.load %507, %385, %cst_5 {cache = 1 : i32, evict = 3 : i32, isVolatile = false} : tensor<1x2048xf32>
      %509 = tt.addptr %210, %386 : tensor<1x2048x!tt.ptr<bf16, 1>>, tensor<1x2048xi32>
      %510 = tt.load %509, %385, %cst {cache = 1 : i32, evict = 2 : i32, isVolatile = false} : tensor<1x2048xbf16>
      %511 = arith.extf %510 : tensor<1x2048xbf16> to tensor<1x2048xf32>
      %512 = tt.addptr %211, %384 : tensor<1x2048x!tt.ptr<f32, 1>>, tensor<1x2048xi32>
      %513 = tt.load %512, %385, %cst_5 {cache = 1 : i32, evict = 3 : i32, isVolatile = false} : tensor<1x2048xf32>
      %514 = tt.addptr %212, %386 : tensor<1x2048x!tt.ptr<bf16, 1>>, tensor<1x2048xi32>
      %515 = tt.load %514, %385, %cst {cache = 1 : i32, evict = 2 : i32, isVolatile = false} : tensor<1x2048xbf16>
      %516 = arith.extf %515 : tensor<1x2048xbf16> to tensor<1x2048xf32>
      %517 = tt.addptr %213, %384 : tensor<1x2048x!tt.ptr<f32, 1>>, tensor<1x2048xi32>
      %518 = tt.load %517, %385, %cst_5 {cache = 1 : i32, evict = 3 : i32, isVolatile = false} : tensor<1x2048xf32>
      %519 = tt.addptr %214, %386 : tensor<1x2048x!tt.ptr<bf16, 1>>, tensor<1x2048xi32>
      %520 = tt.load %519, %385, %cst {cache = 1 : i32, evict = 2 : i32, isVolatile = false} : tensor<1x2048xbf16>
      %521 = arith.extf %520 : tensor<1x2048xbf16> to tensor<1x2048xf32>
      %522 = tt.addptr %215, %384 : tensor<1x2048x!tt.ptr<f32, 1>>, tensor<1x2048xi32>
      %523 = tt.load %522, %385, %cst_5 {cache = 1 : i32, evict = 3 : i32, isVolatile = false} : tensor<1x2048xf32>
      %524 = tt.addptr %216, %386 : tensor<1x2048x!tt.ptr<bf16, 1>>, tensor<1x2048xi32>
      %525 = tt.load %524, %385, %cst {cache = 1 : i32, evict = 2 : i32, isVolatile = false} : tensor<1x2048xbf16>
      %526 = arith.extf %525 : tensor<1x2048xbf16> to tensor<1x2048xf32>
      %527 = tt.addptr %217, %384 : tensor<1x2048x!tt.ptr<f32, 1>>, tensor<1x2048xi32>
      %528 = tt.load %527, %385, %cst_5 {cache = 1 : i32, evict = 3 : i32, isVolatile = false} : tensor<1x2048xf32>
      %529 = tt.addptr %218, %386 : tensor<1x2048x!tt.ptr<bf16, 1>>, tensor<1x2048xi32>
      %530 = tt.load %529, %385, %cst {cache = 1 : i32, evict = 2 : i32, isVolatile = false} : tensor<1x2048xbf16>
      %531 = arith.extf %530 : tensor<1x2048xbf16> to tensor<1x2048xf32>
      %532 = tt.addptr %219, %384 : tensor<1x2048x!tt.ptr<f32, 1>>, tensor<1x2048xi32>
      %533 = tt.load %532, %385, %cst_5 {cache = 1 : i32, evict = 3 : i32, isVolatile = false} : tensor<1x2048xf32>
      %534 = tt.addptr %220, %386 : tensor<1x2048x!tt.ptr<bf16, 1>>, tensor<1x2048xi32>
      %535 = tt.load %534, %385, %cst {cache = 1 : i32, evict = 2 : i32, isVolatile = false} : tensor<1x2048xbf16>
      %536 = arith.extf %535 : tensor<1x2048xbf16> to tensor<1x2048xf32>
      %537 = tt.addptr %221, %384 : tensor<1x2048x!tt.ptr<f32, 1>>, tensor<1x2048xi32>
      %538 = tt.load %537, %385, %cst_5 {cache = 1 : i32, evict = 3 : i32, isVolatile = false} : tensor<1x2048xf32>
      %539 = tt.addptr %222, %386 : tensor<1x2048x!tt.ptr<bf16, 1>>, tensor<1x2048xi32>
      %540 = tt.load %539, %385, %cst {cache = 1 : i32, evict = 2 : i32, isVolatile = false} : tensor<1x2048xbf16>
      %541 = arith.extf %540 : tensor<1x2048xbf16> to tensor<1x2048xf32>
      %542 = tt.addptr %223, %384 : tensor<1x2048x!tt.ptr<f32, 1>>, tensor<1x2048xi32>
      %543 = tt.load %542, %385, %cst_5 {cache = 1 : i32, evict = 3 : i32, isVolatile = false} : tensor<1x2048xf32>
      %544 = tt.addptr %224, %386 : tensor<1x2048x!tt.ptr<bf16, 1>>, tensor<1x2048xi32>
      %545 = tt.load %544, %385, %cst {cache = 1 : i32, evict = 2 : i32, isVolatile = false} : tensor<1x2048xbf16>
      %546 = arith.extf %545 : tensor<1x2048xbf16> to tensor<1x2048xf32>
      %547 = tt.addptr %225, %384 : tensor<1x2048x!tt.ptr<f32, 1>>, tensor<1x2048xi32>
      %548 = tt.load %547, %385, %cst_5 {cache = 1 : i32, evict = 3 : i32, isVolatile = false} : tensor<1x2048xf32>
      %549 = tt.addptr %226, %386 : tensor<1x2048x!tt.ptr<bf16, 1>>, tensor<1x2048xi32>
      %550 = tt.load %549, %385, %cst {cache = 1 : i32, evict = 2 : i32, isVolatile = false} : tensor<1x2048xbf16>
      %551 = arith.extf %550 : tensor<1x2048xbf16> to tensor<1x2048xf32>
      %552 = tt.addptr %227, %384 : tensor<1x2048x!tt.ptr<f32, 1>>, tensor<1x2048xi32>
      %553 = tt.load %552, %385, %cst_5 {cache = 1 : i32, evict = 3 : i32, isVolatile = false} : tensor<1x2048xf32>
      %554 = tt.addptr %228, %386 : tensor<1x2048x!tt.ptr<bf16, 1>>, tensor<1x2048xi32>
      %555 = tt.load %554, %385, %cst {cache = 1 : i32, evict = 2 : i32, isVolatile = false} : tensor<1x2048xbf16>
      %556 = arith.extf %555 : tensor<1x2048xbf16> to tensor<1x2048xf32>
      %557 = tt.addptr %229, %384 : tensor<1x2048x!tt.ptr<f32, 1>>, tensor<1x2048xi32>
      %558 = tt.load %557, %385, %cst_5 {cache = 1 : i32, evict = 3 : i32, isVolatile = false} : tensor<1x2048xf32>
      %559 = tt.addptr %230, %386 : tensor<1x2048x!tt.ptr<bf16, 1>>, tensor<1x2048xi32>
      %560 = tt.load %559, %385, %cst {cache = 1 : i32, evict = 2 : i32, isVolatile = false} : tensor<1x2048xbf16>
      %561 = arith.extf %560 : tensor<1x2048xbf16> to tensor<1x2048xf32>
      %562 = tt.addptr %231, %384 : tensor<1x2048x!tt.ptr<f32, 1>>, tensor<1x2048xi32>
      %563 = tt.load %562, %385, %cst_5 {cache = 1 : i32, evict = 3 : i32, isVolatile = false} : tensor<1x2048xf32>
      %564 = tt.addptr %232, %386 : tensor<1x2048x!tt.ptr<bf16, 1>>, tensor<1x2048xi32>
      %565 = tt.load %564, %385, %cst {cache = 1 : i32, evict = 2 : i32, isVolatile = false} : tensor<1x2048xbf16>
      %566 = arith.extf %565 : tensor<1x2048xbf16> to tensor<1x2048xf32>
      %567 = tt.addptr %233, %384 : tensor<1x2048x!tt.ptr<f32, 1>>, tensor<1x2048xi32>
      %568 = tt.load %567, %385, %cst_5 {cache = 1 : i32, evict = 3 : i32, isVolatile = false} : tensor<1x2048xf32>
      %569 = tt.addptr %234, %386 : tensor<1x2048x!tt.ptr<bf16, 1>>, tensor<1x2048xi32>
      %570 = tt.load %569, %385, %cst {cache = 1 : i32, evict = 2 : i32, isVolatile = false} : tensor<1x2048xbf16>
      %571 = arith.extf %570 : tensor<1x2048xbf16> to tensor<1x2048xf32>
      %572 = tt.addptr %235, %384 : tensor<1x2048x!tt.ptr<f32, 1>>, tensor<1x2048xi32>
      %573 = tt.load %572, %385, %cst_5 {cache = 1 : i32, evict = 3 : i32, isVolatile = false} : tensor<1x2048xf32>
      %574 = tt.addptr %236, %386 : tensor<1x2048x!tt.ptr<bf16, 1>>, tensor<1x2048xi32>
      %575 = tt.load %574, %385, %cst {cache = 1 : i32, evict = 2 : i32, isVolatile = false} : tensor<1x2048xbf16>
      %576 = arith.extf %575 : tensor<1x2048xbf16> to tensor<1x2048xf32>
      %577 = tt.addptr %237, %384 : tensor<1x2048x!tt.ptr<f32, 1>>, tensor<1x2048xi32>
      %578 = tt.load %577, %385, %cst_5 {cache = 1 : i32, evict = 3 : i32, isVolatile = false} : tensor<1x2048xf32>
      %579 = tt.addptr %238, %386 : tensor<1x2048x!tt.ptr<bf16, 1>>, tensor<1x2048xi32>
      %580 = tt.load %579, %385, %cst {cache = 1 : i32, evict = 2 : i32, isVolatile = false} : tensor<1x2048xbf16>
      %581 = arith.extf %580 : tensor<1x2048xbf16> to tensor<1x2048xf32>
      %582 = tt.addptr %239, %384 : tensor<1x2048x!tt.ptr<f32, 1>>, tensor<1x2048xi32>
      %583 = tt.load %582, %385, %cst_5 {cache = 1 : i32, evict = 3 : i32, isVolatile = false} : tensor<1x2048xf32>
      %584 = tt.addptr %240, %386 : tensor<1x2048x!tt.ptr<bf16, 1>>, tensor<1x2048xi32>
      %585 = tt.load %584, %385, %cst {cache = 1 : i32, evict = 2 : i32, isVolatile = false} : tensor<1x2048xbf16>
      %586 = arith.extf %585 : tensor<1x2048xbf16> to tensor<1x2048xf32>
      %587 = tt.addptr %241, %384 : tensor<1x2048x!tt.ptr<f32, 1>>, tensor<1x2048xi32>
      %588 = tt.load %587, %385, %cst_5 {cache = 1 : i32, evict = 3 : i32, isVolatile = false} : tensor<1x2048xf32>
      %589 = tt.addptr %242, %386 : tensor<1x2048x!tt.ptr<bf16, 1>>, tensor<1x2048xi32>
      %590 = tt.load %589, %385, %cst {cache = 1 : i32, evict = 2 : i32, isVolatile = false} : tensor<1x2048xbf16>
      %591 = arith.extf %590 : tensor<1x2048xbf16> to tensor<1x2048xf32>
      %592 = tt.addptr %243, %384 : tensor<1x2048x!tt.ptr<f32, 1>>, tensor<1x2048xi32>
      %593 = tt.load %592, %385, %cst_5 {cache = 1 : i32, evict = 3 : i32, isVolatile = false} : tensor<1x2048xf32>
      %594 = tt.addptr %244, %386 : tensor<1x2048x!tt.ptr<bf16, 1>>, tensor<1x2048xi32>
      %595 = tt.load %594, %385, %cst {cache = 1 : i32, evict = 2 : i32, isVolatile = false} : tensor<1x2048xbf16>
      %596 = arith.extf %595 : tensor<1x2048xbf16> to tensor<1x2048xf32>
      %597 = tt.addptr %245, %384 : tensor<1x2048x!tt.ptr<f32, 1>>, tensor<1x2048xi32>
      %598 = tt.load %597, %385, %cst_5 {cache = 1 : i32, evict = 3 : i32, isVolatile = false} : tensor<1x2048xf32>
      %599 = tt.addptr %246, %386 : tensor<1x2048x!tt.ptr<bf16, 1>>, tensor<1x2048xi32>
      %600 = tt.load %599, %385, %cst {cache = 1 : i32, evict = 2 : i32, isVolatile = false} : tensor<1x2048xbf16>
      %601 = arith.extf %600 : tensor<1x2048xbf16> to tensor<1x2048xf32>
      %602 = tt.addptr %247, %384 : tensor<1x2048x!tt.ptr<f32, 1>>, tensor<1x2048xi32>
      %603 = tt.load %602, %385, %cst_5 {cache = 1 : i32, evict = 3 : i32, isVolatile = false} : tensor<1x2048xf32>
      %604 = tt.addptr %248, %386 : tensor<1x2048x!tt.ptr<bf16, 1>>, tensor<1x2048xi32>
      %605 = tt.load %604, %385, %cst {cache = 1 : i32, evict = 2 : i32, isVolatile = false} : tensor<1x2048xbf16>
      %606 = arith.extf %605 : tensor<1x2048xbf16> to tensor<1x2048xf32>
      %607 = tt.addptr %249, %384 : tensor<1x2048x!tt.ptr<f32, 1>>, tensor<1x2048xi32>
      %608 = tt.load %607, %385, %cst_5 {cache = 1 : i32, evict = 3 : i32, isVolatile = false} : tensor<1x2048xf32>
      %609 = tt.addptr %250, %386 : tensor<1x2048x!tt.ptr<bf16, 1>>, tensor<1x2048xi32>
      %610 = tt.load %609, %385, %cst {cache = 1 : i32, evict = 2 : i32, isVolatile = false} : tensor<1x2048xbf16>
      %611 = arith.extf %610 : tensor<1x2048xbf16> to tensor<1x2048xf32>
      %612 = tt.addptr %251, %384 : tensor<1x2048x!tt.ptr<f32, 1>>, tensor<1x2048xi32>
      %613 = tt.load %612, %385, %cst_5 {cache = 1 : i32, evict = 3 : i32, isVolatile = false} : tensor<1x2048xf32>
      %614 = tt.addptr %252, %386 : tensor<1x2048x!tt.ptr<bf16, 1>>, tensor<1x2048xi32>
      %615 = tt.load %614, %385, %cst {cache = 1 : i32, evict = 2 : i32, isVolatile = false} : tensor<1x2048xbf16>
      %616 = arith.extf %615 : tensor<1x2048xbf16> to tensor<1x2048xf32>
      %617 = tt.addptr %253, %384 : tensor<1x2048x!tt.ptr<f32, 1>>, tensor<1x2048xi32>
      %618 = tt.load %617, %385, %cst_5 {cache = 1 : i32, evict = 3 : i32, isVolatile = false} : tensor<1x2048xf32>
      %619 = tt.addptr %254, %386 : tensor<1x2048x!tt.ptr<bf16, 1>>, tensor<1x2048xi32>
      %620 = tt.load %619, %385, %cst {cache = 1 : i32, evict = 2 : i32, isVolatile = false} : tensor<1x2048xbf16>
      %621 = arith.extf %620 : tensor<1x2048xbf16> to tensor<1x2048xf32>
      %622 = tt.addptr %255, %384 : tensor<1x2048x!tt.ptr<f32, 1>>, tensor<1x2048xi32>
      %623 = tt.load %622, %385, %cst_5 {cache = 1 : i32, evict = 3 : i32, isVolatile = false} : tensor<1x2048xf32>
      %624 = tt.addptr %256, %386 : tensor<1x2048x!tt.ptr<bf16, 1>>, tensor<1x2048xi32>
      %625 = tt.load %624, %385, %cst {cache = 1 : i32, evict = 2 : i32, isVolatile = false} : tensor<1x2048xbf16>
      %626 = arith.extf %625 : tensor<1x2048xbf16> to tensor<1x2048xf32>
      %627 = tt.addptr %257, %384 : tensor<1x2048x!tt.ptr<f32, 1>>, tensor<1x2048xi32>
      %628 = tt.load %627, %385, %cst_5 {cache = 1 : i32, evict = 3 : i32, isVolatile = false} : tensor<1x2048xf32>
      %629 = tt.addptr %258, %386 : tensor<1x2048x!tt.ptr<bf16, 1>>, tensor<1x2048xi32>
      %630 = tt.load %629, %385, %cst {cache = 1 : i32, evict = 2 : i32, isVolatile = false} : tensor<1x2048xbf16>
      %631 = arith.extf %630 : tensor<1x2048xbf16> to tensor<1x2048xf32>
      %632 = tt.addptr %259, %384 : tensor<1x2048x!tt.ptr<f32, 1>>, tensor<1x2048xi32>
      %633 = tt.load %632, %385, %cst_5 {cache = 1 : i32, evict = 3 : i32, isVolatile = false} : tensor<1x2048xf32>
      %634 = tt.addptr %260, %386 : tensor<1x2048x!tt.ptr<bf16, 1>>, tensor<1x2048xi32>
      %635 = tt.load %634, %385, %cst {cache = 1 : i32, evict = 2 : i32, isVolatile = false} : tensor<1x2048xbf16>
      %636 = arith.extf %635 : tensor<1x2048xbf16> to tensor<1x2048xf32>
      %637 = tt.addptr %261, %384 : tensor<1x2048x!tt.ptr<f32, 1>>, tensor<1x2048xi32>
      %638 = tt.load %637, %385, %cst_5 {cache = 1 : i32, evict = 3 : i32, isVolatile = false} : tensor<1x2048xf32>
      %639 = tt.addptr %262, %386 : tensor<1x2048x!tt.ptr<bf16, 1>>, tensor<1x2048xi32>
      %640 = tt.load %639, %385, %cst {cache = 1 : i32, evict = 3 : i32, isVolatile = false} : tensor<1x2048xbf16>
      %641 = arith.extf %640 : tensor<1x2048xbf16> to tensor<1x2048xf32>
      %642 = tt.addptr %263, %384 : tensor<1x2048x!tt.ptr<f32, 1>>, tensor<1x2048xi32>
      %643 = tt.load %642, %385, %cst_5 {cache = 1 : i32, evict = 3 : i32, isVolatile = false} : tensor<1x2048xf32>
      %644 = tt.addptr %264, %386 : tensor<1x2048x!tt.ptr<bf16, 1>>, tensor<1x2048xi32>
      %645 = tt.load %644, %385, %cst {cache = 1 : i32, evict = 2 : i32, isVolatile = false} : tensor<1x2048xbf16>
      %646 = arith.extf %645 : tensor<1x2048xbf16> to tensor<1x2048xf32>
      %647 = tt.addptr %265, %384 : tensor<1x2048x!tt.ptr<f32, 1>>, tensor<1x2048xi32>
      %648 = tt.load %647, %385, %cst_5 {cache = 1 : i32, evict = 3 : i32, isVolatile = false} : tensor<1x2048xf32>
      %649 = tt.addptr %266, %386 : tensor<1x2048x!tt.ptr<bf16, 1>>, tensor<1x2048xi32>
      %650 = tt.load %649, %385, %cst {cache = 1 : i32, evict = 3 : i32, isVolatile = false} : tensor<1x2048xbf16>
      %651 = arith.extf %650 : tensor<1x2048xbf16> to tensor<1x2048xf32>
      %652 = tt.addptr %267, %384 : tensor<1x2048x!tt.ptr<f32, 1>>, tensor<1x2048xi32>
      %653 = tt.load %652, %385, %cst_5 {cache = 1 : i32, evict = 3 : i32, isVolatile = false} : tensor<1x2048xf32>
      %654 = arith.mulf %389, %268 : tensor<1x2048xf32>
      %655 = arith.addf %391, %cst_3 : tensor<1x2048xf32>
      %656 = arith.mulf %654, %655 : tensor<1x2048xf32>
      %657 = arith.mulf %394, %269 : tensor<1x2048xf32>
      %658 = arith.addf %396, %cst_3 : tensor<1x2048xf32>
      %659 = arith.mulf %657, %658 : tensor<1x2048xf32>
      %660 = arith.mulf %398, %cst_2 : tensor<1x2048xf32>
      %661 = arith.addf %659, %660 : tensor<1x2048xf32>
      %662 = arith.addf %656, %661 : tensor<1x2048xf32>
      %663 = arith.mulf %401, %270 : tensor<1x2048xf32>
      %664 = arith.addf %403, %cst_3 : tensor<1x2048xf32>
      %665 = arith.mulf %663, %664 : tensor<1x2048xf32>
      %666 = arith.mulf %406, %271 : tensor<1x2048xf32>
      %667 = arith.addf %408, %cst_3 : tensor<1x2048xf32>
      %668 = arith.mulf %666, %667 : tensor<1x2048xf32>
      %669 = arith.addf %668, %662 : tensor<1x2048xf32>
      %670 = arith.addf %665, %669 : tensor<1x2048xf32>
      %671 = arith.mulf %411, %272 : tensor<1x2048xf32>
      %672 = arith.addf %413, %cst_3 : tensor<1x2048xf32>
      %673 = arith.mulf %671, %672 : tensor<1x2048xf32>
      %674 = arith.mulf %416, %273 : tensor<1x2048xf32>
      %675 = arith.addf %418, %cst_3 : tensor<1x2048xf32>
      %676 = arith.mulf %674, %675 : tensor<1x2048xf32>
      %677 = arith.addf %676, %670 : tensor<1x2048xf32>
      %678 = arith.addf %673, %677 : tensor<1x2048xf32>
      %679 = arith.mulf %421, %274 : tensor<1x2048xf32>
      %680 = arith.addf %423, %cst_3 : tensor<1x2048xf32>
      %681 = arith.mulf %679, %680 : tensor<1x2048xf32>
      %682 = arith.mulf %426, %275 : tensor<1x2048xf32>
      %683 = arith.addf %428, %cst_3 : tensor<1x2048xf32>
      %684 = arith.mulf %682, %683 : tensor<1x2048xf32>
      %685 = arith.addf %684, %678 : tensor<1x2048xf32>
      %686 = arith.addf %681, %685 : tensor<1x2048xf32>
      %687 = arith.mulf %431, %276 : tensor<1x2048xf32>
      %688 = arith.addf %433, %cst_3 : tensor<1x2048xf32>
      %689 = arith.mulf %687, %688 : tensor<1x2048xf32>
      %690 = arith.mulf %436, %277 : tensor<1x2048xf32>
      %691 = arith.addf %438, %cst_3 : tensor<1x2048xf32>
      %692 = arith.mulf %690, %691 : tensor<1x2048xf32>
      %693 = arith.addf %692, %686 : tensor<1x2048xf32>
      %694 = arith.addf %689, %693 : tensor<1x2048xf32>
      %695 = arith.mulf %441, %278 : tensor<1x2048xf32>
      %696 = arith.addf %443, %cst_3 : tensor<1x2048xf32>
      %697 = arith.mulf %695, %696 : tensor<1x2048xf32>
      %698 = arith.mulf %446, %279 : tensor<1x2048xf32>
      %699 = arith.addf %448, %cst_3 : tensor<1x2048xf32>
      %700 = arith.mulf %698, %699 : tensor<1x2048xf32>
      %701 = arith.addf %700, %694 : tensor<1x2048xf32>
      %702 = arith.addf %697, %701 : tensor<1x2048xf32>
      %703 = arith.mulf %451, %280 : tensor<1x2048xf32>
      %704 = arith.addf %453, %cst_3 : tensor<1x2048xf32>
      %705 = arith.mulf %703, %704 : tensor<1x2048xf32>
      %706 = arith.mulf %456, %281 : tensor<1x2048xf32>
      %707 = arith.addf %458, %cst_3 : tensor<1x2048xf32>
      %708 = arith.mulf %706, %707 : tensor<1x2048xf32>
      %709 = arith.addf %708, %702 : tensor<1x2048xf32>
      %710 = arith.addf %705, %709 : tensor<1x2048xf32>
      %711 = arith.mulf %461, %282 : tensor<1x2048xf32>
      %712 = arith.addf %463, %cst_3 : tensor<1x2048xf32>
      %713 = arith.mulf %711, %712 : tensor<1x2048xf32>
      %714 = arith.mulf %466, %283 : tensor<1x2048xf32>
      %715 = arith.addf %468, %cst_3 : tensor<1x2048xf32>
      %716 = arith.mulf %714, %715 : tensor<1x2048xf32>
      %717 = arith.addf %716, %710 : tensor<1x2048xf32>
      %718 = arith.addf %713, %717 : tensor<1x2048xf32>
      %719 = arith.mulf %471, %284 : tensor<1x2048xf32>
      %720 = arith.addf %473, %cst_3 : tensor<1x2048xf32>
      %721 = arith.mulf %719, %720 : tensor<1x2048xf32>
      %722 = arith.mulf %476, %285 : tensor<1x2048xf32>
      %723 = arith.addf %478, %cst_3 : tensor<1x2048xf32>
      %724 = arith.mulf %722, %723 : tensor<1x2048xf32>
      %725 = arith.addf %724, %718 : tensor<1x2048xf32>
      %726 = arith.addf %721, %725 : tensor<1x2048xf32>
      %727 = arith.mulf %481, %286 : tensor<1x2048xf32>
      %728 = arith.addf %483, %cst_3 : tensor<1x2048xf32>
      %729 = arith.mulf %727, %728 : tensor<1x2048xf32>
      %730 = arith.mulf %486, %287 : tensor<1x2048xf32>
      %731 = arith.addf %488, %cst_3 : tensor<1x2048xf32>
      %732 = arith.mulf %730, %731 : tensor<1x2048xf32>
      %733 = arith.addf %732, %726 : tensor<1x2048xf32>
      %734 = arith.addf %729, %733 : tensor<1x2048xf32>
      %735 = arith.mulf %491, %288 : tensor<1x2048xf32>
      %736 = arith.addf %493, %cst_3 : tensor<1x2048xf32>
      %737 = arith.mulf %735, %736 : tensor<1x2048xf32>
      %738 = arith.mulf %496, %289 : tensor<1x2048xf32>
      %739 = arith.addf %498, %cst_3 : tensor<1x2048xf32>
      %740 = arith.mulf %738, %739 : tensor<1x2048xf32>
      %741 = arith.addf %740, %734 : tensor<1x2048xf32>
      %742 = arith.addf %737, %741 : tensor<1x2048xf32>
      %743 = arith.mulf %501, %290 : tensor<1x2048xf32>
      %744 = arith.addf %503, %cst_3 : tensor<1x2048xf32>
      %745 = arith.mulf %743, %744 : tensor<1x2048xf32>
      %746 = arith.mulf %506, %291 : tensor<1x2048xf32>
      %747 = arith.addf %508, %cst_3 : tensor<1x2048xf32>
      %748 = arith.mulf %746, %747 : tensor<1x2048xf32>
      %749 = arith.addf %748, %742 : tensor<1x2048xf32>
      %750 = arith.addf %745, %749 : tensor<1x2048xf32>
      %751 = arith.mulf %511, %292 : tensor<1x2048xf32>
      %752 = arith.addf %513, %cst_3 : tensor<1x2048xf32>
      %753 = arith.mulf %751, %752 : tensor<1x2048xf32>
      %754 = arith.mulf %516, %293 : tensor<1x2048xf32>
      %755 = arith.addf %518, %cst_3 : tensor<1x2048xf32>
      %756 = arith.mulf %754, %755 : tensor<1x2048xf32>
      %757 = arith.addf %756, %750 : tensor<1x2048xf32>
      %758 = arith.addf %753, %757 : tensor<1x2048xf32>
      %759 = arith.mulf %521, %294 : tensor<1x2048xf32>
      %760 = arith.addf %523, %cst_3 : tensor<1x2048xf32>
      %761 = arith.mulf %759, %760 : tensor<1x2048xf32>
      %762 = arith.mulf %526, %295 : tensor<1x2048xf32>
      %763 = arith.addf %528, %cst_3 : tensor<1x2048xf32>
      %764 = arith.mulf %762, %763 : tensor<1x2048xf32>
      %765 = arith.addf %764, %758 : tensor<1x2048xf32>
      %766 = arith.addf %761, %765 : tensor<1x2048xf32>
      %767 = arith.mulf %531, %296 : tensor<1x2048xf32>
      %768 = arith.addf %533, %cst_3 : tensor<1x2048xf32>
      %769 = arith.mulf %767, %768 : tensor<1x2048xf32>
      %770 = arith.mulf %536, %297 : tensor<1x2048xf32>
      %771 = arith.addf %538, %cst_3 : tensor<1x2048xf32>
      %772 = arith.mulf %770, %771 : tensor<1x2048xf32>
      %773 = arith.addf %772, %766 : tensor<1x2048xf32>
      %774 = arith.addf %769, %773 : tensor<1x2048xf32>
      %775 = arith.mulf %541, %298 : tensor<1x2048xf32>
      %776 = arith.addf %543, %cst_3 : tensor<1x2048xf32>
      %777 = arith.mulf %775, %776 : tensor<1x2048xf32>
      %778 = arith.mulf %546, %299 : tensor<1x2048xf32>
      %779 = arith.addf %548, %cst_3 : tensor<1x2048xf32>
      %780 = arith.mulf %778, %779 : tensor<1x2048xf32>
      %781 = arith.addf %780, %774 : tensor<1x2048xf32>
      %782 = arith.addf %777, %781 : tensor<1x2048xf32>
      %783 = arith.mulf %551, %300 : tensor<1x2048xf32>
      %784 = arith.addf %553, %cst_3 : tensor<1x2048xf32>
      %785 = arith.mulf %783, %784 : tensor<1x2048xf32>
      %786 = arith.mulf %556, %301 : tensor<1x2048xf32>
      %787 = arith.addf %558, %cst_3 : tensor<1x2048xf32>
      %788 = arith.mulf %786, %787 : tensor<1x2048xf32>
      %789 = arith.addf %788, %782 : tensor<1x2048xf32>
      %790 = arith.addf %785, %789 : tensor<1x2048xf32>
      %791 = arith.mulf %561, %302 : tensor<1x2048xf32>
      %792 = arith.addf %563, %cst_3 : tensor<1x2048xf32>
      %793 = arith.mulf %791, %792 : tensor<1x2048xf32>
      %794 = arith.mulf %566, %303 : tensor<1x2048xf32>
      %795 = arith.addf %568, %cst_3 : tensor<1x2048xf32>
      %796 = arith.mulf %794, %795 : tensor<1x2048xf32>
      %797 = arith.addf %796, %790 : tensor<1x2048xf32>
      %798 = arith.addf %793, %797 : tensor<1x2048xf32>
      %799 = arith.mulf %571, %304 : tensor<1x2048xf32>
      %800 = arith.addf %573, %cst_3 : tensor<1x2048xf32>
      %801 = arith.mulf %799, %800 : tensor<1x2048xf32>
      %802 = arith.mulf %576, %305 : tensor<1x2048xf32>
      %803 = arith.addf %578, %cst_3 : tensor<1x2048xf32>
      %804 = arith.mulf %802, %803 : tensor<1x2048xf32>
      %805 = arith.addf %804, %798 : tensor<1x2048xf32>
      %806 = arith.addf %801, %805 : tensor<1x2048xf32>
      %807 = arith.mulf %581, %306 : tensor<1x2048xf32>
      %808 = arith.addf %583, %cst_3 : tensor<1x2048xf32>
      %809 = arith.mulf %807, %808 : tensor<1x2048xf32>
      %810 = arith.mulf %586, %307 : tensor<1x2048xf32>
      %811 = arith.addf %588, %cst_3 : tensor<1x2048xf32>
      %812 = arith.mulf %810, %811 : tensor<1x2048xf32>
      %813 = arith.addf %812, %806 : tensor<1x2048xf32>
      %814 = arith.addf %809, %813 : tensor<1x2048xf32>
      %815 = arith.mulf %591, %308 : tensor<1x2048xf32>
      %816 = arith.addf %593, %cst_3 : tensor<1x2048xf32>
      %817 = arith.mulf %815, %816 : tensor<1x2048xf32>
      %818 = arith.mulf %596, %309 : tensor<1x2048xf32>
      %819 = arith.addf %598, %cst_3 : tensor<1x2048xf32>
      %820 = arith.mulf %818, %819 : tensor<1x2048xf32>
      %821 = arith.addf %820, %814 : tensor<1x2048xf32>
      %822 = arith.addf %817, %821 : tensor<1x2048xf32>
      %823 = arith.mulf %601, %310 : tensor<1x2048xf32>
      %824 = arith.addf %603, %cst_3 : tensor<1x2048xf32>
      %825 = arith.mulf %823, %824 : tensor<1x2048xf32>
      %826 = arith.mulf %606, %311 : tensor<1x2048xf32>
      %827 = arith.addf %608, %cst_3 : tensor<1x2048xf32>
      %828 = arith.mulf %826, %827 : tensor<1x2048xf32>
      %829 = arith.addf %828, %822 : tensor<1x2048xf32>
      %830 = arith.addf %825, %829 : tensor<1x2048xf32>
      %831 = arith.mulf %611, %312 : tensor<1x2048xf32>
      %832 = arith.addf %613, %cst_3 : tensor<1x2048xf32>
      %833 = arith.mulf %831, %832 : tensor<1x2048xf32>
      %834 = arith.mulf %616, %313 : tensor<1x2048xf32>
      %835 = arith.addf %618, %cst_3 : tensor<1x2048xf32>
      %836 = arith.mulf %834, %835 : tensor<1x2048xf32>
      %837 = arith.addf %836, %830 : tensor<1x2048xf32>
      %838 = arith.addf %833, %837 : tensor<1x2048xf32>
      %839 = arith.mulf %621, %314 : tensor<1x2048xf32>
      %840 = arith.addf %623, %cst_3 : tensor<1x2048xf32>
      %841 = arith.mulf %839, %840 : tensor<1x2048xf32>
      %842 = arith.mulf %626, %315 : tensor<1x2048xf32>
      %843 = arith.addf %628, %cst_3 : tensor<1x2048xf32>
      %844 = arith.mulf %842, %843 : tensor<1x2048xf32>
      %845 = arith.addf %844, %838 : tensor<1x2048xf32>
      %846 = arith.addf %841, %845 : tensor<1x2048xf32>
      %847 = arith.mulf %631, %316 : tensor<1x2048xf32>
      %848 = arith.addf %633, %cst_3 : tensor<1x2048xf32>
      %849 = arith.mulf %847, %848 : tensor<1x2048xf32>
      %850 = arith.mulf %636, %317 : tensor<1x2048xf32>
      %851 = arith.addf %638, %cst_3 : tensor<1x2048xf32>
      %852 = arith.mulf %850, %851 : tensor<1x2048xf32>
      %853 = arith.addf %852, %846 : tensor<1x2048xf32>
      %854 = arith.addf %849, %853 : tensor<1x2048xf32>
      %855 = arith.mulf %641, %318 : tensor<1x2048xf32>
      %856 = arith.addf %643, %cst_3 : tensor<1x2048xf32>
      %857 = arith.mulf %855, %856 : tensor<1x2048xf32>
      %858 = arith.mulf %646, %319 : tensor<1x2048xf32>
      %859 = arith.addf %648, %cst_3 : tensor<1x2048xf32>
      %860 = arith.mulf %858, %859 : tensor<1x2048xf32>
      %861 = arith.addf %860, %854 : tensor<1x2048xf32>
      %862 = arith.addf %857, %861 : tensor<1x2048xf32>
      %863 = arith.addf %653, %cst_3 : tensor<1x2048xf32>
      %864 = arith.mulf %651, %863 : tensor<1x2048xf32>
      %865 = arith.mulf %864, %862 : tensor<1x2048xf32>
      %866 = arith.addf %arg191, %865 : tensor<1x2048xf32>
      %867 = arith.select %385, %866, %arg191 : tensor<1x2048xi1>, tensor<1x2048xf32>
      %868 = tt.addptr %320, %386 : tensor<1x2048x!tt.ptr<f32, 1>>, tensor<1x2048xi32>
      tt.store %868, %662, %385 {cache = 1 : i32, evict = 1 : i32} : tensor<1x2048xf32>
      %869 = tt.addptr %321, %386 : tensor<1x2048x!tt.ptr<f32, 1>>, tensor<1x2048xi32>
      tt.store %869, %670, %385 {cache = 1 : i32, evict = 1 : i32} : tensor<1x2048xf32>
      %870 = tt.addptr %322, %386 : tensor<1x2048x!tt.ptr<f32, 1>>, tensor<1x2048xi32>
      tt.store %870, %678, %385 {cache = 1 : i32, evict = 1 : i32} : tensor<1x2048xf32>
      %871 = tt.addptr %323, %386 : tensor<1x2048x!tt.ptr<f32, 1>>, tensor<1x2048xi32>
      tt.store %871, %686, %385 {cache = 1 : i32, evict = 1 : i32} : tensor<1x2048xf32>
      %872 = tt.addptr %324, %386 : tensor<1x2048x!tt.ptr<f32, 1>>, tensor<1x2048xi32>
      tt.store %872, %694, %385 {cache = 1 : i32, evict = 1 : i32} : tensor<1x2048xf32>
      %873 = tt.addptr %325, %386 : tensor<1x2048x!tt.ptr<f32, 1>>, tensor<1x2048xi32>
      tt.store %873, %702, %385 {cache = 1 : i32, evict = 1 : i32} : tensor<1x2048xf32>
      %874 = tt.addptr %326, %386 : tensor<1x2048x!tt.ptr<f32, 1>>, tensor<1x2048xi32>
      tt.store %874, %710, %385 {cache = 1 : i32, evict = 1 : i32} : tensor<1x2048xf32>
      %875 = tt.addptr %327, %386 : tensor<1x2048x!tt.ptr<f32, 1>>, tensor<1x2048xi32>
      tt.store %875, %718, %385 {cache = 1 : i32, evict = 1 : i32} : tensor<1x2048xf32>
      %876 = tt.addptr %328, %386 : tensor<1x2048x!tt.ptr<f32, 1>>, tensor<1x2048xi32>
      tt.store %876, %726, %385 {cache = 1 : i32, evict = 1 : i32} : tensor<1x2048xf32>
      %877 = tt.addptr %329, %386 : tensor<1x2048x!tt.ptr<f32, 1>>, tensor<1x2048xi32>
      tt.store %877, %734, %385 {cache = 1 : i32, evict = 1 : i32} : tensor<1x2048xf32>
      %878 = tt.addptr %330, %386 : tensor<1x2048x!tt.ptr<f32, 1>>, tensor<1x2048xi32>
      tt.store %878, %742, %385 {cache = 1 : i32, evict = 1 : i32} : tensor<1x2048xf32>
      %879 = tt.addptr %331, %386 : tensor<1x2048x!tt.ptr<f32, 1>>, tensor<1x2048xi32>
      tt.store %879, %750, %385 {cache = 1 : i32, evict = 1 : i32} : tensor<1x2048xf32>
      %880 = tt.addptr %332, %386 : tensor<1x2048x!tt.ptr<f32, 1>>, tensor<1x2048xi32>
      tt.store %880, %758, %385 {cache = 1 : i32, evict = 1 : i32} : tensor<1x2048xf32>
      %881 = tt.addptr %333, %386 : tensor<1x2048x!tt.ptr<f32, 1>>, tensor<1x2048xi32>
      tt.store %881, %766, %385 {cache = 1 : i32, evict = 1 : i32} : tensor<1x2048xf32>
      %882 = tt.addptr %334, %386 : tensor<1x2048x!tt.ptr<f32, 1>>, tensor<1x2048xi32>
      tt.store %882, %774, %385 {cache = 1 : i32, evict = 1 : i32} : tensor<1x2048xf32>
      %883 = tt.addptr %335, %386 : tensor<1x2048x!tt.ptr<f32, 1>>, tensor<1x2048xi32>
      tt.store %883, %782, %385 {cache = 1 : i32, evict = 1 : i32} : tensor<1x2048xf32>
      %884 = tt.addptr %336, %386 : tensor<1x2048x!tt.ptr<f32, 1>>, tensor<1x2048xi32>
      tt.store %884, %790, %385 {cache = 1 : i32, evict = 1 : i32} : tensor<1x2048xf32>
      %885 = tt.addptr %337, %386 : tensor<1x2048x!tt.ptr<f32, 1>>, tensor<1x2048xi32>
      tt.store %885, %798, %385 {cache = 1 : i32, evict = 1 : i32} : tensor<1x2048xf32>
      %886 = tt.addptr %338, %386 : tensor<1x2048x!tt.ptr<f32, 1>>, tensor<1x2048xi32>
      tt.store %886, %806, %385 {cache = 1 : i32, evict = 1 : i32} : tensor<1x2048xf32>
      %887 = tt.addptr %339, %386 : tensor<1x2048x!tt.ptr<f32, 1>>, tensor<1x2048xi32>
      tt.store %887, %814, %385 {cache = 1 : i32, evict = 1 : i32} : tensor<1x2048xf32>
      %888 = tt.addptr %340, %386 : tensor<1x2048x!tt.ptr<f32, 1>>, tensor<1x2048xi32>
      tt.store %888, %822, %385 {cache = 1 : i32, evict = 1 : i32} : tensor<1x2048xf32>
      %889 = tt.addptr %341, %386 : tensor<1x2048x!tt.ptr<f32, 1>>, tensor<1x2048xi32>
      tt.store %889, %830, %385 {cache = 1 : i32, evict = 1 : i32} : tensor<1x2048xf32>
      %890 = tt.addptr %342, %386 : tensor<1x2048x!tt.ptr<f32, 1>>, tensor<1x2048xi32>
      tt.store %890, %838, %385 {cache = 1 : i32, evict = 1 : i32} : tensor<1x2048xf32>
      %891 = tt.addptr %343, %386 : tensor<1x2048x!tt.ptr<f32, 1>>, tensor<1x2048xi32>
      tt.store %891, %846, %385 {cache = 1 : i32, evict = 1 : i32} : tensor<1x2048xf32>
      %892 = tt.addptr %344, %386 : tensor<1x2048x!tt.ptr<f32, 1>>, tensor<1x2048xi32>
      tt.store %892, %854, %385 {cache = 1 : i32, evict = 1 : i32} : tensor<1x2048xf32>
      %893 = tt.addptr %345, %386 : tensor<1x2048x!tt.ptr<f32, 1>>, tensor<1x2048xi32>
      tt.store %893, %862, %385 {cache = 1 : i32, evict = 1 : i32} : tensor<1x2048xf32>
      scf.yield %867 : tensor<1x2048xf32>
    }
    %347 = "tt.reduce"(%346) <{axis = 1 : i32}> ({
    ^bb0(%arg190: f32, %arg191: f32):
      %383 = arith.addf %arg190, %arg191 : f32
      tt.reduce.return %383 : f32
    }) : (tensor<1x2048xf32>) -> tensor<1xf32>
    %348 = tt.expand_dims %347 {axis = 1 : i32} : (tensor<1xf32>) -> tensor<1x1xf32>
    %349 = tt.addptr %arg159, %0 : !tt.ptr<f32, 1>, i32
    %350 = tt.splat %349 : (!tt.ptr<f32, 1>) -> tensor<1x1x!tt.ptr<f32, 1>>
    %351 = tt.load %350 {cache = 1 : i32, evict = 3 : i32, isVolatile = false} : tensor<1x1xf32>
    %352 = arith.muli %0, %c2304_i32 : i32
    %353 = tt.splat %352 : (i32) -> tensor<1x2048xi32>
    %354 = tt.splat %arg157 : (!tt.ptr<bf16, 1>) -> tensor<1x2048x!tt.ptr<bf16, 1>>
    %355 = tt.splat %arg158 : (!tt.ptr<f32, 1>) -> tensor<1x2048x!tt.ptr<f32, 1>>
    %356 = tt.splat %arg185 : (!tt.ptr<f32, 1>) -> tensor<1x2048x!tt.ptr<f32, 1>>
    %357 = tt.splat %arg153 : (!tt.ptr<f32, 1>) -> tensor<1x2048x!tt.ptr<f32, 1>>
    %358 = tt.splat %arg151 : (!tt.ptr<bf16, 1>) -> tensor<1x2048x!tt.ptr<bf16, 1>>
    %359 = tt.broadcast %351 : (tensor<1x1xf32>) -> tensor<1x2048xf32>
    %360 = arith.mulf %348, %cst_1 : tensor<1x1xf32>
    %361 = arith.mulf %351, %351 : tensor<1x1xf32>
    %362 = arith.mulf %361, %351 : tensor<1x1xf32>
    %363 = arith.mulf %360, %362 : tensor<1x1xf32>
    %364 = arith.divf %363, %cst_0 : tensor<1x1xf32>
    %365 = tt.broadcast %364 : (tensor<1x1xf32>) -> tensor<1x2048xf32>
    %366 = tt.splat %arg186 : (!tt.ptr<f32, 1>) -> tensor<1x2048x!tt.ptr<f32, 1>>
    %367 = scf.for %arg190 = %c0_i32 to %c2304_i32 step %c2048_i32 iter_args(%arg191 = %cst_5) -> (tensor<1x2048xf32>)  : i32 {
      %383 = tt.splat %arg190 : (i32) -> tensor<1x2048xi32>
      %384 = arith.addi %383, %2 : tensor<1x2048xi32>
      %385 = arith.cmpi slt, %384, %cst_4 : tensor<1x2048xi32>
      %386 = arith.addi %384, %353 : tensor<1x2048xi32>
      %387 = tt.addptr %354, %386 : tensor<1x2048x!tt.ptr<bf16, 1>>, tensor<1x2048xi32>
      %388 = tt.load %387, %385, %cst {cache = 1 : i32, evict = 2 : i32, isVolatile = false} : tensor<1x2048xbf16>
      %389 = arith.extf %388 : tensor<1x2048xbf16> to tensor<1x2048xf32>
      %390 = tt.addptr %355, %384 : tensor<1x2048x!tt.ptr<f32, 1>>, tensor<1x2048xi32>
      %391 = tt.load %390, %385, %cst_5 {cache = 1 : i32, evict = 3 : i32, isVolatile = false} : tensor<1x2048xf32>
      %392 = tt.addptr %356, %386 : tensor<1x2048x!tt.ptr<f32, 1>>, tensor<1x2048xi32>
      %393 = tt.load %392, %385, %cst_5 {cache = 1 : i32, evict = 2 : i32, isVolatile = false} : tensor<1x2048xf32>
      %394 = tt.addptr %357, %384 : tensor<1x2048x!tt.ptr<f32, 1>>, tensor<1x2048xi32>
      %395 = tt.load %394, %385, %cst_5 {cache = 1 : i32, evict = 3 : i32, isVolatile = false} : tensor<1x2048xf32>
      %396 = tt.addptr %358, %386 : tensor<1x2048x!tt.ptr<bf16, 1>>, tensor<1x2048xi32>
      %397 = tt.load %396, %385, %cst {cache = 1 : i32, evict = 3 : i32, isVolatile = false} : tensor<1x2048xbf16>
      %398 = arith.extf %397 : tensor<1x2048xbf16> to tensor<1x2048xf32>
      %399 = arith.addf %391, %cst_3 : tensor<1x2048xf32>
      %400 = arith.mulf %389, %399 : tensor<1x2048xf32>
      %401 = arith.mulf %400, %359 : tensor<1x2048xf32>
      %402 = arith.mulf %365, %393 : tensor<1x2048xf32>
      %403 = arith.addf %401, %402 : tensor<1x2048xf32>
      %404 = arith.addf %403, %402 : tensor<1x2048xf32>
      %405 = arith.addf %395, %cst_3 : tensor<1x2048xf32>
      %406 = arith.mulf %404, %405 : tensor<1x2048xf32>
      %407 = arith.mulf %406, %398 : tensor<1x2048xf32>
      %408 = arith.addf %arg191, %407 : tensor<1x2048xf32>
      %409 = arith.select %385, %408, %arg191 : tensor<1x2048xi1>, tensor<1x2048xf32>
      %410 = tt.addptr %366, %386 : tensor<1x2048x!tt.ptr<f32, 1>>, tensor<1x2048xi32>
      tt.store %410, %404, %385 {cache = 1 : i32, evict = 1 : i32} : tensor<1x2048xf32>
      scf.yield %409 : tensor<1x2048xf32>
    }
    %368 = "tt.reduce"(%367) <{axis = 1 : i32}> ({
    ^bb0(%arg190: f32, %arg191: f32):
      %383 = arith.addf %arg190, %arg191 : f32
      tt.reduce.return %383 : f32
    }) : (tensor<1x2048xf32>) -> tensor<1xf32>
    %369 = tt.expand_dims %368 {axis = 1 : i32} : (tensor<1xf32>) -> tensor<1x1xf32>
    %370 = arith.muli %0, %c2304_i32 : i32
    %371 = tt.splat %370 : (i32) -> tensor<1x2048xi32>
    %372 = tt.splat %arg186 : (!tt.ptr<f32, 1>) -> tensor<1x2048x!tt.ptr<f32, 1>>
    %373 = tt.splat %arg153 : (!tt.ptr<f32, 1>) -> tensor<1x2048x!tt.ptr<f32, 1>>
    %374 = tt.splat %arg151 : (!tt.ptr<bf16, 1>) -> tensor<1x2048x!tt.ptr<bf16, 1>>
    %375 = tt.broadcast %155 : (tensor<1x1xf32>) -> tensor<1x2048xf32>
    %376 = arith.mulf %369, %cst_1 : tensor<1x1xf32>
    %377 = arith.mulf %155, %155 : tensor<1x1xf32>
    %378 = arith.mulf %377, %155 : tensor<1x1xf32>
    %379 = arith.mulf %376, %378 : tensor<1x1xf32>
    %380 = arith.divf %379, %cst_0 : tensor<1x1xf32>
    %381 = tt.broadcast %380 : (tensor<1x1xf32>) -> tensor<1x2048xf32>
    %382 = tt.splat %arg187 : (!tt.ptr<bf16, 1>) -> tensor<1x2048x!tt.ptr<bf16, 1>>
    scf.for %arg190 = %c0_i32 to %c2304_i32 step %c2048_i32  : i32 {
      %383 = tt.splat %arg190 : (i32) -> tensor<1x2048xi32>
      %384 = arith.addi %383, %2 : tensor<1x2048xi32>
      %385 = arith.cmpi slt, %384, %cst_4 : tensor<1x2048xi32>
      %386 = arith.addi %384, %371 : tensor<1x2048xi32>
      %387 = tt.addptr %372, %386 : tensor<1x2048x!tt.ptr<f32, 1>>, tensor<1x2048xi32>
      %388 = tt.load %387, %385, %cst_5 {cache = 1 : i32, evict = 2 : i32, isVolatile = false} : tensor<1x2048xf32>
      %389 = tt.addptr %373, %384 : tensor<1x2048x!tt.ptr<f32, 1>>, tensor<1x2048xi32>
      %390 = tt.load %389, %385, %cst_5 {cache = 1 : i32, evict = 3 : i32, isVolatile = false} : tensor<1x2048xf32>
      %391 = tt.addptr %374, %386 : tensor<1x2048x!tt.ptr<bf16, 1>>, tensor<1x2048xi32>
      %392 = tt.load %391, %385, %cst {cache = 1 : i32, evict = 2 : i32, isVolatile = false} : tensor<1x2048xbf16>
      %393 = arith.extf %392 : tensor<1x2048xbf16> to tensor<1x2048xf32>
      %394 = arith.addf %390, %cst_3 : tensor<1x2048xf32>
      %395 = arith.mulf %388, %394 : tensor<1x2048xf32>
      %396 = arith.mulf %395, %375 : tensor<1x2048xf32>
      %397 = arith.mulf %381, %393 : tensor<1x2048xf32>
      %398 = arith.addf %396, %397 : tensor<1x2048xf32>
      %399 = arith.addf %398, %397 : tensor<1x2048xf32>
      %400 = tt.addptr %382, %386 : tensor<1x2048x!tt.ptr<bf16, 1>>, tensor<1x2048xi32>
      %401 = arith.truncf %399 : tensor<1x2048xf32> to tensor<1x2048xbf16>
      tt.store %400, %401, %385 {cache = 1 : i32, evict = 1 : i32} : tensor<1x2048xbf16>
    }
    tt.return
  }
}
