module {
  tt.func public @triton__0d1d2d3d4de5de(%arg0: !tt.ptr<bf16, 1> {tt.divisibility = 16 : i32}, %arg1: !tt.ptr<bf16, 1> {tt.divisibility = 16 : i32}, %arg2: !tt.ptr<bf16, 1> {tt.divisibility = 16 : i32}, %arg3: !tt.ptr<f32, 1> {tt.divisibility = 16 : i32}, %arg4: i32 {tt.divisibility = 16 : i32, tt.max_divisibility = 16 : i32}, %arg5: i32 {tt.divisibility = 16 : i32, tt.max_divisibility = 16 : i32}) attributes {noinline = false} {
    %c8192_i32 = arith.constant 8192 : i32
    %c-1_i32 = arith.constant -1 : i32
    %cst = arith.constant dense<0.000000e+00> : tensor<1x2048xbf16>
    %cst_0 = arith.constant dense<true> : tensor<1x2048xi1>
    %c2048_i32 = arith.constant 2048 : i32
    %c0_i32 = arith.constant 0 : i32
    %cst_1 = arith.constant dense<-4096> : tensor<1x2048xi64>
    %cst_2 = arith.constant dense<1.000000e+00> : tensor<1x2048xf32>
    %cst_3 = arith.constant dense<1> : tensor<1x2048xi64>
    %cst_4 = arith.constant dense<5.000000e+01> : tensor<1x2048xf32>
    %cst_5 = arith.constant dense<6.250000e-02> : tensor<1x2048xf32>
    %cst_6 = arith.constant dense<0.000000e+00> : tensor<1x2048xf32>
    %cst_7 = arith.constant dense<8192> : tensor<1x2048xi32>
    %cst_8 = arith.constant dense<0xFF800000> : tensor<1x2048xf32>
    %0 = tt.get_program_id x : i32
    %1 = tt.make_range {end = 2048 : i32, start = 0 : i32} : tensor<2048xi32>
    %2 = tt.expand_dims %1 {axis = 0 : i32} : (tensor<2048xi32>) -> tensor<1x2048xi32>
    %3 = arith.remsi %0, %c8192_i32 : i32
    %4 = arith.muli %0, %c8192_i32 : i32
    %5 = tt.splat %4 : (i32) -> tensor<1x2048xi32>
    %6 = tt.splat %arg0 : (!tt.ptr<bf16, 1>) -> tensor<1x2048x!tt.ptr<bf16, 1>>
    %7 = arith.muli %3, %c-1_i32 : i32
    %8 = tt.splat %7 : (i32) -> tensor<1x2048xi32>
    %9 = tt.splat %arg1 : (!tt.ptr<bf16, 1>) -> tensor<1x2048x!tt.ptr<bf16, 1>>
    %10 = scf.for %arg6 = %c0_i32 to %c8192_i32 step %c2048_i32 iter_args(%arg7 = %cst_8) -> (tensor<1x2048xf32>)  : i32 {
      %27 = tt.splat %arg6 : (i32) -> tensor<1x2048xi32>
      %28 = arith.addi %27, %2 : tensor<1x2048xi32>
      %29 = arith.cmpi slt, %28, %cst_7 : tensor<1x2048xi32>
      %30 = arith.addi %28, %5 : tensor<1x2048xi32>
      %31 = tt.addptr %6, %30 : tensor<1x2048x!tt.ptr<bf16, 1>>, tensor<1x2048xi32>
      %32 = tt.load %31, %29, %cst {cache = 1 : i32, evict = 2 : i32, isVolatile = false} : tensor<1x2048xbf16>
      %33 = arith.extf %32 : tensor<1x2048xbf16> to tensor<1x2048xf32>
      %34 = arith.mulf %33, %cst_5 : tensor<1x2048xf32>
      %35 = arith.divf %34, %cst_4 : tensor<1x2048xf32>
      %36 = tt.extern_elementwise %35 {libname = "libdevice", libpath = "/home/zeus/miniconda3/envs/cloudspace/lib/python3.10/site-packages/triton/language/../third_party/cuda/lib/libdevice.10.bc", pure = true, symbol = "__nv_tanhf"} : (tensor<1x2048xf32>) -> tensor<1x2048xf32>
      %37 = arith.mulf %36, %cst_4 : tensor<1x2048xf32>
      %38 = arith.addi %28, %8 : tensor<1x2048xi32>
      %39 = arith.extsi %38 : tensor<1x2048xi32> to tensor<1x2048xi64>
      %40 = arith.cmpi sge, %39, %cst_3 : tensor<1x2048xi64>
      %41 = arith.select %40, %cst_2, %cst_6 : tensor<1x2048xi1>, tensor<1x2048xf32>
      %42 = arith.cmpf une, %41, %cst_6 : tensor<1x2048xf32>
      %43 = arith.select %42, %cst_8, %41 : tensor<1x2048xi1>, tensor<1x2048xf32>
      %44 = arith.cmpi sle, %39, %cst_1 : tensor<1x2048xi64>
      %45 = arith.select %44, %cst_2, %cst_6 : tensor<1x2048xi1>, tensor<1x2048xf32>
      %46 = arith.cmpf une, %45, %cst_6 : tensor<1x2048xf32>
      %47 = arith.select %46, %cst_8, %45 : tensor<1x2048xi1>, tensor<1x2048xf32>
      %48 = arith.addf %43, %47 : tensor<1x2048xf32>
      %49 = arith.addf %37, %48 : tensor<1x2048xf32>
      %50 = arith.cmpf ogt, %arg7, %49 : tensor<1x2048xf32>
      %51 = arith.cmpf une, %arg7, %arg7 : tensor<1x2048xf32>
      %52 = arith.ori %50, %51 : tensor<1x2048xi1>
      %53 = arith.xori %52, %cst_0 : tensor<1x2048xi1>
      %54 = arith.andi %29, %53 : tensor<1x2048xi1>
      %55 = arith.select %54, %49, %arg7 : tensor<1x2048xi1>, tensor<1x2048xf32>
      %56 = tt.addptr %9, %30 : tensor<1x2048x!tt.ptr<bf16, 1>>, tensor<1x2048xi32>
      %57 = arith.truncf %49 : tensor<1x2048xf32> to tensor<1x2048xbf16>
      tt.store %56, %57, %29 {cache = 1 : i32, evict = 1 : i32} : tensor<1x2048xbf16>
      scf.yield %55 : tensor<1x2048xf32>
    }
    %11 = "tt.reduce"(%10) <{axis = 1 : i32}> ({
    ^bb0(%arg6: f32, %arg7: f32):
      %27 = arith.cmpf ogt, %arg6, %arg7 : f32
      %28 = arith.cmpf une, %arg6, %arg6 : f32
      %29 = arith.ori %27, %28 : i1
      %30 = arith.select %29, %arg6, %arg7 : f32
      tt.reduce.return %30 : f32
    }) : (tensor<1x2048xf32>) -> tensor<1xf32>
    %12 = tt.expand_dims %11 {axis = 1 : i32} : (tensor<1xf32>) -> tensor<1x1xf32>
    %13 = arith.muli %0, %c8192_i32 : i32
    %14 = tt.splat %13 : (i32) -> tensor<1x2048xi32>
    %15 = tt.splat %arg1 : (!tt.ptr<bf16, 1>) -> tensor<1x2048x!tt.ptr<bf16, 1>>
    %16 = tt.broadcast %12 : (tensor<1x1xf32>) -> tensor<1x2048xf32>
    %17 = scf.for %arg6 = %c0_i32 to %c8192_i32 step %c2048_i32 iter_args(%arg7 = %cst_6) -> (tensor<1x2048xf32>)  : i32 {
      %27 = tt.splat %arg6 : (i32) -> tensor<1x2048xi32>
      %28 = arith.addi %27, %2 : tensor<1x2048xi32>
      %29 = arith.cmpi slt, %28, %cst_7 : tensor<1x2048xi32>
      %30 = arith.addi %28, %14 : tensor<1x2048xi32>
      %31 = tt.addptr %15, %30 : tensor<1x2048x!tt.ptr<bf16, 1>>, tensor<1x2048xi32>
      %32 = tt.load %31, %29, %cst {cache = 1 : i32, evict = 3 : i32, isVolatile = false} : tensor<1x2048xbf16>
      %33 = arith.extf %32 : tensor<1x2048xbf16> to tensor<1x2048xf32>
      %34 = arith.subf %33, %16 : tensor<1x2048xf32>
      %35 = math.exp %34 : tensor<1x2048xf32>
      %36 = arith.addf %arg7, %35 : tensor<1x2048xf32>
      %37 = arith.select %29, %36, %arg7 : tensor<1x2048xi1>, tensor<1x2048xf32>
      scf.yield %37 : tensor<1x2048xf32>
    }
    %18 = "tt.reduce"(%17) <{axis = 1 : i32}> ({
    ^bb0(%arg6: f32, %arg7: f32):
      %27 = arith.addf %arg6, %arg7 : f32
      tt.reduce.return %27 : f32
    }) : (tensor<1x2048xf32>) -> tensor<1xf32>
    %19 = tt.expand_dims %18 {axis = 1 : i32} : (tensor<1xf32>) -> tensor<1x1xf32>
    %20 = arith.muli %0, %c8192_i32 : i32
    %21 = tt.splat %20 : (i32) -> tensor<1x2048xi32>
    %22 = tt.splat %arg1 : (!tt.ptr<bf16, 1>) -> tensor<1x2048x!tt.ptr<bf16, 1>>
    %23 = tt.broadcast %12 : (tensor<1x1xf32>) -> tensor<1x2048xf32>
    %24 = tt.broadcast %19 : (tensor<1x1xf32>) -> tensor<1x2048xf32>
    %25 = tt.splat %arg2 : (!tt.ptr<bf16, 1>) -> tensor<1x2048x!tt.ptr<bf16, 1>>
    %26 = tt.splat %arg3 : (!tt.ptr<f32, 1>) -> tensor<1x2048x!tt.ptr<f32, 1>>
    scf.for %arg6 = %c0_i32 to %c8192_i32 step %c2048_i32  : i32 {
      %27 = tt.splat %arg6 : (i32) -> tensor<1x2048xi32>
      %28 = arith.addi %27, %2 : tensor<1x2048xi32>
      %29 = arith.cmpi slt, %28, %cst_7 : tensor<1x2048xi32>
      %30 = arith.addi %28, %21 : tensor<1x2048xi32>
      %31 = tt.addptr %22, %30 : tensor<1x2048x!tt.ptr<bf16, 1>>, tensor<1x2048xi32>
      %32 = tt.load %31, %29, %cst {cache = 1 : i32, evict = 2 : i32, isVolatile = false} : tensor<1x2048xbf16>
      %33 = arith.extf %32 : tensor<1x2048xbf16> to tensor<1x2048xf32>
      %34 = arith.subf %33, %23 : tensor<1x2048xf32>
      %35 = math.exp %34 : tensor<1x2048xf32>
      %36 = arith.divf %35, %24 : tensor<1x2048xf32>
      %37 = tt.addptr %25, %30 : tensor<1x2048x!tt.ptr<bf16, 1>>, tensor<1x2048xi32>
      %38 = arith.truncf %36 : tensor<1x2048xf32> to tensor<1x2048xbf16>
      tt.store %37, %38, %29 {cache = 1 : i32, evict = 1 : i32} : tensor<1x2048xbf16>
      %39 = tt.addptr %26, %30 : tensor<1x2048x!tt.ptr<f32, 1>>, tensor<1x2048xi32>
      tt.store %39, %36, %29 {cache = 1 : i32, evict = 1 : i32} : tensor<1x2048xf32>
    }
    tt.return
  }
}
