module {
  tt.func public @triton__0d1d2d3d4de5de(%arg0: !tt.ptr<bf16, 1> {tt.divisibility = 16 : i32}, %arg1: !tt.ptr<bf16, 1> {tt.divisibility = 16 : i32}, %arg2: !tt.ptr<f32, 1> {tt.divisibility = 16 : i32}, %arg3: !tt.ptr<f32, 1> {tt.divisibility = 16 : i32}, %arg4: i32 {tt.divisibility = 16 : i32, tt.max_divisibility = 16 : i32}, %arg5: i32 {tt.divisibility = 16 : i32, tt.max_divisibility = 16 : i32}) attributes {noinline = false} {
    %c2304_i32 = arith.constant 2304 : i32
    %cst = arith.constant dense<0.000000e+00> : tensor<1024xbf16>
    %cst_0 = arith.constant 0.000000e+00 : f32
    %cst_1 = arith.constant dense<0.000000e+00> : tensor<1024xf32>
    %cst_2 = arith.constant dense<2304> : tensor<1024xi32>
    %cst_3 = arith.constant dense<1024> : tensor<1024xi32>
    %0 = tt.get_program_id x : i32
    %1 = arith.cmpi slt, %0, %c2304_i32 : i32
    %2 = tt.splat %1 : (i1) -> tensor<1xi1>
    %3 = tt.make_range {end = 1024 : i32, start = 0 : i32} : tensor<1024xi32>
    %4 = arith.cmpi slt, %3, %cst_3 : tensor<1024xi32>
    %5 = arith.muli %3, %cst_2 : tensor<1024xi32>
    %6 = tt.splat %0 : (i32) -> tensor<1024xi32>
    %7 = arith.addi %6, %5 : tensor<1024xi32>
    %8 = tt.splat %arg0 : (!tt.ptr<bf16, 1>) -> tensor<1024x!tt.ptr<bf16, 1>>
    %9 = tt.addptr %8, %7 : tensor<1024x!tt.ptr<bf16, 1>>, tensor<1024xi32>
    %10 = tt.splat %1 : (i1) -> tensor<1024xi1>
    %11 = arith.andi %4, %10 : tensor<1024xi1>
    %12 = tt.load %9, %11, %cst {cache = 1 : i32, evict = 1 : i32, isVolatile = false} : tensor<1024xbf16>
    %13 = arith.extf %12 : tensor<1024xbf16> to tensor<1024xf32>
    %14 = tt.splat %arg1 : (!tt.ptr<bf16, 1>) -> tensor<1024x!tt.ptr<bf16, 1>>
    %15 = tt.addptr %14, %7 : tensor<1024x!tt.ptr<bf16, 1>>, tensor<1024xi32>
    %16 = tt.load %15, %11, %cst {cache = 1 : i32, evict = 1 : i32, isVolatile = false} : tensor<1024xbf16>
    %17 = arith.extf %16 : tensor<1024xbf16> to tensor<1024xf32>
    %18 = tt.splat %arg2 : (!tt.ptr<f32, 1>) -> tensor<1024x!tt.ptr<f32, 1>>
    %19 = tt.addptr %18, %7 : tensor<1024x!tt.ptr<f32, 1>>, tensor<1024xi32>
    %20 = tt.load %19, %11, %cst_1 {cache = 1 : i32, evict = 1 : i32, isVolatile = false} : tensor<1024xf32>
    %21 = arith.addf %13, %17 : tensor<1024xf32>
    %22 = arith.mulf %21, %20 : tensor<1024xf32>
    %23 = arith.select %11, %22, %cst_1 : tensor<1024xi1>, tensor<1024xf32>
    %24 = "tt.reduce"(%23) <{axis = 0 : i32}> ({
    ^bb0(%arg6: f32, %arg7: f32):
      %29 = arith.addf %arg6, %arg7 : f32
      tt.reduce.return %29 : f32
    }) : (tensor<1024xf32>) -> f32
    %25 = arith.addf %24, %cst_0 : f32
    %26 = tt.splat %25 : (f32) -> tensor<1xf32>
    %27 = tt.addptr %arg3, %0 : !tt.ptr<f32, 1>, i32
    %28 = tt.splat %27 : (!tt.ptr<f32, 1>) -> tensor<1x!tt.ptr<f32, 1>>
    tt.store %28, %26, %2 {cache = 1 : i32, evict = 1 : i32} : tensor<1xf32>
    tt.return
  }
}
