module {
  tt.func public @triton__0d1d2d3d4d5d6d7de8de(%arg0: !tt.ptr<f32, 1> {tt.divisibility = 16 : i32}, %arg1: !tt.ptr<f32, 1> {tt.divisibility = 16 : i32}, %arg2: !tt.ptr<bf16, 1> {tt.divisibility = 16 : i32}, %arg3: !tt.ptr<f32, 1> {tt.divisibility = 16 : i32}, %arg4: !tt.ptr<f32, 1> {tt.divisibility = 16 : i32}, %arg5: !tt.ptr<f32, 1> {tt.divisibility = 16 : i32}, %arg6: !tt.ptr<bf16, 1> {tt.divisibility = 16 : i32}, %arg7: i32 {tt.divisibility = 16 : i32, tt.max_divisibility = 16 : i32}, %arg8: i32 {tt.divisibility = 16 : i32, tt.max_divisibility = 16 : i32}) attributes {noinline = false} {
    %c512_i32 = arith.constant 512 : i32
    %cst = arith.constant dense<0.000000e+00> : tensor<1x2048xbf16>
    %c2304_i32 = arith.constant 2304 : i32
    %c2048_i32 = arith.constant 2048 : i32
    %c0_i32 = arith.constant 0 : i32
    %cst_0 = arith.constant dense<4.800000e+01> : tensor<1x2048xf32>
    %cst_1 = arith.constant dense<1.000000e+00> : tensor<1x2048xf32>
    %cst_2 = arith.constant dense<9.99999974E-6> : tensor<1x1xf32>
    %cst_3 = arith.constant dense<2.304000e+03> : tensor<1x1xf32>
    %cst_4 = arith.constant dense<2304> : tensor<1x2048xi32>
    %cst_5 = arith.constant dense<0.000000e+00> : tensor<1x2048xf32>
    %0 = tt.get_program_id x : i32
    %1 = arith.cmpi slt, %0, %c512_i32 : i32
    %2 = tt.splat %1 : (i1) -> tensor<1x1xi1>
    %3 = tt.make_range {end = 2048 : i32, start = 0 : i32} : tensor<2048xi32>
    %4 = tt.expand_dims %3 {axis = 0 : i32} : (tensor<2048xi32>) -> tensor<1x2048xi32>
    %5 = arith.muli %0, %c2304_i32 : i32
    %6 = tt.splat %5 : (i32) -> tensor<1x2048xi32>
    %7 = tt.splat %arg2 : (!tt.ptr<bf16, 1>) -> tensor<1x2048x!tt.ptr<bf16, 1>>
    %8 = tt.splat %1 : (i1) -> tensor<1x2048xi1>
    %9 = scf.for %arg9 = %c0_i32 to %c2304_i32 step %c2048_i32 iter_args(%arg10 = %cst_5) -> (tensor<1x2048xf32>)  : i32 {
      %42 = tt.splat %arg9 : (i32) -> tensor<1x2048xi32>
      %43 = arith.addi %42, %4 : tensor<1x2048xi32>
      %44 = arith.cmpi slt, %43, %cst_4 : tensor<1x2048xi32>
      %45 = arith.addi %43, %6 : tensor<1x2048xi32>
      %46 = tt.addptr %7, %45 : tensor<1x2048x!tt.ptr<bf16, 1>>, tensor<1x2048xi32>
      %47 = arith.andi %44, %8 : tensor<1x2048xi1>
      %48 = tt.load %46, %47, %cst {cache = 1 : i32, evict = 3 : i32, isVolatile = false} : tensor<1x2048xbf16>
      %49 = arith.extf %48 : tensor<1x2048xbf16> to tensor<1x2048xf32>
      %50 = arith.mulf %49, %49 : tensor<1x2048xf32>
      %51 = arith.addf %arg10, %50 : tensor<1x2048xf32>
      %52 = arith.select %47, %51, %arg10 : tensor<1x2048xi1>, tensor<1x2048xf32>
      scf.yield %52 : tensor<1x2048xf32>
    }
    %10 = "tt.reduce"(%9) <{axis = 1 : i32}> ({
    ^bb0(%arg9: f32, %arg10: f32):
      %42 = arith.addf %arg9, %arg10 : f32
      tt.reduce.return %42 : f32
    }) : (tensor<1x2048xf32>) -> tensor<1xf32>
    %11 = tt.expand_dims %10 {axis = 1 : i32} : (tensor<1xf32>) -> tensor<1x1xf32>
    %12 = arith.divf %11, %cst_3 : tensor<1x1xf32>
    %13 = arith.addf %12, %cst_2 : tensor<1x1xf32>
    %14 = tt.extern_elementwise %13 {libname = "libdevice", libpath = "/home/zeus/miniconda3/envs/cloudspace/lib/python3.10/site-packages/triton/language/../third_party/cuda/lib/libdevice.10.bc", pure = true, symbol = "__nv_rsqrtf"} : (tensor<1x1xf32>) -> tensor<1x1xf32>
    gpu.barrier
    %15 = tt.addptr %arg0, %0 : !tt.ptr<f32, 1>, i32
    %16 = tt.splat %15 : (!tt.ptr<f32, 1>) -> tensor<1x1x!tt.ptr<f32, 1>>
    tt.store %16, %14, %2 {cache = 1 : i32, evict = 1 : i32} : tensor<1x1xf32>
    %17 = arith.muli %0, %c2304_i32 : i32
    %18 = tt.splat %17 : (i32) -> tensor<1x2048xi32>
    %19 = tt.splat %arg2 : (!tt.ptr<bf16, 1>) -> tensor<1x2048x!tt.ptr<bf16, 1>>
    %20 = tt.splat %1 : (i1) -> tensor<1x2048xi1>
    %21 = tt.splat %arg3 : (!tt.ptr<f32, 1>) -> tensor<1x2048x!tt.ptr<f32, 1>>
    %22 = tt.splat %arg4 : (!tt.ptr<f32, 1>) -> tensor<1x2048x!tt.ptr<f32, 1>>
    %23 = tt.broadcast %14 : (tensor<1x1xf32>) -> tensor<1x2048xf32>
    %24 = scf.for %arg9 = %c0_i32 to %c2304_i32 step %c2048_i32 iter_args(%arg10 = %cst_5) -> (tensor<1x2048xf32>)  : i32 {
      %42 = tt.splat %arg9 : (i32) -> tensor<1x2048xi32>
      %43 = arith.addi %42, %4 : tensor<1x2048xi32>
      %44 = arith.cmpi slt, %43, %cst_4 : tensor<1x2048xi32>
      %45 = arith.addi %43, %18 : tensor<1x2048xi32>
      %46 = tt.addptr %19, %45 : tensor<1x2048x!tt.ptr<bf16, 1>>, tensor<1x2048xi32>
      %47 = arith.andi %44, %20 : tensor<1x2048xi1>
      %48 = tt.load %46, %47, %cst {cache = 1 : i32, evict = 3 : i32, isVolatile = false} : tensor<1x2048xbf16>
      %49 = arith.extf %48 : tensor<1x2048xbf16> to tensor<1x2048xf32>
      %50 = tt.addptr %21, %43 : tensor<1x2048x!tt.ptr<f32, 1>>, tensor<1x2048xi32>
      %51 = tt.load %50, %44, %cst_5 {cache = 1 : i32, evict = 3 : i32, isVolatile = false} : tensor<1x2048xf32>
      %52 = tt.addptr %22, %45 : tensor<1x2048x!tt.ptr<f32, 1>>, tensor<1x2048xi32>
      %53 = tt.load %52, %47, %cst_5 {cache = 1 : i32, evict = 3 : i32, isVolatile = false} : tensor<1x2048xf32>
      %54 = arith.mulf %49, %23 : tensor<1x2048xf32>
      %55 = arith.addf %51, %cst_1 : tensor<1x2048xf32>
      %56 = arith.mulf %54, %55 : tensor<1x2048xf32>
      %57 = arith.mulf %53, %cst_0 : tensor<1x2048xf32>
      %58 = arith.addf %56, %57 : tensor<1x2048xf32>
      %59 = arith.mulf %58, %58 : tensor<1x2048xf32>
      %60 = arith.addf %arg10, %59 : tensor<1x2048xf32>
      %61 = arith.select %47, %60, %arg10 : tensor<1x2048xi1>, tensor<1x2048xf32>
      scf.yield %61 : tensor<1x2048xf32>
    }
    %25 = "tt.reduce"(%24) <{axis = 1 : i32}> ({
    ^bb0(%arg9: f32, %arg10: f32):
      %42 = arith.addf %arg9, %arg10 : f32
      tt.reduce.return %42 : f32
    }) : (tensor<1x2048xf32>) -> tensor<1xf32>
    %26 = tt.expand_dims %25 {axis = 1 : i32} : (tensor<1xf32>) -> tensor<1x1xf32>
    %27 = arith.divf %26, %cst_3 : tensor<1x1xf32>
    %28 = arith.addf %27, %cst_2 : tensor<1x1xf32>
    %29 = tt.extern_elementwise %28 {libname = "libdevice", libpath = "/home/zeus/miniconda3/envs/cloudspace/lib/python3.10/site-packages/triton/language/../third_party/cuda/lib/libdevice.10.bc", pure = true, symbol = "__nv_rsqrtf"} : (tensor<1x1xf32>) -> tensor<1x1xf32>
    gpu.barrier
    %30 = tt.addptr %arg1, %0 : !tt.ptr<f32, 1>, i32
    %31 = tt.splat %30 : (!tt.ptr<f32, 1>) -> tensor<1x1x!tt.ptr<f32, 1>>
    tt.store %31, %29, %2 {cache = 1 : i32, evict = 1 : i32} : tensor<1x1xf32>
    %32 = arith.muli %0, %c2304_i32 : i32
    %33 = tt.splat %32 : (i32) -> tensor<1x2048xi32>
    %34 = tt.splat %arg2 : (!tt.ptr<bf16, 1>) -> tensor<1x2048x!tt.ptr<bf16, 1>>
    %35 = tt.splat %1 : (i1) -> tensor<1x2048xi1>
    %36 = tt.splat %arg3 : (!tt.ptr<f32, 1>) -> tensor<1x2048x!tt.ptr<f32, 1>>
    %37 = tt.splat %arg4 : (!tt.ptr<f32, 1>) -> tensor<1x2048x!tt.ptr<f32, 1>>
    %38 = tt.splat %arg5 : (!tt.ptr<f32, 1>) -> tensor<1x2048x!tt.ptr<f32, 1>>
    %39 = tt.broadcast %14 : (tensor<1x1xf32>) -> tensor<1x2048xf32>
    %40 = tt.broadcast %29 : (tensor<1x1xf32>) -> tensor<1x2048xf32>
    %41 = tt.splat %arg6 : (!tt.ptr<bf16, 1>) -> tensor<1x2048x!tt.ptr<bf16, 1>>
    scf.for %arg9 = %c0_i32 to %c2304_i32 step %c2048_i32  : i32 {
      %42 = tt.splat %arg9 : (i32) -> tensor<1x2048xi32>
      %43 = arith.addi %42, %4 : tensor<1x2048xi32>
      %44 = arith.cmpi slt, %43, %cst_4 : tensor<1x2048xi32>
      %45 = arith.addi %43, %33 : tensor<1x2048xi32>
      %46 = tt.addptr %34, %45 : tensor<1x2048x!tt.ptr<bf16, 1>>, tensor<1x2048xi32>
      %47 = arith.andi %44, %35 : tensor<1x2048xi1>
      %48 = tt.load %46, %47, %cst {cache = 1 : i32, evict = 2 : i32, isVolatile = false} : tensor<1x2048xbf16>
      %49 = arith.extf %48 : tensor<1x2048xbf16> to tensor<1x2048xf32>
      %50 = tt.addptr %36, %43 : tensor<1x2048x!tt.ptr<f32, 1>>, tensor<1x2048xi32>
      %51 = tt.load %50, %44, %cst_5 {cache = 1 : i32, evict = 3 : i32, isVolatile = false} : tensor<1x2048xf32>
      %52 = tt.addptr %37, %45 : tensor<1x2048x!tt.ptr<f32, 1>>, tensor<1x2048xi32>
      %53 = tt.load %52, %47, %cst_5 {cache = 1 : i32, evict = 2 : i32, isVolatile = false} : tensor<1x2048xf32>
      %54 = tt.addptr %38, %43 : tensor<1x2048x!tt.ptr<f32, 1>>, tensor<1x2048xi32>
      %55 = tt.load %54, %44, %cst_5 {cache = 1 : i32, evict = 3 : i32, isVolatile = false} : tensor<1x2048xf32>
      %56 = arith.mulf %49, %39 : tensor<1x2048xf32>
      %57 = arith.addf %51, %cst_1 : tensor<1x2048xf32>
      %58 = arith.mulf %56, %57 : tensor<1x2048xf32>
      %59 = arith.mulf %53, %cst_0 : tensor<1x2048xf32>
      %60 = arith.addf %58, %59 : tensor<1x2048xf32>
      %61 = arith.mulf %60, %40 : tensor<1x2048xf32>
      %62 = arith.addf %55, %cst_1 : tensor<1x2048xf32>
      %63 = arith.mulf %61, %62 : tensor<1x2048xf32>
      %64 = tt.addptr %41, %45 : tensor<1x2048x!tt.ptr<bf16, 1>>, tensor<1x2048xi32>
      %65 = arith.truncf %63 : tensor<1x2048xf32> to tensor<1x2048xbf16>
      tt.store %64, %65, %47 {cache = 1 : i32, evict = 1 : i32} : tensor<1x2048xbf16>
    }
    tt.return
  }
}
