module {
  tt.func public @triton__0d1d2d3d45de(%arg0: !tt.ptr<i64, 1> {tt.divisibility = 16 : i32}, %arg1: !tt.ptr<f32, 1> {tt.divisibility = 16 : i32}, %arg2: !tt.ptr<f32, 1> {tt.divisibility = 16 : i32}, %arg3: !tt.ptr<bf16, 1> {tt.divisibility = 16 : i32}, %arg4: i32, %arg5: i32 {tt.divisibility = 16 : i32, tt.max_divisibility = 16 : i32}) attributes {noinline = false} {
    %c4_i32 = arith.constant 4 : i32
    %true = arith.constant true
    %c2304_i32 = arith.constant 2304 : i32
    %c2048_i32 = arith.constant 2048 : i32
    %c0_i32 = arith.constant 0 : i32
    %cst = arith.constant dense<2304> : tensor<1x1xi64>
    %cst_0 = arith.constant dense<0> : tensor<1x1xi64>
    %cst_1 = arith.constant dense<288256> : tensor<1x1xi64>
    %cst_2 = arith.constant dense<1.000000e+00> : tensor<1x2048xf32>
    %cst_3 = arith.constant dense<9.99999974E-6> : tensor<1x1xf32>
    %cst_4 = arith.constant dense<2.304000e+03> : tensor<1x1xf32>
    %cst_5 = arith.constant dense<4.800000e+01> : tensor<1x2048xf32>
    %cst_6 = arith.constant dense<2304> : tensor<1x2048xi32>
    %cst_7 = arith.constant dense<0.000000e+00> : tensor<1x2048xf32>
    %0 = tt.get_program_id x : i32
    %1 = arith.cmpi slt, %0, %c4_i32 : i32
    %2 = tt.splat %1 : (i1) -> tensor<1x1xi1>
    %3 = tt.make_range {end = 2048 : i32, start = 0 : i32} : tensor<2048xi32>
    %4 = tt.expand_dims %3 {axis = 0 : i32} : (tensor<2048xi32>) -> tensor<1x2048xi32>
    %5 = tt.addptr %arg0, %0 : !tt.ptr<i64, 1>, i32
    %6 = tt.splat %5 : (!tt.ptr<i64, 1>) -> tensor<1x1x!tt.ptr<i64, 1>>
    %7 = tt.load %6, %2 {cache = 1 : i32, evict = 3 : i32, isVolatile = false} : tensor<1x1xi64>
    %8 = arith.addi %7, %cst_1 : tensor<1x1xi64>
    %9 = arith.cmpi slt, %7, %cst_0 : tensor<1x1xi64>
    %10 = arith.select %9, %8, %7 : tensor<1x1xi1>, tensor<1x1xi64>
    %11 = arith.cmpi sge, %10, %cst_0 : tensor<1x1xi64>
    %12 = arith.cmpi slt, %10, %cst_1 : tensor<1x1xi64>
    %13 = arith.andi %11, %12 : tensor<1x1xi1>
    %14 = arith.xori %1, %true : i1
    %15 = tt.splat %14 : (i1) -> tensor<1x1xi1>
    %16 = arith.ori %13, %15 : tensor<1x1xi1>
    %17 = arith.muli %10, %cst : tensor<1x1xi64>
    %18 = tt.broadcast %17 : (tensor<1x1xi64>) -> tensor<1x2048xi64>
    %19 = tt.splat %arg1 : (!tt.ptr<f32, 1>) -> tensor<1x2048x!tt.ptr<f32, 1>>
    %20 = tt.splat %1 : (i1) -> tensor<1x2048xi1>
    %21 = scf.for %arg6 = %c0_i32 to %c2304_i32 step %c2048_i32 iter_args(%arg7 = %cst_7) -> (tensor<1x2048xf32>)  : i32 {
      %43 = tt.splat %arg6 : (i32) -> tensor<1x2048xi32>
      %44 = arith.addi %43, %4 : tensor<1x2048xi32>
      %45 = arith.cmpi slt, %44, %cst_6 : tensor<1x2048xi32>
      tt.assert %16, "index out of bounds: 0 <= tmp3 < 288256", "<frozen importlib._bootstrap_external>", "_call_with_frames_removed", 883 : tensor<1x1xi1>
      %46 = arith.extsi %44 : tensor<1x2048xi32> to tensor<1x2048xi64>
      %47 = arith.addi %46, %18 : tensor<1x2048xi64>
      %48 = tt.addptr %19, %47 : tensor<1x2048x!tt.ptr<f32, 1>>, tensor<1x2048xi64>
      %49 = arith.andi %45, %20 : tensor<1x2048xi1>
      %50 = tt.load %48, %49, %cst_7 {cache = 1 : i32, evict = 3 : i32, isVolatile = false} : tensor<1x2048xf32>
      %51 = arith.mulf %50, %cst_5 : tensor<1x2048xf32>
      %52 = arith.mulf %51, %51 : tensor<1x2048xf32>
      %53 = arith.addf %arg7, %52 : tensor<1x2048xf32>
      %54 = arith.select %49, %53, %arg7 : tensor<1x2048xi1>, tensor<1x2048xf32>
      scf.yield %54 : tensor<1x2048xf32>
    }
    %22 = "tt.reduce"(%21) <{axis = 1 : i32}> ({
    ^bb0(%arg6: f32, %arg7: f32):
      %43 = arith.addf %arg6, %arg7 : f32
      tt.reduce.return %43 : f32
    }) : (tensor<1x2048xf32>) -> tensor<1xf32>
    %23 = tt.expand_dims %22 {axis = 1 : i32} : (tensor<1xf32>) -> tensor<1x1xf32>
    %24 = tt.splat %arg2 : (!tt.ptr<f32, 1>) -> tensor<1x2048x!tt.ptr<f32, 1>>
    %25 = arith.addi %7, %cst_1 : tensor<1x1xi64>
    %26 = arith.cmpi slt, %7, %cst_0 : tensor<1x1xi64>
    %27 = arith.select %26, %25, %7 : tensor<1x1xi1>, tensor<1x1xi64>
    %28 = arith.cmpi sge, %27, %cst_0 : tensor<1x1xi64>
    %29 = arith.cmpi slt, %27, %cst_1 : tensor<1x1xi64>
    %30 = arith.andi %28, %29 : tensor<1x1xi1>
    %31 = arith.xori %1, %true : i1
    %32 = tt.splat %31 : (i1) -> tensor<1x1xi1>
    %33 = arith.ori %30, %32 : tensor<1x1xi1>
    %34 = arith.muli %27, %cst : tensor<1x1xi64>
    %35 = tt.broadcast %34 : (tensor<1x1xi64>) -> tensor<1x2048xi64>
    %36 = tt.splat %arg1 : (!tt.ptr<f32, 1>) -> tensor<1x2048x!tt.ptr<f32, 1>>
    %37 = tt.splat %1 : (i1) -> tensor<1x2048xi1>
    %38 = arith.divf %23, %cst_4 : tensor<1x1xf32>
    %39 = arith.addf %38, %cst_3 : tensor<1x1xf32>
    %40 = arith.muli %0, %c2304_i32 : i32
    %41 = tt.splat %40 : (i32) -> tensor<1x2048xi32>
    %42 = tt.splat %arg3 : (!tt.ptr<bf16, 1>) -> tensor<1x2048x!tt.ptr<bf16, 1>>
    scf.for %arg6 = %c0_i32 to %c2304_i32 step %c2048_i32  : i32 {
      %43 = tt.splat %arg6 : (i32) -> tensor<1x2048xi32>
      %44 = arith.addi %43, %4 : tensor<1x2048xi32>
      %45 = arith.cmpi slt, %44, %cst_6 : tensor<1x2048xi32>
      %46 = tt.addptr %24, %44 : tensor<1x2048x!tt.ptr<f32, 1>>, tensor<1x2048xi32>
      %47 = tt.load %46, %45, %cst_7 {cache = 1 : i32, evict = 3 : i32, isVolatile = false} : tensor<1x2048xf32>
      tt.assert %33, "index out of bounds: 0 <= tmp13 < 288256", "<frozen importlib._bootstrap_external>", "_call_with_frames_removed", 883 : tensor<1x1xi1>
      %48 = arith.extsi %44 : tensor<1x2048xi32> to tensor<1x2048xi64>
      %49 = arith.addi %48, %35 : tensor<1x2048xi64>
      %50 = tt.addptr %36, %49 : tensor<1x2048x!tt.ptr<f32, 1>>, tensor<1x2048xi64>
      %51 = arith.andi %45, %37 : tensor<1x2048xi1>
      %52 = tt.load %50, %51, %cst_7 {cache = 1 : i32, evict = 2 : i32, isVolatile = false} : tensor<1x2048xf32>
      %53 = arith.mulf %52, %cst_5 : tensor<1x2048xf32>
      %54 = tt.extern_elementwise %39 {libname = "libdevice", libpath = "/home/zeus/miniconda3/envs/cloudspace/lib/python3.10/site-packages/triton/language/../third_party/cuda/lib/libdevice.10.bc", pure = true, symbol = "__nv_rsqrtf"} : (tensor<1x1xf32>) -> tensor<1x1xf32>
      %55 = tt.broadcast %54 : (tensor<1x1xf32>) -> tensor<1x2048xf32>
      %56 = arith.mulf %53, %55 : tensor<1x2048xf32>
      %57 = arith.addf %47, %cst_2 : tensor<1x2048xf32>
      %58 = arith.mulf %56, %57 : tensor<1x2048xf32>
      %59 = arith.addi %44, %41 : tensor<1x2048xi32>
      %60 = tt.addptr %42, %59 : tensor<1x2048x!tt.ptr<bf16, 1>>, tensor<1x2048xi32>
      %61 = arith.truncf %58 : tensor<1x2048xf32> to tensor<1x2048xbf16>
      tt.store %60, %61, %51 {cache = 1 : i32, evict = 1 : i32} : tensor<1x2048xbf16>
    }
    tt.return
  }
}
