module {
  tt.func public @triton__…(%arg0: !tt.ptr<bf16, 1> {tt.divisibility = 16 : i32}, %arg1: !tt.ptr<f32, 1> {tt.divisibility = 16 : i32}, %arg2: !tt.ptr<f32, 1> {tt.divisibility = 16 : i32}, %arg3: !tt.ptr<f32, 1> {tt.divisibility = 16 : i32}, %arg4: !tt.ptr<f32, 1> {tt.divisibility = 16 : i32}, %arg5: !tt.ptr<bf16, 1> {tt.divisibility = 16 : i32}, %arg6: !tt.ptr<f32, 1> {tt.divisibility = 16 : i32}, %arg7: !tt.ptr<f32, 1> {tt.divisibility = 16 : i32}, %arg8: !tt.ptr<bf16, 1> {tt.divisibility = 16 : i32}, %arg9: !tt.ptr<f32, 1> {tt.divisibility = 16 : i32}, %arg10: !tt.ptr<f32, 1> {tt.divisibility = 16 : i32}, %arg11: !tt.ptr<f32, 1> {tt.divisibility = 16 : i32}, %arg12: !tt.ptr<bf16, 1> {tt.divisibility = 16 : i32}, %arg13: !tt.ptr<f32, 1> {tt.divisibility = 16 : i32}, %arg14: !tt.ptr<f32, 1> {tt.divisibility = 16 : i32}, %arg15: !tt.ptr<bf16, 1> {tt.divisibility = 16 : i32}, %arg16: !tt.ptr<f32, 1> {tt.divisibility = 16 : i32}, %arg17: !tt.ptr<f32, 1> {tt.divisibility = 16 : i32}, %arg18: !tt.ptr<f32, 1> {tt.divisibility = 16 : i32}, %arg19: !tt.ptr<bf16, 1> {tt.divisibility = 16 : i32}, %arg20: !tt.ptr<f32, 1> {tt.divisibility = 16 : i32}, %arg21: !tt.ptr<f32, 1> {tt.divisibility = 16 : i32}, %arg22: !tt.ptr<bf16, 1> {tt.divisibility = 16 : i32}, %arg23: !tt.ptr<f32, 1> {tt.divisibility = 16 : i32}, %arg24: !tt.ptr<f32, 1> {tt.divisibility = 16 : i32}, %arg25: !tt.ptr<f32, 1> {tt.divisibility = 16 : i32}, %arg26: !tt.ptr<bf16, 1> {tt.divisibility = 16 : i32}, %arg27: !tt.ptr<f32, 1> {tt.divisibility = 16 : i32}, %arg28: !tt.ptr<f32, 1> {tt.divisibility = 16 : i32}, %arg29: !tt.ptr<bf16, 1> {tt.divisibility = 16 : i32}, %arg30: !tt.ptr<f32, 1> {tt.divisibility = 16 : i32}, %arg31: !tt.ptr<f32, 1> {tt.divisibility = 16 : i32}, %arg32: !tt.ptr<f32, 1> {tt.divisibility = 16 : i32}, %arg33: !tt.ptr<bf16, 1> {tt.divisibility = 16 : i32}, %arg34: !tt.ptr<f32, 1> {tt.divisibility = 16 : i32}, %arg35: !tt.ptr<f32, 1> {tt.divisibility = 16 : i32}, %arg36: !tt.ptr<bf16, 1> {tt.divisibility = 16 : i32}, %arg37: !tt.ptr<f32, 1> {tt.divisibility = 16 : i32}, %arg38: !tt.ptr<f32, 1> {tt.divisibility = 16 : i32}, %arg39: !tt.ptr<f32, 1> {tt.divisibility = 16 : i32}, %arg40: !tt.ptr<bf16, 1> {tt.divisibility = 16 : i32}, %arg41: !tt.ptr<f32, 1> {tt.divisibility = 16 : i32}, %arg42: !tt.ptr<f32, 1> {tt.divisibility = 16 : i32}, %arg43: !tt.ptr<bf16, 1> {tt.divisibility = 16 : i32}, %arg44: !tt.ptr<f32, 1> {tt.divisibility = 16 : i32}, %arg45: !tt.ptr<f32, 1> {tt.divisibility = 16 : i32}, %arg46: !tt.ptr<f32, 1> {tt.divisibility = 16 : i32}, %arg47: !tt.ptr<bf16, 1> {tt.divisibility = 16 : i32}, %arg48: !tt.ptr<f32, 1> {tt.divisibility = 16 : i32}, %arg49: !tt.ptr<f32, 1> {tt.divisibility = 16 : i32}, %arg50: !tt.ptr<bf16, 1> {tt.divisibility = 16 : i32}, %arg51: !tt.ptr<f32, 1> {tt.divisibility = 16 : i32}, %arg52: !tt.ptr<f32, 1> {tt.divisibility = 16 : i32}, %arg53: !tt.ptr<f32, 1> {tt.divisibility = 16 : i32}, %arg54: !tt.ptr<bf16, 1> {tt.divisibility = 16 : i32}, %arg55: !tt.ptr<f32, 1> {tt.divisibility = 16 : i32}, %arg56: !tt.ptr<f32, 1> {tt.divisibility = 16 : i32}, %arg57: !tt.ptr<bf16, 1> {tt.divisibility = 16 : i32}, %arg58: !tt.ptr<f32, 1> {tt.divisibility = 16 : i32}, %arg59: !tt.ptr<f32, 1> {tt.divisibility = 16 : i32}, %arg60: !tt.ptr<f32, 1> {tt.divisibility = 16 : i32}, %arg61: !tt.ptr<bf16, 1> {tt.divisibility = 16 : i32}, %arg62: !tt.ptr<f32, 1> {tt.divisibility = 16 : i32}, %arg63: !tt.ptr<f32, 1> {tt.divisibility = 16 : i32}, %arg64: !tt.ptr<bf16, 1> {tt.divisibility = 16 : i32}, %arg65: !tt.ptr<f32, 1> {tt.divisibility = 16 : i32}, %arg66: !tt.ptr<f32, 1> {tt.divisibility = 16 : i32}, %arg67: !tt.ptr<f32, 1> {tt.divisibility = 16 : i32}, %arg68: !tt.ptr<bf16, 1> {tt.divisibility = 16 : i32}, %arg69: !tt.ptr<f32, 1> {tt.divisibility = 16 : i32}, %arg70: !tt.ptr<f32, 1> {tt.divisibility = 16 : i32}, %arg71: !tt.ptr<bf16, 1> {tt.divisibility = 16 : i32}, %arg72: !tt.ptr<f32, 1> {tt.divisibility = 16 : i32}, %arg73: !tt.ptr<f32, 1> {tt.divisibility = 16 : i32}, %arg74: !tt.ptr<f32, 1> {tt.divisibility = 16 : i32}, %arg75: !tt.ptr<bf16, 1> {tt.divisibility = 16 : i32}, %arg76: !tt.ptr<f32, 1> {tt.divisibility = 16 : i32}, %arg77: !tt.ptr<f32, 1> {tt.divisibility = 16 : i32}, %arg78: !tt.ptr<bf16, 1> {tt.divisibility = 16 : i32}, %arg79: !tt.ptr<f32, 1> {tt.divisibility = 16 : i32}, %arg80: !tt.ptr<f32, 1> {tt.divisibility = 16 : i32}, %arg81: !tt.ptr<f32, 1> {tt.divisibility = 16 : i32}, %arg82: !tt.ptr<bf16, 1> {tt.divisibility = 16 : i32}, %arg83: !tt.ptr<f32, 1> {tt.divisibility = 16 : i32}, %arg84: !tt.ptr<f32, 1> {tt.divisibility = 16 : i32}, %arg85: !tt.ptr<bf16, 1> {tt.divisibility = 16 : i32}, %arg86: !tt.ptr<f32, 1> {tt.divisibility = 16 : i32}, %arg87: !tt.ptr<f32, 1> {tt.divisibility = 16 : i32}, %arg88: !tt.ptr<f32, 1> {tt.divisibility = 16 : i32}, %arg89: !tt.ptr<bf16, 1> {tt.divisibility = 16 : i32}, %arg90: !tt.ptr<f32, 1> {tt.divisibility = 16 : i32}, %arg91: !tt.ptr<f32, 1> {tt.divisibility = 16 : i32}, %arg92: !tt.ptr<bf16, 1> {tt.divisibility = 16 : i32}, %arg93: !tt.ptr<f32, 1> {tt.divisibility = 16 : i32}, %arg94: !tt.ptr<f32, 1> {tt.divisibility = 16 : i32}, %arg95: !tt.ptr<f32, 1> {tt.divisibility = 16 : i32}, %arg96: !tt.ptr<bf16, 1> {tt.divisibility = 16 : i32}, %arg97: !tt.ptr<f32, 1> {tt.divisibility = 16 : i32}, %arg98: !tt.ptr<f32, 1> {tt.divisibility = 16 : i32}, %arg99: !tt.ptr<bf16, 1> {tt.divisibility = 16 : i32}, %arg100: !tt.ptr<f32, 1> {tt.divisibility = 16 : i32}, %arg101: !tt.ptr<f32, 1> {tt.divisibility = 16 : i32}, %arg102: !tt.ptr<f32, 1> {tt.divisibility = 16 : i32}, %arg103: !tt.ptr<bf16, 1> {tt.divisibility = 16 : i32}, %arg104: !tt.ptr<f32, 1> {tt.divisibility = 16 : i32}, %arg105: !tt.ptr<f32, 1> {tt.divisibility = 16 : i32}, %arg106: !tt.ptr<bf16, 1> {tt.divisibility = 16 : i32}, %arg107: !tt.ptr<f32, 1> {tt.divisibility = 16 : i32}, %arg108: !tt.ptr<f32, 1> {tt.divisibility = 16 : i32}, %arg109: !tt.ptr<f32, 1> {tt.divisibility = 16 : i32}, %arg110: !tt.ptr<bf16, 1> {tt.divisibility = 16 : i32}, %arg111: !tt.ptr<f32, 1> {tt.divisibility = 16 : i32}, %arg112: !tt.ptr<f32, 1> {tt.divisibility = 16 : i32}, %arg113: !tt.ptr<bf16, 1> {tt.divisibility = 16 : i32}, %arg114: !tt.ptr<f32, 1> {tt.divisibility = 16 : i32}, %arg115: !tt.ptr<f32, 1> {tt.divisibility = 16 : i32}, %arg116: !tt.ptr<f32, 1> {tt.divisibility = 16 : i32}, %arg117: !tt.ptr<bf16, 1> {tt.divisibility = 16 : i32}, %arg118: !tt.ptr<f32, 1> {tt.divisibility = 16 : i32}, %arg119: !tt.ptr<f32, 1> {tt.divisibility = 16 : i32}, %arg120: !tt.ptr<bf16, 1> {tt.divisibility = 16 : i32}, %arg121: !tt.ptr<f32, 1> {tt.divisibility = 16 : i32}, %arg122: !tt.ptr<f32, 1> {tt.divisibility = 16 : i32}, %arg123: !tt.ptr<f32, 1> {tt.divisibility = 16 : i32}, %arg124: !tt.ptr<bf16, 1> {tt.divisibility = 16 : i32}, %arg125: !tt.ptr<f32, 1> {tt.divisibility = 16 : i32}, %arg126: !tt.ptr<f32, 1> {tt.divisibility = 16 : i32}, %arg127: !tt.ptr<bf16, 1> {tt.divisibility = 16 : i32}, %arg128: !tt.ptr<f32, 1> {tt.divisibility = 16 : i32}, %arg129: !tt.ptr<f32, 1> {tt.divisibility = 16 : i32}, %arg130: !tt.ptr<f32, 1> {tt.divisibility = 16 : i32}, %arg131: !tt.ptr<bf16, 1> {tt.divisibility = 16 : i32}, %arg132: !tt.ptr<f32, 1> {tt.divisibility = 16 : i32}, %arg133: !tt.ptr<f32, 1> {tt.divisibility = 16 : i32}, %arg134: !tt.ptr<bf16, 1> {tt.divisibility = 16 : i32}, %arg135: !tt.ptr<f32, 1> {tt.divisibility = 16 : i32}, %arg136: !tt.ptr<f32, 1> {tt.divisibility = 16 : i32}, %arg137: !tt.ptr<f32, 1> {tt.divisibility = 16 : i32}, %arg138: !tt.ptr<bf16, 1> {tt.divisibility = 16 : i32}, %arg139: !tt.ptr<f32, 1> {tt.divisibility = 16 : i32}, %arg140: !tt.ptr<f32, 1> {tt.divisibility = 16 : i32}, %arg141: !tt.ptr<bf16, 1> {tt.divisibility = 16 : i32}, %arg142: !tt.ptr<f32, 1> {tt.divisibility = 16 : i32}, %arg143: !tt.ptr<f32, 1> {tt.divisibility = 16 : i32}, %arg144: !tt.ptr<f32, 1> {tt.divisibility = 16 : i32}, %arg145: !tt.ptr<bf16, 1> {tt.divisibility = 16 : i32}, %arg146: !tt.ptr<f32, 1> {tt.divisibility = 16 : i32}, %arg147: !tt.ptr<f32, 1> {tt.divisibility = 16 : i32}, %arg148: !tt.ptr<bf16, 1> {tt.divisibility = 16 : i32}, %arg149: !tt.ptr<f32, 1> {tt.divisibility = 16 : i32}, %arg150: !tt.ptr<f32, 1> {tt.divisibility = 16 : i32}, %arg151: !tt.ptr<f32, 1> {tt.divisibility = 16 : i32}, %arg152: !tt.ptr<bf16, 1> {tt.divisibility = 16 : i32}, %arg153: !tt.ptr<f32, 1> {tt.divisibility = 16 : i32}, %arg154: !tt.ptr<f32, 1> {tt.divisibility = 16 : i32}, %arg155: !tt.ptr<bf16, 1> {tt.divisibility = 16 : i32}, %arg156: !tt.ptr<f32, 1> {tt.divisibility = 16 : i32}, %arg157: !tt.ptr<f32, 1> {tt.divisibility = 16 : i32}, %arg158: !tt.ptr<f32, 1> {tt.divisibility = 16 : i32}, %arg159: !tt.ptr<bf16, 1> {tt.divisibility = 16 : i32}, %arg160: !tt.ptr<f32, 1> {tt.divisibility = 16 : i32}, %arg161: !tt.ptr<f32, 1> {tt.divisibility = 16 : i32}, %arg162: !tt.ptr<bf16, 1> {tt.divisibility = 16 : i32}, %arg163: !tt.ptr<f32, 1> {tt.divisibility = 16 : i32}, %arg164: !tt.ptr<f32, 1> {tt.divisibility = 16 : i32}, %arg165: !tt.ptr<f32, 1> {tt.divisibility = 16 : i32}, %arg166: !tt.ptr<bf16, 1> {tt.divisibility = 16 : i32}, %arg167: !tt.ptr<f32, 1> {tt.divisibility = 16 : i32}, %arg168: !tt.ptr<f32, 1> {tt.divisibility = 16 : i32}, %arg169: !tt.ptr<bf16, 1> {tt.divisibility = 16 : i32}, %arg170: !tt.ptr<f32, 1> {tt.divisibility = 16 : i32}, %arg171: !tt.ptr<f32, 1> {tt.divisibility = 16 : i32}, %arg172: !tt.ptr<f32, 1> {tt.divisibility = 16 : i32}, %arg173: !tt.ptr<bf16, 1> {tt.divisibility = 16 : i32}, %arg174: !tt.ptr<f32, 1> {tt.divisibility = 16 : i32}, %arg175: !tt.ptr<f32, 1> {tt.divisibility = 16 : i32}, %arg176: !tt.ptr<bf16, 1> {tt.divisibility = 16 : i32}, %arg177: !tt.ptr<f32, 1> {tt.divisibility = 16 : i32}, %arg178: !tt.ptr<f32, 1> {tt.divisibility = 16 : i32}, %arg179: !tt.ptr<bf16, 1> {tt.divisibility = 16 : i32}, %arg180: !tt.ptr<f32, 1> {tt.divisibility = 16 : i32}, %arg181: !tt.ptr<f32, 1> {tt.divisibility = 16 : i32}, %arg182: !tt.ptr<bf16, 1> {tt.divisibility = 16 : i32}, %arg183: !tt.ptr<f32, 1> {tt.divisibility = 16 : i32}, %arg184: !tt.ptr<f32, 1> {tt.divisibility = 16 : i32}, %arg185: !tt.ptr<f32, 1> {tt.divisibility = 16 : i32}, %arg186: !tt.ptr<f32, 1> {tt.divisibility = 16 : i32}, %arg187: !tt.ptr<f32, 1> {tt.divisibility = 16 : i32}, %arg188: !tt.ptr<f32, 1> {tt.divisibility = 16 : i32}, %arg189: !tt.ptr<f32, 1> {tt.divisibility = 16 : i32}, %arg190: !tt.ptr<f32, 1> {tt.divisibility = 16 : i32}, %arg191: !tt.ptr<f32, 1> {tt.divisibility = 16 : i32}, %arg192: !tt.ptr<f32, 1> {tt.divisibility = 16 : i32}, %arg193: !tt.ptr<f32, 1> {tt.divisibility = 16 : i32}, %arg194: !tt.ptr<f32, 1> {tt.divisibility = 16 : i32}, %arg195: !tt.ptr<f32, 1> {tt.divisibility = 16 : i32}, %arg196: !tt.ptr<f32, 1> {tt.divisibility = 16 : i32}, %arg197: !tt.ptr<f32, 1> {tt.divisibility = 16 : i32}, %arg198: !tt.ptr<f32, 1> {tt.divisibility = 16 : i32}, %arg199: !tt.ptr<f32, 1> {tt.divisibility = 16 : i32}, %arg200: !tt.ptr<f32, 1> {tt.divisibility = 16 : i32}, %arg201: !tt.ptr<f32, 1> {tt.divisibility = 16 : i32}, %arg202: !tt.ptr<f32, 1> {tt.divisibility = 16 : i32}, %arg203: !tt.ptr<f32, 1> {tt.divisibility = 16 : i32}, %arg204: !tt.ptr<f32, 1> {tt.divisibility = 16 : i32}, %arg205: !tt.ptr<f32, 1> {tt.divisibility = 16 : i32}, %arg206: !tt.ptr<f32, 1> {tt.divisibility = 16 : i32}, %arg207: !tt.ptr<f32, 1> {tt.divisibility = 16 : i32}, %arg208: !tt.ptr<f32, 1> {tt.divisibility = 16 : i32}, %arg209: !tt.ptr<f32, 1> {tt.divisibility = 16 : i32}, %arg210: !tt.ptr<f32, 1> {tt.divisibility = 16 : i32}, %arg211: !tt.ptr<f32, 1> {tt.divisibility = 16 : i32}, %arg212: !tt.ptr<f32, 1> {tt.divisibility = 16 : i32}, %arg213: !tt.ptr<f32, 1> {tt.divisibility = 16 : i32}, %arg214: !tt.ptr<f32, 1> {tt.divisibility = 16 : i32}, %arg215: !tt.ptr<f32, 1> {tt.divisibility = 16 : i32}, %arg216: !tt.ptr<f32, 1> {tt.divisibility = 16 : i32}, %arg217: !tt.ptr<f32, 1> {tt.divisibility = 16 : i32}, %arg218: !tt.ptr<f32, 1> {tt.divisibility = 16 : i32}, %arg219: !tt.ptr<f32, 1> {tt.divisibility = 16 : i32}, %arg220: !tt.ptr<f32, 1> {tt.divisibility = 16 : i32}, %arg221: !tt.ptr<f32, 1> {tt.divisibility = 16 : i32}, %arg222: !tt.ptr<f32, 1> {tt.divisibility = 16 : i32}, %arg223: !tt.ptr<f32, 1> {tt.divisibility = 16 : i32}, %arg224: !tt.ptr<f32, 1> {tt.divisibility = 16 : i32}, %arg225: !tt.ptr<f32, 1> {tt.divisibility = 16 : i32}, %arg226: !tt.ptr<f32, 1> {tt.divisibility = 16 : i32}, %arg227: !tt.ptr<f32, 1> {tt.divisibility = 16 : i32}, %arg228: !tt.ptr<f32, 1> {tt.divisibility = 16 : i32}, %arg229: !tt.ptr<f32, 1> {tt.divisibility = 16 : i32}, %arg230: !tt.ptr<f32, 1> {tt.divisibility = 16 : i32}, %arg231: !tt.ptr<f32, 1> {tt.divisibility = 16 : i32}, %arg232: !tt.ptr<f32, 1> {tt.divisibility = 16 : i32}, %arg233: !tt.ptr<f32, 1> {tt.divisibility = 16 : i32}, %arg234: !tt.ptr<f32, 1> {tt.divisibility = 16 : i32}, %arg235: !tt.ptr<f32, 1> {tt.divisibility = 16 : i32}, %arg236: !tt.ptr<f32, 1> {tt.divisibility = 16 : i32}, %arg237: !tt.ptr<bf16, 1> {tt.divisibility = 16 : i32}, %arg238: i32, %arg239: i32 {tt.divisibility = 16 : i32, tt.max_divisibility = 16 : i32}) attributes {noinline = false} {
    %c4_i32 = arith.constant 4 : i32
    %cst = arith.constant dense<0.000000e+00> : tensor<1x2048xbf16>
    %c2304_i32 = arith.constant 2304 : i32
    %c2048_i32 = arith.constant 2048 : i32
    %c0_i32 = arith.constant 0 : i32
    %cst_0 = arith.constant dense<2.304000e+03> : tensor<1x1xf32>
    %cst_1 = arith.constant dense<-5.000000e-01> : tensor<1x1xf32>
    %cst_2 = arith.constant dense<4.800000e+01> : tensor<1x2048xf32>
    %cst_3 = arith.constant dense<1.000000e+00> : tensor<1x2048xf32>
    %cst_4 = arith.constant dense<2304> : tensor<1x2048xi32>
    %cst_5 = arith.constant dense<0.000000e+00> : tensor<1x2048xf32>
    %0 = tt.get_program_id x : i32
    %1 = arith.cmpi slt, %0, %c4_i32 : i32
    %2 = tt.splat %1 : (i1) -> tensor<1x1xi1>
    %3 = tt.make_range {end = 2048 : i32, start = 0 : i32} : tensor<2048xi32>
    %4 = tt.expand_dims %3 {axis = 0 : i32} : (tensor<2048xi32>) -> tensor<1x2048xi32>
    %5 = tt.addptr %arg1, %0 : !tt.ptr<f32, 1>, i32
    %6 = tt.splat %5 : (!tt.ptr<f32, 1>) -> tensor<1x1x!tt.ptr<f32, 1>>
    %7 = tt.load %6, %2 {cache = 1 : i32, evict = 3 : i32, isVolatile = false} : tensor<1x1xf32>
    %8 = tt.addptr %arg4, %0 : !tt.ptr<f32, 1>, i32
    %9 = tt.splat %8 : (!tt.ptr<f32, 1>) -> tensor<1x1x!tt.ptr<f32, 1>>
    %10 = tt.load %9, %2 {cache = 1 : i32, evict = 3 : i32, isVolatile = false} : tensor<1x1xf32>
    %11 = tt.addptr %arg6, %0 : !tt.ptr<f32, 1>, i32
    %12 = tt.splat %11 : (!tt.ptr<f32, 1>) -> tensor<1x1x!tt.ptr<f32, 1>>
    %13 = tt.load %12, %2 {cache = 1 : i32, evict = 3 : i32, isVolatile = false} : tensor<1x1xf32>
    %14 = tt.addptr %arg9, %0 : !tt.ptr<f32, 1>, i32
    %15 = tt.splat %14 : (!tt.ptr<f32, 1>) -> tensor<1x1x!tt.ptr<f32, 1>>
    %16 = tt.load %15, %2 {cache = 1 : i32, evict = 3 : i32, isVolatile = false} : tensor<1x1xf32>
    %17 = tt.addptr %arg11, %0 : !tt.ptr<f32, 1>, i32
    %18 = tt.splat %17 : (!tt.ptr<f32, 1>) -> tensor<1x1x!tt.ptr<f32, 1>>
    %19 = tt.load %18, %2 {cache = 1 : i32, evict = 3 : i32, isVolatile = false} : tensor<1x1xf32>
    %20 = tt.addptr %arg13, %0 : !tt.ptr<f32, 1>, i32
    %21 = tt.splat %20 : (!tt.ptr<f32, 1>) -> tensor<1x1x!tt.ptr<f32, 1>>
    %22 = tt.load %21, %2 {cache = 1 : i32, evict = 3 : i32, isVolatile = false} : tensor<1x1xf32>
    %23 = tt.addptr %arg16, %0 : !tt.ptr<f32, 1>, i32
    %24 = tt.splat %23 : (!tt.ptr<f32, 1>) -> tensor<1x1x!tt.ptr<f32, 1>>
    %25 = tt.load %24, %2 {cache = 1 : i32, evict = 3 : i32, isVolatile = false} : tensor<1x1xf32>
    %26 = tt.addptr %arg18, %0 : !tt.ptr<f32, 1>, i32
    %27 = tt.splat %26 : (!tt.ptr<f32, 1>) -> tensor<1x1x!tt.ptr<f32, 1>>
    %28 = tt.load %27, %2 {cache = 1 : i32, evict = 3 : i32, isVolatile = false} : tensor<1x1xf32>
    %29 = tt.addptr %arg20, %0 : !tt.ptr<f32, 1>, i32
    %30 = tt.splat %29 : (!tt.ptr<f32, 1>) -> tensor<1x1x!tt.ptr<f32, 1>>
    %31 = tt.load %30, %2 {cache = 1 : i32, evict = 3 : i32, isVolatile = false} : tensor<1x1xf32>
    %32 = tt.addptr %arg23, %0 : !tt.ptr<f32, 1>, i32
    %33 = tt.splat %32 : (!tt.ptr<f32, 1>) -> tensor<1x1x!tt.ptr<f32, 1>>
    %34 = tt.load %33, %2 {cache = 1 : i32, evict = 3 : i32, isVolatile = false} : tensor<1x1xf32>
    %35 = tt.addptr %arg25, %0 : !tt.ptr<f32, 1>, i32
    %36 = tt.splat %35 : (!tt.ptr<f32, 1>) -> tensor<1x1x!tt.ptr<f32, 1>>
    %37 = tt.load %36, %2 {cache = 1 : i32, evict = 3 : i32, isVolatile = false} : tensor<1x1xf32>
    %38 = tt.addptr %arg27, %0 : !tt.ptr<f32, 1>, i32
    %39 = tt.splat %38 : (!tt.ptr<f32, 1>) -> tensor<1x1x!tt.ptr<f32, 1>>
    %40 = tt.load %39, %2 {cache = 1 : i32, evict = 3 : i32, isVolatile = false} : tensor<1x1xf32>
    %41 = tt.addptr %arg30, %0 : !tt.ptr<f32, 1>, i32
    %42 = tt.splat %41 : (!tt.ptr<f32, 1>) -> tensor<1x1x!tt.ptr<f32, 1>>
    %43 = tt.load %42, %2 {cache = 1 : i32, evict = 3 : i32, isVolatile = false} : tensor<1x1xf32>
    %44 = tt.addptr %arg32, %0 : !tt.ptr<f32, 1>, i32
    %45 = tt.splat %44 : (!tt.ptr<f32, 1>) -> tensor<1x1x!tt.ptr<f32, 1>>
    %46 = tt.load %45, %2 {cache = 1 : i32, evict = 3 : i32, isVolatile = false} : tensor<1x1xf32>
    %47 = tt.addptr %arg34, %0 : !tt.ptr<f32, 1>, i32
    %48 = tt.splat %47 : (!tt.ptr<f32, 1>) -> tensor<1x1x!tt.ptr<f32, 1>>
    %49 = tt.load %48, %2 {cache = 1 : i32, evict = 3 : i32, isVolatile = false} : tensor<1x1xf32>
    %50 = tt.addptr %arg37, %0 : !tt.ptr<f32, 1>, i32
    %51 = tt.splat %50 : (!tt.ptr<f32, 1>) -> tensor<1x1x!tt.ptr<f32, 1>>
    %52 = tt.load %51, %2 {cache = 1 : i32, evict = 3 : i32, isVolatile = false} : tensor<1x1xf32>
    %53 = tt.addptr %arg39, %0 : !tt.ptr<f32, 1>, i32
    %54 = tt.splat %53 : (!tt.ptr<f32, 1>) -> tensor<1x1x!tt.ptr<f32, 1>>
    %55 = tt.load %54, %2 {cache = 1 : i32, evict = 3 : i32, isVolatile = false} : tensor<1x1xf32>
    %56 = tt.addptr %arg41, %0 : !tt.ptr<f32, 1>, i32
    %57 = tt.splat %56 : (!tt.ptr<f32, 1>) -> tensor<1x1x!tt.ptr<f32, 1>>
    %58 = tt.load %57, %2 {cache = 1 : i32, evict = 3 : i32, isVolatile = false} : tensor<1x1xf32>
    %59 = tt.addptr %arg44, %0 : !tt.ptr<f32, 1>, i32
    %60 = tt.splat %59 : (!tt.ptr<f32, 1>) -> tensor<1x1x!tt.ptr<f32, 1>>
    %61 = tt.load %60, %2 {cache = 1 : i32, evict = 3 : i32, isVolatile = false} : tensor<1x1xf32>
    %62 = tt.addptr %arg46, %0 : !tt.ptr<f32, 1>, i32
    %63 = tt.splat %62 : (!tt.ptr<f32, 1>) -> tensor<1x1x!tt.ptr<f32, 1>>
    %64 = tt.load %63, %2 {cache = 1 : i32, evict = 3 : i32, isVolatile = false} : tensor<1x1xf32>
    %65 = tt.addptr %arg48, %0 : !tt.ptr<f32, 1>, i32
    %66 = tt.splat %65 : (!tt.ptr<f32, 1>) -> tensor<1x1x!tt.ptr<f32, 1>>
    %67 = tt.load %66, %2 {cache = 1 : i32, evict = 3 : i32, isVolatile = false} : tensor<1x1xf32>
    %68 = tt.addptr %arg51, %0 : !tt.ptr<f32, 1>, i32
    %69 = tt.splat %68 : (!tt.ptr<f32, 1>) -> tensor<1x1x!tt.ptr<f32, 1>>
    %70 = tt.load %69, %2 {cache = 1 : i32, evict = 3 : i32, isVolatile = false} : tensor<1x1xf32>
    %71 = tt.addptr %arg53, %0 : !tt.ptr<f32, 1>, i32
    %72 = tt.splat %71 : (!tt.ptr<f32, 1>) -> tensor<1x1x!tt.ptr<f32, 1>>
    %73 = tt.load %72, %2 {cache = 1 : i32, evict = 3 : i32, isVolatile = false} : tensor<1x1xf32>
    %74 = tt.addptr %arg55, %0 : !tt.ptr<f32, 1>, i32
    %75 = tt.splat %74 : (!tt.ptr<f32, 1>) -> tensor<1x1x!tt.ptr<f32, 1>>
    %76 = tt.load %75, %2 {cache = 1 : i32, evict = 3 : i32, isVolatile = false} : tensor<1x1xf32>
    %77 = tt.addptr %arg58, %0 : !tt.ptr<f32, 1>, i32
    %78 = tt.splat %77 : (!tt.ptr<f32, 1>) -> tensor<1x1x!tt.ptr<f32, 1>>
    %79 = tt.load %78, %2 {cache = 1 : i32, evict = 3 : i32, isVolatile = false} : tensor<1x1xf32>
    %80 = tt.addptr %arg60, %0 : !tt.ptr<f32, 1>, i32
    %81 = tt.splat %80 : (!tt.ptr<f32, 1>) -> tensor<1x1x!tt.ptr<f32, 1>>
    %82 = tt.load %81, %2 {cache = 1 : i32, evict = 3 : i32, isVolatile = false} : tensor<1x1xf32>
    %83 = tt.addptr %arg62, %0 : !tt.ptr<f32, 1>, i32
    %84 = tt.splat %83 : (!tt.ptr<f32, 1>) -> tensor<1x1x!tt.ptr<f32, 1>>
    %85 = tt.load %84, %2 {cache = 1 : i32, evict = 3 : i32, isVolatile = false} : tensor<1x1xf32>
    %86 = tt.addptr %arg65, %0 : !tt.ptr<f32, 1>, i32
    %87 = tt.splat %86 : (!tt.ptr<f32, 1>) -> tensor<1x1x!tt.ptr<f32, 1>>
    %88 = tt.load %87, %2 {cache = 1 : i32, evict = 3 : i32, isVolatile = false} : tensor<1x1xf32>
    %89 = tt.addptr %arg67, %0 : !tt.ptr<f32, 1>, i32
    %90 = tt.splat %89 : (!tt.ptr<f32, 1>) -> tensor<1x1x!tt.ptr<f32, 1>>
    %91 = tt.load %90, %2 {cache = 1 : i32, evict = 3 : i32, isVolatile = false} : tensor<1x1xf32>
    %92 = tt.addptr %arg69, %0 : !tt.ptr<f32, 1>, i32
    %93 = tt.splat %92 : (!tt.ptr<f32, 1>) -> tensor<1x1x!tt.ptr<f32, 1>>
    %94 = tt.load %93, %2 {cache = 1 : i32, evict = 3 : i32, isVolatile = false} : tensor<1x1xf32>
    %95 = tt.addptr %arg72, %0 : !tt.ptr<f32, 1>, i32
    %96 = tt.splat %95 : (!tt.ptr<f32, 1>) -> tensor<1x1x!tt.ptr<f32, 1>>
    %97 = tt.load %96, %2 {cache = 1 : i32, evict = 3 : i32, isVolatile = false} : tensor<1x1xf32>
    %98 = tt.addptr %arg74, %0 : !tt.ptr<f32, 1>, i32
    %99 = tt.splat %98 : (!tt.ptr<f32, 1>) -> tensor<1x1x!tt.ptr<f32, 1>>
    %100 = tt.load %99, %2 {cache = 1 : i32, evict = 3 : i32, isVolatile = false} : tensor<1x1xf32>
    %101 = tt.addptr %arg76, %0 : !tt.ptr<f32, 1>, i32
    %102 = tt.splat %101 : (!tt.ptr<f32, 1>) -> tensor<1x1x!tt.ptr<f32, 1>>
    %103 = tt.load %102, %2 {cache = 1 : i32, evict = 3 : i32, isVolatile = false} : tensor<1x1xf32>
    %104 = tt.addptr %arg79, %0 : !tt.ptr<f32, 1>, i32
    %105 = tt.splat %104 : (!tt.ptr<f32, 1>) -> tensor<1x1x!tt.ptr<f32, 1>>
    %106 = tt.load %105, %2 {cache = 1 : i32, evict = 3 : i32, isVolatile = false} : tensor<1x1xf32>
    %107 = tt.addptr %arg81, %0 : !tt.ptr<f32, 1>, i32
    %108 = tt.splat %107 : (!tt.ptr<f32, 1>) -> tensor<1x1x!tt.ptr<f32, 1>>
    %109 = tt.load %108, %2 {cache = 1 : i32, evict = 3 : i32, isVolatile = false} : tensor<1x1xf32>
    %110 = tt.addptr %arg83, %0 : !tt.ptr<f32, 1>, i32
    %111 = tt.splat %110 : (!tt.ptr<f32, 1>) -> tensor<1x1x!tt.ptr<f32, 1>>
    %112 = tt.load %111, %2 {cache = 1 : i32, evict = 3 : i32, isVolatile = false} : tensor<1x1xf32>
    %113 = tt.addptr %arg86, %0 : !tt.ptr<f32, 1>, i32
    %114 = tt.splat %113 : (!tt.ptr<f32, 1>) -> tensor<1x1x!tt.ptr<f32, 1>>
    %115 = tt.load %114, %2 {cache = 1 : i32, evict = 3 : i32, isVolatile = false} : tensor<1x1xf32>
    %116 = tt.addptr %arg88, %0 : !tt.ptr<f32, 1>, i32
    %117 = tt.splat %116 : (!tt.ptr<f32, 1>) -> tensor<1x1x!tt.ptr<f32, 1>>
    %118 = tt.load %117, %2 {cache = 1 : i32, evict = 3 : i32, isVolatile = false} : tensor<1x1xf32>
    %119 = tt.addptr %arg90, %0 : !tt.ptr<f32, 1>, i32
    %120 = tt.splat %119 : (!tt.ptr<f32, 1>) -> tensor<1x1x!tt.ptr<f32, 1>>
    %121 = tt.load %120, %2 {cache = 1 : i32, evict = 3 : i32, isVolatile = false} : tensor<1x1xf32>
    %122 = tt.addptr %arg93, %0 : !tt.ptr<f32, 1>, i32
    %123 = tt.splat %122 : (!tt.ptr<f32, 1>) -> tensor<1x1x!tt.ptr<f32, 1>>
    %124 = tt.load %123, %2 {cache = 1 : i32, evict = 3 : i32, isVolatile = false} : tensor<1x1xf32>
    %125 = tt.addptr %arg95, %0 : !tt.ptr<f32, 1>, i32
    %126 = tt.splat %125 : (!tt.ptr<f32, 1>) -> tensor<1x1x!tt.ptr<f32, 1>>
    %127 = tt.load %126, %2 {cache = 1 : i32, evict = 3 : i32, isVolatile = false} : tensor<1x1xf32>
    %128 = tt.addptr %arg97, %0 : !tt.ptr<f32, 1>, i32
    %129 = tt.splat %128 : (!tt.ptr<f32, 1>) -> tensor<1x1x!tt.ptr<f32, 1>>
    %130 = tt.load %129, %2 {cache = 1 : i32, evict = 3 : i32, isVolatile = false} : tensor<1x1xf32>
    %131 = tt.addptr %arg100, %0 : !tt.ptr<f32, 1>, i32
    %132 = tt.splat %131 : (!tt.ptr<f32, 1>) -> tensor<1x1x!tt.ptr<f32, 1>>
    %133 = tt.load %132, %2 {cache = 1 : i32, evict = 3 : i32, isVolatile = false} : tensor<1x1xf32>
    %134 = tt.addptr %arg102, %0 : !tt.ptr<f32, 1>, i32
    %135 = tt.splat %134 : (!tt.ptr<f32, 1>) -> tensor<1x1x!tt.ptr<f32, 1>>
    %136 = tt.load %135, %2 {cache = 1 : i32, evict = 3 : i32, isVolatile = false} : tensor<1x1xf32>
    %137 = tt.addptr %arg104, %0 : !tt.ptr<f32, 1>, i32
    %138 = tt.splat %137 : (!tt.ptr<f32, 1>) -> tensor<1x1x!tt.ptr<f32, 1>>
    %139 = tt.load %138, %2 {cache = 1 : i32, evict = 3 : i32, isVolatile = false} : tensor<1x1xf32>
    %140 = tt.addptr %arg107, %0 : !tt.ptr<f32, 1>, i32
    %141 = tt.splat %140 : (!tt.ptr<f32, 1>) -> tensor<1x1x!tt.ptr<f32, 1>>
    %142 = tt.load %141, %2 {cache = 1 : i32, evict = 3 : i32, isVolatile = false} : tensor<1x1xf32>
    %143 = tt.addptr %arg109, %0 : !tt.ptr<f32, 1>, i32
    %144 = tt.splat %143 : (!tt.ptr<f32, 1>) -> tensor<1x1x!tt.ptr<f32, 1>>
    %145 = tt.load %144, %2 {cache = 1 : i32, evict = 3 : i32, isVolatile = false} : tensor<1x1xf32>
    %146 = tt.addptr %arg111, %0 : !tt.ptr<f32, 1>, i32
    %147 = tt.splat %146 : (!tt.ptr<f32, 1>) -> tensor<1x1x!tt.ptr<f32, 1>>
    %148 = tt.load %147, %2 {cache = 1 : i32, evict = 3 : i32, isVolatile = false} : tensor<1x1xf32>
    %149 = tt.addptr %arg114, %0 : !tt.ptr<f32, 1>, i32
    %150 = tt.splat %149 : (!tt.ptr<f32, 1>) -> tensor<1x1x!tt.ptr<f32, 1>>
    %151 = tt.load %150, %2 {cache = 1 : i32, evict = 3 : i32, isVolatile = false} : tensor<1x1xf32>
    %152 = tt.addptr %arg116, %0 : !tt.ptr<f32, 1>, i32
    %153 = tt.splat %152 : (!tt.ptr<f32, 1>) -> tensor<1x1x!tt.ptr<f32, 1>>
    %154 = tt.load %153, %2 {cache = 1 : i32, evict = 3 : i32, isVolatile = false} : tensor<1x1xf32>
    %155 = tt.addptr %arg118, %0 : !tt.ptr<f32, 1>, i32
    %156 = tt.splat %155 : (!tt.ptr<f32, 1>) -> tensor<1x1x!tt.ptr<f32, 1>>
    %157 = tt.load %156, %2 {cache = 1 : i32, evict = 3 : i32, isVolatile = false} : tensor<1x1xf32>
    %158 = tt.addptr %arg121, %0 : !tt.ptr<f32, 1>, i32
    %159 = tt.splat %158 : (!tt.ptr<f32, 1>) -> tensor<1x1x!tt.ptr<f32, 1>>
    %160 = tt.load %159, %2 {cache = 1 : i32, evict = 3 : i32, isVolatile = false} : tensor<1x1xf32>
    %161 = tt.addptr %arg123, %0 : !tt.ptr<f32, 1>, i32
    %162 = tt.splat %161 : (!tt.ptr<f32, 1>) -> tensor<1x1x!tt.ptr<f32, 1>>
    %163 = tt.load %162, %2 {cache = 1 : i32, evict = 3 : i32, isVolatile = false} : tensor<1x1xf32>
    %164 = tt.addptr %arg125, %0 : !tt.ptr<f32, 1>, i32
    %165 = tt.splat %164 : (!tt.ptr<f32, 1>) -> tensor<1x1x!tt.ptr<f32, 1>>
    %166 = tt.load %165, %2 {cache = 1 : i32, evict = 3 : i32, isVolatile = false} : tensor<1x1xf32>
    %167 = tt.addptr %arg128, %0 : !tt.ptr<f32, 1>, i32
    %168 = tt.splat %167 : (!tt.ptr<f32, 1>) -> tensor<1x1x!tt.ptr<f32, 1>>
    %169 = tt.load %168, %2 {cache = 1 : i32, evict = 3 : i32, isVolatile = false} : tensor<1x1xf32>
    %170 = tt.addptr %arg130, %0 : !tt.ptr<f32, 1>, i32
    %171 = tt.splat %170 : (!tt.ptr<f32, 1>) -> tensor<1x1x!tt.ptr<f32, 1>>
    %172 = tt.load %171, %2 {cache = 1 : i32, evict = 3 : i32, isVolatile = false} : tensor<1x1xf32>
    %173 = tt.addptr %arg132, %0 : !tt.ptr<f32, 1>, i32
    %174 = tt.splat %173 : (!tt.ptr<f32, 1>) -> tensor<1x1x!tt.ptr<f32, 1>>
    %175 = tt.load %174, %2 {cache = 1 : i32, evict = 3 : i32, isVolatile = false} : tensor<1x1xf32>
    %176 = tt.addptr %arg135, %0 : !tt.ptr<f32, 1>, i32
    %177 = tt.splat %176 : (!tt.ptr<f32, 1>) -> tensor<1x1x!tt.ptr<f32, 1>>
    %178 = tt.load %177, %2 {cache = 1 : i32, evict = 3 : i32, isVolatile = false} : tensor<1x1xf32>
    %179 = tt.addptr %arg137, %0 : !tt.ptr<f32, 1>, i32
    %180 = tt.splat %179 : (!tt.ptr<f32, 1>) -> tensor<1x1x!tt.ptr<f32, 1>>
    %181 = tt.load %180, %2 {cache = 1 : i32, evict = 3 : i32, isVolatile = false} : tensor<1x1xf32>
    %182 = tt.addptr %arg139, %0 : !tt.ptr<f32, 1>, i32
    %183 = tt.splat %182 : (!tt.ptr<f32, 1>) -> tensor<1x1x!tt.ptr<f32, 1>>
    %184 = tt.load %183, %2 {cache = 1 : i32, evict = 3 : i32, isVolatile = false} : tensor<1x1xf32>
    %185 = tt.addptr %arg142, %0 : !tt.ptr<f32, 1>, i32
    %186 = tt.splat %185 : (!tt.ptr<f32, 1>) -> tensor<1x1x!tt.ptr<f32, 1>>
    %187 = tt.load %186, %2 {cache = 1 : i32, evict = 3 : i32, isVolatile = false} : tensor<1x1xf32>
    %188 = tt.addptr %arg144, %0 : !tt.ptr<f32, 1>, i32
    %189 = tt.splat %188 : (!tt.ptr<f32, 1>) -> tensor<1x1x!tt.ptr<f32, 1>>
    %190 = tt.load %189, %2 {cache = 1 : i32, evict = 3 : i32, isVolatile = false} : tensor<1x1xf32>
    %191 = tt.addptr %arg146, %0 : !tt.ptr<f32, 1>, i32
    %192 = tt.splat %191 : (!tt.ptr<f32, 1>) -> tensor<1x1x!tt.ptr<f32, 1>>
    %193 = tt.load %192, %2 {cache = 1 : i32, evict = 3 : i32, isVolatile = false} : tensor<1x1xf32>
    %194 = tt.addptr %arg149, %0 : !tt.ptr<f32, 1>, i32
    %195 = tt.splat %194 : (!tt.ptr<f32, 1>) -> tensor<1x1x!tt.ptr<f32, 1>>
    %196 = tt.load %195, %2 {cache = 1 : i32, evict = 3 : i32, isVolatile = false} : tensor<1x1xf32>
    %197 = tt.addptr %arg151, %0 : !tt.ptr<f32, 1>, i32
    %198 = tt.splat %197 : (!tt.ptr<f32, 1>) -> tensor<1x1x!tt.ptr<f32, 1>>
    %199 = tt.load %198, %2 {cache = 1 : i32, evict = 3 : i32, isVolatile = false} : tensor<1x1xf32>
    %200 = tt.addptr %arg153, %0 : !tt.ptr<f32, 1>, i32
    %201 = tt.splat %200 : (!tt.ptr<f32, 1>) -> tensor<1x1x!tt.ptr<f32, 1>>
    %202 = tt.load %201, %2 {cache = 1 : i32, evict = 3 : i32, isVolatile = false} : tensor<1x1xf32>
    %203 = tt.addptr %arg156, %0 : !tt.ptr<f32, 1>, i32
    %204 = tt.splat %203 : (!tt.ptr<f32, 1>) -> tensor<1x1x!tt.ptr<f32, 1>>
    %205 = tt.load %204, %2 {cache = 1 : i32, evict = 3 : i32, isVolatile = false} : tensor<1x1xf32>
    %206 = tt.addptr %arg158, %0 : !tt.ptr<f32, 1>, i32
    %207 = tt.splat %206 : (!tt.ptr<f32, 1>) -> tensor<1x1x!tt.ptr<f32, 1>>
    %208 = tt.load %207, %2 {cache = 1 : i32, evict = 3 : i32, isVolatile = false} : tensor<1x1xf32>
    %209 = tt.addptr %arg160, %0 : !tt.ptr<f32, 1>, i32
    %210 = tt.splat %209 : (!tt.ptr<f32, 1>) -> tensor<1x1x!tt.ptr<f32, 1>>
    %211 = tt.load %210, %2 {cache = 1 : i32, evict = 3 : i32, isVolatile = false} : tensor<1x1xf32>
    %212 = tt.addptr %arg163, %0 : !tt.ptr<f32, 1>, i32
    %213 = tt.splat %212 : (!tt.ptr<f32, 1>) -> tensor<1x1x!tt.ptr<f32, 1>>
    %214 = tt.load %213, %2 {cache = 1 : i32, evict = 3 : i32, isVolatile = false} : tensor<1x1xf32>
    %215 = tt.addptr %arg165, %0 : !tt.ptr<f32, 1>, i32
    %216 = tt.splat %215 : (!tt.ptr<f32, 1>) -> tensor<1x1x!tt.ptr<f32, 1>>
    %217 = tt.load %216, %2 {cache = 1 : i32, evict = 3 : i32, isVolatile = false} : tensor<1x1xf32>
    %218 = tt.addptr %arg167, %0 : !tt.ptr<f32, 1>, i32
    %219 = tt.splat %218 : (!tt.ptr<f32, 1>) -> tensor<1x1x!tt.ptr<f32, 1>>
    %220 = tt.load %219, %2 {cache = 1 : i32, evict = 3 : i32, isVolatile = false} : tensor<1x1xf32>
    %221 = tt.addptr %arg170, %0 : !tt.ptr<f32, 1>, i32
    %222 = tt.splat %221 : (!tt.ptr<f32, 1>) -> tensor<1x1x!tt.ptr<f32, 1>>
    %223 = tt.load %222, %2 {cache = 1 : i32, evict = 3 : i32, isVolatile = false} : tensor<1x1xf32>
    %224 = tt.addptr %arg172, %0 : !tt.ptr<f32, 1>, i32
    %225 = tt.splat %224 : (!tt.ptr<f32, 1>) -> tensor<1x1x!tt.ptr<f32, 1>>
    %226 = tt.load %225, %2 {cache = 1 : i32, evict = 3 : i32, isVolatile = false} : tensor<1x1xf32>
    %227 = tt.addptr %arg174, %0 : !tt.ptr<f32, 1>, i32
    %228 = tt.splat %227 : (!tt.ptr<f32, 1>) -> tensor<1x1x!tt.ptr<f32, 1>>
    %229 = tt.load %228, %2 {cache = 1 : i32, evict = 3 : i32, isVolatile = false} : tensor<1x1xf32>
    %230 = tt.addptr %arg177, %0 : !tt.ptr<f32, 1>, i32
    %231 = tt.splat %230 : (!tt.ptr<f32, 1>) -> tensor<1x1x!tt.ptr<f32, 1>>
    %232 = tt.load %231, %2 {cache = 1 : i32, evict = 3 : i32, isVolatile = false} : tensor<1x1xf32>
    %233 = tt.addptr %arg180, %0 : !tt.ptr<f32, 1>, i32
    %234 = tt.splat %233 : (!tt.ptr<f32, 1>) -> tensor<1x1x!tt.ptr<f32, 1>>
    %235 = tt.load %234, %2 {cache = 1 : i32, evict = 3 : i32, isVolatile = false} : tensor<1x1xf32>
    %236 = arith.muli %0, %c2304_i32 : i32
    %237 = tt.splat %236 : (i32) -> tensor<1x2048xi32>
    %238 = tt.splat %arg0 : (!tt.ptr<bf16, 1>) -> tensor<1x2048x!tt.ptr<bf16, 1>>
    %239 = tt.splat %1 : (i1) -> tensor<1x2048xi1>
    %240 = tt.splat %arg2 : (!tt.ptr<f32, 1>) -> tensor<1x2048x!tt.ptr<f32, 1>>
    %241 = tt.splat %arg3 : (!tt.ptr<f32, 1>) -> tensor<1x2048x!tt.ptr<f32, 1>>
    %242 = tt.splat %arg5 : (!tt.ptr<bf16, 1>) -> tensor<1x2048x!tt.ptr<bf16, 1>>
    %243 = tt.splat %arg7 : (!tt.ptr<f32, 1>) -> tensor<1x2048x!tt.ptr<f32, 1>>
    %244 = tt.splat %arg8 : (!tt.ptr<bf16, 1>) -> tensor<1x2048x!tt.ptr<bf16, 1>>
    %245 = tt.splat %arg10 : (!tt.ptr<f32, 1>) -> tensor<1x2048x!tt.ptr<f32, 1>>
    %246 = tt.splat %arg12 : (!tt.ptr<bf16, 1>) -> tensor<1x2048x!tt.ptr<bf16, 1>>
    %247 = tt.splat %arg14 : (!tt.ptr<f32, 1>) -> tensor<1x2048x!tt.ptr<f32, 1>>
    %248 = tt.splat %arg15 : (!tt.ptr<bf16, 1>) -> tensor<1x2048x!tt.ptr<bf16, 1>>
    %249 = tt.splat %arg17 : (!tt.ptr<f32, 1>) -> tensor<1x2048x!tt.ptr<f32, 1>>
    %250 = tt.splat %arg19 : (!tt.ptr<bf16, 1>) -> tensor<1x2048x!tt.ptr<bf16, 1>>
    %251 = tt.splat %arg21 : (!tt.ptr<f32, 1>) -> tensor<1x2048x!tt.ptr<f32, 1>>
    %252 = tt.splat %arg22 : (!tt.ptr<bf16, 1>) -> tensor<1x2048x!tt.ptr<bf16, 1>>
    %253 = tt.splat %arg24 : (!tt.ptr<f32, 1>) -> tensor<1x2048x!tt.ptr<f32, 1>>
    %254 = tt.splat %arg26 : (!tt.ptr<bf16, 1>) -> tensor<1x2048x!tt.ptr<bf16, 1>>
    %255 = tt.splat %arg28 : (!tt.ptr<f32, 1>) -> tensor<1x2048x!tt.ptr<f32, 1>>
    %256 = tt.splat %arg29 : (!tt.ptr<bf16, 1>) -> tensor<1x2048x!tt.ptr<bf16, 1>>
    %257 = tt.splat %arg31 : (!tt.ptr<f32, 1>) -> tensor<1x2048x!tt.ptr<f32, 1>>
    %258 = tt.splat %arg33 : (!tt.ptr<bf16, 1>) -> tensor<1x2048x!tt.ptr<bf16, 1>>
    %259 = tt.splat %arg35 : (!tt.ptr<f32, 1>) -> tensor<1x2048x!tt.ptr<f32, 1>>
    %260 = tt.splat %arg36 : (!tt.ptr<bf16, 1>) -> tensor<1x2048x!tt.ptr<bf16, 1>>
    %261 = tt.splat %arg38 : (!tt.ptr<f32, 1>) -> tensor<1x2048x!tt.ptr<f32, 1>>
    %262 = tt.splat %arg40 : (!tt.ptr<bf16, 1>) -> tensor<1x2048x!tt.ptr<bf16, 1>>
    %263 = tt.splat %arg42 : (!tt.ptr<f32, 1>) -> tensor<1x2048x!tt.ptr<f32, 1>>
    %264 = tt.splat %arg43 : (!tt.ptr<bf16, 1>) -> tensor<1x2048x!tt.ptr<bf16, 1>>
    %265 = tt.splat %arg45 : (!tt.ptr<f32, 1>) -> tensor<1x2048x!tt.ptr<f32, 1>>
    %266 = tt.splat %arg47 : (!tt.ptr<bf16, 1>) -> tensor<1x2048x!tt.ptr<bf16, 1>>
    %267 = tt.splat %arg49 : (!tt.ptr<f32, 1>) -> tensor<1x2048x!tt.ptr<f32, 1>>
    %268 = tt.splat %arg50 : (!tt.ptr<bf16, 1>) -> tensor<1x2048x!tt.ptr<bf16, 1>>
    %269 = tt.splat %arg52 : (!tt.ptr<f32, 1>) -> tensor<1x2048x!tt.ptr<f32, 1>>
    %270 = tt.splat %arg54 : (!tt.ptr<bf16, 1>) -> tensor<1x2048x!tt.ptr<bf16, 1>>
    %271 = tt.splat %arg56 : (!tt.ptr<f32, 1>) -> tensor<1x2048x!tt.ptr<f32, 1>>
    %272 = tt.splat %arg57 : (!tt.ptr<bf16, 1>) -> tensor<1x2048x!tt.ptr<bf16, 1>>
    %273 = tt.splat %arg59 : (!tt.ptr<f32, 1>) -> tensor<1x2048x!tt.ptr<f32, 1>>
    %274 = tt.splat %arg61 : (!tt.ptr<bf16, 1>) -> tensor<1x2048x!tt.ptr<bf16, 1>>
    %275 = tt.splat %arg63 : (!tt.ptr<f32, 1>) -> tensor<1x2048x!tt.ptr<f32, 1>>
    %276 = tt.splat %arg64 : (!tt.ptr<bf16, 1>) -> tensor<1x2048x!tt.ptr<bf16, 1>>
    %277 = tt.splat %arg66 : (!tt.ptr<f32, 1>) -> tensor<1x2048x!tt.ptr<f32, 1>>
    %278 = tt.splat %arg68 : (!tt.ptr<bf16, 1>) -> tensor<1x2048x!tt.ptr<bf16, 1>>
    %279 = tt.splat %arg70 : (!tt.ptr<f32, 1>) -> tensor<1x2048x!tt.ptr<f32, 1>>
    %280 = tt.splat %arg71 : (!tt.ptr<bf16, 1>) -> tensor<1x2048x!tt.ptr<bf16, 1>>
    %281 = tt.splat %arg73 : (!tt.ptr<f32, 1>) -> tensor<1x2048x!tt.ptr<f32, 1>>
    %282 = tt.splat %arg75 : (!tt.ptr<bf16, 1>) -> tensor<1x2048x!tt.ptr<bf16, 1>>
    %283 = tt.splat %arg77 : (!tt.ptr<f32, 1>) -> tensor<1x2048x!tt.ptr<f32, 1>>
    %284 = tt.splat %arg78 : (!tt.ptr<bf16, 1>) -> tensor<1x2048x!tt.ptr<bf16, 1>>
    %285 = tt.splat %arg80 : (!tt.ptr<f32, 1>) -> tensor<1x2048x!tt.ptr<f32, 1>>
    %286 = tt.splat %arg82 : (!tt.ptr<bf16, 1>) -> tensor<1x2048x!tt.ptr<bf16, 1>>
    %287 = tt.splat %arg84 : (!tt.ptr<f32, 1>) -> tensor<1x2048x!tt.ptr<f32, 1>>
    %288 = tt.splat %arg85 : (!tt.ptr<bf16, 1>) -> tensor<1x2048x!tt.ptr<bf16, 1>>
    %289 = tt.splat %arg87 : (!tt.ptr<f32, 1>) -> tensor<1x2048x!tt.ptr<f32, 1>>
    %290 = tt.splat %arg89 : (!tt.ptr<bf16, 1>) -> tensor<1x2048x!tt.ptr<bf16, 1>>
    %291 = tt.splat %arg91 : (!tt.ptr<f32, 1>) -> tensor<1x2048x!tt.ptr<f32, 1>>
    %292 = tt.splat %arg92 : (!tt.ptr<bf16, 1>) -> tensor<1x2048x!tt.ptr<bf16, 1>>
    %293 = tt.splat %arg94 : (!tt.ptr<f32, 1>) -> tensor<1x2048x!tt.ptr<f32, 1>>
    %294 = tt.splat %arg96 : (!tt.ptr<bf16, 1>) -> tensor<1x2048x!tt.ptr<bf16, 1>>
    %295 = tt.splat %arg98 : (!tt.ptr<f32, 1>) -> tensor<1x2048x!tt.ptr<f32, 1>>
    %296 = tt.splat %arg99 : (!tt.ptr<bf16, 1>) -> tensor<1x2048x!tt.ptr<bf16, 1>>
    %297 = tt.splat %arg101 : (!tt.ptr<f32, 1>) -> tensor<1x2048x!tt.ptr<f32, 1>>
    %298 = tt.splat %arg103 : (!tt.ptr<bf16, 1>) -> tensor<1x2048x!tt.ptr<bf16, 1>>
    %299 = tt.splat %arg105 : (!tt.ptr<f32, 1>) -> tensor<1x2048x!tt.ptr<f32, 1>>
    %300 = tt.splat %arg106 : (!tt.ptr<bf16, 1>) -> tensor<1x2048x!tt.ptr<bf16, 1>>
    %301 = tt.splat %arg108 : (!tt.ptr<f32, 1>) -> tensor<1x2048x!tt.ptr<f32, 1>>
    %302 = tt.splat %arg110 : (!tt.ptr<bf16, 1>) -> tensor<1x2048x!tt.ptr<bf16, 1>>
    %303 = tt.splat %arg112 : (!tt.ptr<f32, 1>) -> tensor<1x2048x!tt.ptr<f32, 1>>
    %304 = tt.splat %arg113 : (!tt.ptr<bf16, 1>) -> tensor<1x2048x!tt.ptr<bf16, 1>>
    %305 = tt.splat %arg115 : (!tt.ptr<f32, 1>) -> tensor<1x2048x!tt.ptr<f32, 1>>
    %306 = tt.splat %arg117 : (!tt.ptr<bf16, 1>) -> tensor<1x2048x!tt.ptr<bf16, 1>>
    %307 = tt.splat %arg119 : (!tt.ptr<f32, 1>) -> tensor<1x2048x!tt.ptr<f32, 1>>
    %308 = tt.splat %arg120 : (!tt.ptr<bf16, 1>) -> tensor<1x2048x!tt.ptr<bf16, 1>>
    %309 = tt.splat %arg122 : (!tt.ptr<f32, 1>) -> tensor<1x2048x!tt.ptr<f32, 1>>
    %310 = tt.splat %arg124 : (!tt.ptr<bf16, 1>) -> tensor<1x2048x!tt.ptr<bf16, 1>>
    %311 = tt.splat %arg126 : (!tt.ptr<f32, 1>) -> tensor<1x2048x!tt.ptr<f32, 1>>
    %312 = tt.splat %arg127 : (!tt.ptr<bf16, 1>) -> tensor<1x2048x!tt.ptr<bf16, 1>>
    %313 = tt.splat %arg129 : (!tt.ptr<f32, 1>) -> tensor<1x2048x!tt.ptr<f32, 1>>
    %314 = tt.splat %arg131 : (!tt.ptr<bf16, 1>) -> tensor<1x2048x!tt.ptr<bf16, 1>>
    %315 = tt.splat %arg133 : (!tt.ptr<f32, 1>) -> tensor<1x2048x!tt.ptr<f32, 1>>
    %316 = tt.splat %arg134 : (!tt.ptr<bf16, 1>) -> tensor<1x2048x!tt.ptr<bf16, 1>>
    %317 = tt.splat %arg136 : (!tt.ptr<f32, 1>) -> tensor<1x2048x!tt.ptr<f32, 1>>
    %318 = tt.splat %arg138 : (!tt.ptr<bf16, 1>) -> tensor<1x2048x!tt.ptr<bf16, 1>>
    %319 = tt.splat %arg140 : (!tt.ptr<f32, 1>) -> tensor<1x2048x!tt.ptr<f32, 1>>
    %320 = tt.splat %arg141 : (!tt.ptr<bf16, 1>) -> tensor<1x2048x!tt.ptr<bf16, 1>>
    %321 = tt.splat %arg143 : (!tt.ptr<f32, 1>) -> tensor<1x2048x!tt.ptr<f32, 1>>
    %322 = tt.splat %arg145 : (!tt.ptr<bf16, 1>) -> tensor<1x2048x!tt.ptr<bf16, 1>>
    %323 = tt.splat %arg147 : (!tt.ptr<f32, 1>) -> tensor<1x2048x!tt.ptr<f32, 1>>
    %324 = tt.splat %arg148 : (!tt.ptr<bf16, 1>) -> tensor<1x2048x!tt.ptr<bf16, 1>>
    %325 = tt.splat %arg150 : (!tt.ptr<f32, 1>) -> tensor<1x2048x!tt.ptr<f32, 1>>
    %326 = tt.splat %arg152 : (!tt.ptr<bf16, 1>) -> tensor<1x2048x!tt.ptr<bf16, 1>>
    %327 = tt.splat %arg154 : (!tt.ptr<f32, 1>) -> tensor<1x2048x!tt.ptr<f32, 1>>
    %328 = tt.splat %arg155 : (!tt.ptr<bf16, 1>) -> tensor<1x2048x!tt.ptr<bf16, 1>>
    %329 = tt.splat %arg157 : (!tt.ptr<f32, 1>) -> tensor<1x2048x!tt.ptr<f32, 1>>
    %330 = tt.splat %arg159 : (!tt.ptr<bf16, 1>) -> tensor<1x2048x!tt.ptr<bf16, 1>>
    %331 = tt.splat %arg161 : (!tt.ptr<f32, 1>) -> tensor<1x2048x!tt.ptr<f32, 1>>
    %332 = tt.splat %arg162 : (!tt.ptr<bf16, 1>) -> tensor<1x2048x!tt.ptr<bf16, 1>>
    %333 = tt.splat %arg164 : (!tt.ptr<f32, 1>) -> tensor<1x2048x!tt.ptr<f32, 1>>
    %334 = tt.splat %arg166 : (!tt.ptr<bf16, 1>) -> tensor<1x2048x!tt.ptr<bf16, 1>>
    %335 = tt.splat %arg168 : (!tt.ptr<f32, 1>) -> tensor<1x2048x!tt.ptr<f32, 1>>
    %336 = tt.splat %arg169 : (!tt.ptr<bf16, 1>) -> tensor<1x2048x!tt.ptr<bf16, 1>>
    %337 = tt.splat %arg171 : (!tt.ptr<f32, 1>) -> tensor<1x2048x!tt.ptr<f32, 1>>
    %338 = tt.splat %arg173 : (!tt.ptr<bf16, 1>) -> tensor<1x2048x!tt.ptr<bf16, 1>>
    %339 = tt.splat %arg175 : (!tt.ptr<f32, 1>) -> tensor<1x2048x!tt.ptr<f32, 1>>
    %340 = tt.splat %arg176 : (!tt.ptr<bf16, 1>) -> tensor<1x2048x!tt.ptr<bf16, 1>>
    %341 = tt.splat %arg178 : (!tt.ptr<f32, 1>) -> tensor<1x2048x!tt.ptr<f32, 1>>
    %342 = tt.splat %arg179 : (!tt.ptr<bf16, 1>) -> tensor<1x2048x!tt.ptr<bf16, 1>>
    %343 = tt.splat %arg181 : (!tt.ptr<f32, 1>) -> tensor<1x2048x!tt.ptr<f32, 1>>
    %344 = tt.splat %arg182 : (!tt.ptr<bf16, 1>) -> tensor<1x2048x!tt.ptr<bf16, 1>>
    %345 = tt.splat %arg183 : (!tt.ptr<f32, 1>) -> tensor<1x2048x!tt.ptr<f32, 1>>
    %346 = tt.broadcast %7 : (tensor<1x1xf32>) -> tensor<1x2048xf32>
    %347 = tt.broadcast %10 : (tensor<1x1xf32>) -> tensor<1x2048xf32>
    %348 = tt.broadcast %13 : (tensor<1x1xf32>) -> tensor<1x2048xf32>
    %349 = tt.broadcast %16 : (tensor<1x1xf32>) -> tensor<1x2048xf32>
    %350 = tt.broadcast %19 : (tensor<1x1xf32>) -> tensor<1x2048xf32>
    %351 = tt.broadcast %22 : (tensor<1x1xf32>) -> tensor<1x2048xf32>
    %352 = tt.broadcast %25 : (tensor<1x1xf32>) -> tensor<1x2048xf32>
    %353 = tt.broadcast %28 : (tensor<1x1xf32>) -> tensor<1x2048xf32>
    %354 = tt.broadcast %31 : (tensor<1x1xf32>) -> tensor<1x2048xf32>
    %355 = tt.broadcast %34 : (tensor<1x1xf32>) -> tensor<1x2048xf32>
    %356 = tt.broadcast %37 : (tensor<1x1xf32>) -> tensor<1x2048xf32>
    %357 = tt.broadcast %40 : (tensor<1x1xf32>) -> tensor<1x2048xf32>
    %358 = tt.broadcast %43 : (tensor<1x1xf32>) -> tensor<1x2048xf32>
    %359 = tt.broadcast %46 : (tensor<1x1xf32>) -> tensor<1x2048xf32>
    %360 = tt.broadcast %49 : (tensor<1x1xf32>) -> tensor<1x2048xf32>
    %361 = tt.broadcast %52 : (tensor<1x1xf32>) -> tensor<1x2048xf32>
    %362 = tt.broadcast %55 : (tensor<1x1xf32>) -> tensor<1x2048xf32>
    %363 = tt.broadcast %58 : (tensor<1x1xf32>) -> tensor<1x2048xf32>
    %364 = tt.broadcast %61 : (tensor<1x1xf32>) -> tensor<1x2048xf32>
    %365 = tt.broadcast %64 : (tensor<1x1xf32>) -> tensor<1x2048xf32>
    %366 = tt.broadcast %67 : (tensor<1x1xf32>) -> tensor<1x2048xf32>
    %367 = tt.broadcast %70 : (tensor<1x1xf32>) -> tensor<1x2048xf32>
    %368 = tt.broadcast %73 : (tensor<1x1xf32>) -> tensor<1x2048xf32>
    %369 = tt.broadcast %76 : (tensor<1x1xf32>) -> tensor<1x2048xf32>
    %370 = tt.broadcast %79 : (tensor<1x1xf32>) -> tensor<1x2048xf32>
    %371 = tt.broadcast %82 : (tensor<1x1xf32>) -> tensor<1x2048xf32>
    %372 = tt.broadcast %85 : (tensor<1x1xf32>) -> tensor<1x2048xf32>
    %373 = tt.broadcast %88 : (tensor<1x1xf32>) -> tensor<1x2048xf32>
    %374 = tt.broadcast %91 : (tensor<1x1xf32>) -> tensor<1x2048xf32>
    %375 = tt.broadcast %94 : (tensor<1x1xf32>) -> tensor<1x2048xf32>
    %376 = tt.broadcast %97 : (tensor<1x1xf32>) -> tensor<1x2048xf32>
    %377 = tt.broadcast %100 : (tensor<1x1xf32>) -> tensor<1x2048xf32>
    %378 = tt.broadcast %103 : (tensor<1x1xf32>) -> tensor<1x2048xf32>
    %379 = tt.broadcast %106 : (tensor<1x1xf32>) -> tensor<1x2048xf32>
    %380 = tt.broadcast %109 : (tensor<1x1xf32>) -> tensor<1x2048xf32>
    %381 = tt.broadcast %112 : (tensor<1x1xf32>) -> tensor<1x2048xf32>
    %382 = tt.broadcast %115 : (tensor<1x1xf32>) -> tensor<1x2048xf32>
    %383 = tt.broadcast %118 : (tensor<1x1xf32>) -> tensor<1x2048xf32>
    %384 = tt.broadcast %121 : (tensor<1x1xf32>) -> tensor<1x2048xf32>
    %385 = tt.broadcast %124 : (tensor<1x1xf32>) -> tensor<1x2048xf32>
    %386 = tt.broadcast %127 : (tensor<1x1xf32>) -> tensor<1x2048xf32>
    %387 = tt.broadcast %130 : (tensor<1x1xf32>) -> tensor<1x2048xf32>
    %388 = tt.broadcast %133 : (tensor<1x1xf32>) -> tensor<1x2048xf32>
    %389 = tt.broadcast %136 : (tensor<1x1xf32>) -> tensor<1x2048xf32>
    %390 = tt.broadcast %139 : (tensor<1x1xf32>) -> tensor<1x2048xf32>
    %391 = tt.broadcast %142 : (tensor<1x1xf32>) -> tensor<1x2048xf32>
    %392 = tt.broadcast %145 : (tensor<1x1xf32>) -> tensor<1x2048xf32>
    %393 = tt.broadcast %148 : (tensor<1x1xf32>) -> tensor<1x2048xf32>
    %394 = tt.broadcast %151 : (tensor<1x1xf32>) -> tensor<1x2048xf32>
    %395 = tt.broadcast %154 : (tensor<1x1xf32>) -> tensor<1x2048xf32>
    %396 = tt.broadcast %157 : (tensor<1x1xf32>) -> tensor<1x2048xf32>
    %397 = tt.broadcast %160 : (tensor<1x1xf32>) -> tensor<1x2048xf32>
    %398 = tt.broadcast %163 : (tensor<1x1xf32>) -> tensor<1x2048xf32>
    %399 = tt.broadcast %166 : (tensor<1x1xf32>) -> tensor<1x2048xf32>
    %400 = tt.broadcast %169 : (tensor<1x1xf32>) -> tensor<1x2048xf32>
    %401 = tt.broadcast %172 : (tensor<1x1xf32>) -> tensor<1x2048xf32>
    %402 = tt.broadcast %175 : (tensor<1x1xf32>) -> tensor<1x2048xf32>
    %403 = tt.broadcast %178 : (tensor<1x1xf32>) -> tensor<1x2048xf32>
    %404 = tt.broadcast %181 : (tensor<1x1xf32>) -> tensor<1x2048xf32>
    %405 = tt.broadcast %184 : (tensor<1x1xf32>) -> tensor<1x2048xf32>
    %406 = tt.broadcast %187 : (tensor<1x1xf32>) -> tensor<1x2048xf32>
    %407 = tt.broadcast %190 : (tensor<1x1xf32>) -> tensor<1x2048xf32>
    %408 = tt.broadcast %193 : (tensor<1x1xf32>) -> tensor<1x2048xf32>
    %409 = tt.broadcast %196 : (tensor<1x1xf32>) -> tensor<1x2048xf32>
    %410 = tt.broadcast %199 : (tensor<1x1xf32>) -> tensor<1x2048xf32>
    %411 = tt.broadcast %202 : (tensor<1x1xf32>) -> tensor<1x2048xf32>
    %412 = tt.broadcast %205 : (tensor<1x1xf32>) -> tensor<1x2048xf32>
    %413 = tt.broadcast %208 : (tensor<1x1xf32>) -> tensor<1x2048xf32>
    %414 = tt.broadcast %211 : (tensor<1x1xf32>) -> tensor<1x2048xf32>
    %415 = tt.broadcast %214 : (tensor<1x1xf32>) -> tensor<1x2048xf32>
    %416 = tt.broadcast %217 : (tensor<1x1xf32>) -> tensor<1x2048xf32>
    %417 = tt.broadcast %220 : (tensor<1x1xf32>) -> tensor<1x2048xf32>
    %418 = tt.broadcast %223 : (tensor<1x1xf32>) -> tensor<1x2048xf32>
    %419 = tt.broadcast %226 : (tensor<1x1xf32>) -> tensor<1x2048xf32>
    %420 = tt.broadcast %229 : (tensor<1x1xf32>) -> tensor<1x2048xf32>
    %421 = tt.broadcast %232 : (tensor<1x1xf32>) -> tensor<1x2048xf32>
    %422 = tt.broadcast %235 : (tensor<1x1xf32>) -> tensor<1x2048xf32>
    %423 = tt.splat %arg185 : (!tt.ptr<f32, 1>) -> tensor<1x2048x!tt.ptr<f32, 1>>
    %424 = tt.splat %arg186 : (!tt.ptr<f32, 1>) -> tensor<1x2048x!tt.ptr<f32, 1>>
    %425 = tt.splat %arg187 : (!tt.ptr<f32, 1>) -> tensor<1x2048x!tt.ptr<f32, 1>>
    %426 = tt.splat %arg188 : (!tt.ptr<f32, 1>) -> tensor<1x2048x!tt.ptr<f32, 1>>
    %427 = tt.splat %arg189 : (!tt.ptr<f32, 1>) -> tensor<1x2048x!tt.ptr<f32, 1>>
    %428 = tt.splat %arg190 : (!tt.ptr<f32, 1>) -> tensor<1x2048x!tt.ptr<f32, 1>>
    %429 = tt.splat %arg191 : (!tt.ptr<f32, 1>) -> tensor<1x2048x!tt.ptr<f32, 1>>
    %430 = tt.splat %arg192 : (!tt.ptr<f32, 1>) -> tensor<1x2048x!tt.ptr<f32, 1>>
    %431 = tt.splat %arg193 : (!tt.ptr<f32, 1>) -> tensor<1x2048x!tt.ptr<f32, 1>>
    %432 = tt.splat %arg194 : (!tt.ptr<f32, 1>) -> tensor<1x2048x!tt.ptr<f32, 1>>
    %433 = tt.splat %arg195 : (!tt.ptr<f32, 1>) -> tensor<1x2048x!tt.ptr<f32, 1>>
    %434 = tt.splat %arg196 : (!tt.ptr<f32, 1>) -> tensor<1x2048x!tt.ptr<f32, 1>>
    %435 = tt.splat %arg197 : (!tt.ptr<f32, 1>) -> tensor<1x2048x!tt.ptr<f32, 1>>
    %436 = tt.splat %arg198 : (!tt.ptr<f32, 1>) -> tensor<1x2048x!tt.ptr<f32, 1>>
    %437 = tt.splat %arg199 : (!tt.ptr<f32, 1>) -> tensor<1x2048x!tt.ptr<f32, 1>>
    %438 = tt.splat %arg200 : (!tt.ptr<f32, 1>) -> tensor<1x2048x!tt.ptr<f32, 1>>
    %439 = tt.splat %arg201 : (!tt.ptr<f32, 1>) -> tensor<1x2048x!tt.ptr<f32, 1>>
    %440 = tt.splat %arg202 : (!tt.ptr<f32, 1>) -> tensor<1x2048x!tt.ptr<f32, 1>>
    %441 = tt.splat %arg203 : (!tt.ptr<f32, 1>) -> tensor<1x2048x!tt.ptr<f32, 1>>
    %442 = tt.splat %arg204 : (!tt.ptr<f32, 1>) -> tensor<1x2048x!tt.ptr<f32, 1>>
    %443 = tt.splat %arg205 : (!tt.ptr<f32, 1>) -> tensor<1x2048x!tt.ptr<f32, 1>>
    %444 = tt.splat %arg206 : (!tt.ptr<f32, 1>) -> tensor<1x2048x!tt.ptr<f32, 1>>
    %445 = tt.splat %arg207 : (!tt.ptr<f32, 1>) -> tensor<1x2048x!tt.ptr<f32, 1>>
    %446 = tt.splat %arg208 : (!tt.ptr<f32, 1>) -> tensor<1x2048x!tt.ptr<f32, 1>>
    %447 = tt.splat %arg209 : (!tt.ptr<f32, 1>) -> tensor<1x2048x!tt.ptr<f32, 1>>
    %448 = tt.splat %arg210 : (!tt.ptr<f32, 1>) -> tensor<1x2048x!tt.ptr<f32, 1>>
    %449 = tt.splat %arg211 : (!tt.ptr<f32, 1>) -> tensor<1x2048x!tt.ptr<f32, 1>>
    %450 = tt.splat %arg212 : (!tt.ptr<f32, 1>) -> tensor<1x2048x!tt.ptr<f32, 1>>
    %451 = tt.splat %arg213 : (!tt.ptr<f32, 1>) -> tensor<1x2048x!tt.ptr<f32, 1>>
    %452 = tt.splat %arg214 : (!tt.ptr<f32, 1>) -> tensor<1x2048x!tt.ptr<f32, 1>>
    %453 = tt.splat %arg215 : (!tt.ptr<f32, 1>) -> tensor<1x2048x!tt.ptr<f32, 1>>
    %454 = tt.splat %arg216 : (!tt.ptr<f32, 1>) -> tensor<1x2048x!tt.ptr<f32, 1>>
    %455 = tt.splat %arg217 : (!tt.ptr<f32, 1>) -> tensor<1x2048x!tt.ptr<f32, 1>>
    %456 = tt.splat %arg218 : (!tt.ptr<f32, 1>) -> tensor<1x2048x!tt.ptr<f32, 1>>
    %457 = tt.splat %arg219 : (!tt.ptr<f32, 1>) -> tensor<1x2048x!tt.ptr<f32, 1>>
    %458 = tt.splat %arg220 : (!tt.ptr<f32, 1>) -> tensor<1x2048x!tt.ptr<f32, 1>>
    %459 = tt.splat %arg221 : (!tt.ptr<f32, 1>) -> tensor<1x2048x!tt.ptr<f32, 1>>
    %460 = tt.splat %arg222 : (!tt.ptr<f32, 1>) -> tensor<1x2048x!tt.ptr<f32, 1>>
    %461 = tt.splat %arg223 : (!tt.ptr<f32, 1>) -> tensor<1x2048x!tt.ptr<f32, 1>>
    %462 = tt.splat %arg224 : (!tt.ptr<f32, 1>) -> tensor<1x2048x!tt.ptr<f32, 1>>
    %463 = tt.splat %arg225 : (!tt.ptr<f32, 1>) -> tensor<1x2048x!tt.ptr<f32, 1>>
    %464 = tt.splat %arg226 : (!tt.ptr<f32, 1>) -> tensor<1x2048x!tt.ptr<f32, 1>>
    %465 = tt.splat %arg227 : (!tt.ptr<f32, 1>) -> tensor<1x2048x!tt.ptr<f32, 1>>
    %466 = tt.splat %arg228 : (!tt.ptr<f32, 1>) -> tensor<1x2048x!tt.ptr<f32, 1>>
    %467 = tt.splat %arg229 : (!tt.ptr<f32, 1>) -> tensor<1x2048x!tt.ptr<f32, 1>>
    %468 = tt.splat %arg230 : (!tt.ptr<f32, 1>) -> tensor<1x2048x!tt.ptr<f32, 1>>
    %469 = tt.splat %arg231 : (!tt.ptr<f32, 1>) -> tensor<1x2048x!tt.ptr<f32, 1>>
    %470 = tt.splat %arg232 : (!tt.ptr<f32, 1>) -> tensor<1x2048x!tt.ptr<f32, 1>>
    %471 = tt.splat %arg233 : (!tt.ptr<f32, 1>) -> tensor<1x2048x!tt.ptr<f32, 1>>
    %472 = tt.splat %arg234 : (!tt.ptr<f32, 1>) -> tensor<1x2048x!tt.ptr<f32, 1>>
    %473 = tt.splat %arg235 : (!tt.ptr<f32, 1>) -> tensor<1x2048x!tt.ptr<f32, 1>>
    %474 = scf.for %arg240 = %c0_i32 to %c2304_i32 step %c2048_i32 iter_args(%arg241 = %cst_5) -> (tensor<1x2048xf32>)  : i32 {
      %513 = tt.splat %arg240 : (i32) -> tensor<1x2048xi32>
      %514 = arith.addi %513, %4 : tensor<1x2048xi32>
      %515 = arith.cmpi slt, %514, %cst_4 : tensor<1x2048xi32>
      %516 = arith.addi %514, %237 : tensor<1x2048xi32>
      %517 = tt.addptr %238, %516 : tensor<1x2048x!tt.ptr<bf16, 1>>, tensor<1x2048xi32>
      %518 = arith.andi %515, %239 : tensor<1x2048xi1>
      %519 = tt.load %517, %518, %cst {cache = 1 : i32, evict = 2 : i32, isVolatile = false} : tensor<1x2048xbf16>
      %520 = arith.extf %519 : tensor<1x2048xbf16> to tensor<1x2048xf32>
      %521 = tt.addptr %240, %514 : tensor<1x2048x!tt.ptr<f32, 1>>, tensor<1x2048xi32>
      %522 = tt.load %521, %515, %cst_5 {cache = 1 : i32, evict = 3 : i32, isVolatile = false} : tensor<1x2048xf32>
      %523 = tt.addptr %241, %516 : tensor<1x2048x!tt.ptr<f32, 1>>, tensor<1x2048xi32>
      %524 = tt.load %523, %518, %cst_5 {cache = 1 : i32, evict = 2 : i32, isVolatile = false} : tensor<1x2048xf32>
      %525 = tt.addptr %242, %516 : tensor<1x2048x!tt.ptr<bf16, 1>>, tensor<1x2048xi32>
      %526 = tt.load %525, %518, %cst {cache = 1 : i32, evict = 2 : i32, isVolatile = false} : tensor<1x2048xbf16>
      %527 = arith.extf %526 : tensor<1x2048xbf16> to tensor<1x2048xf32>
      %528 = tt.addptr %243, %514 : tensor<1x2048x!tt.ptr<f32, 1>>, tensor<1x2048xi32>
      %529 = tt.load %528, %515, %cst_5 {cache = 1 : i32, evict = 3 : i32, isVolatile = false} : tensor<1x2048xf32>
      %530 = tt.addptr %244, %516 : tensor<1x2048x!tt.ptr<bf16, 1>>, tensor<1x2048xi32>
      %531 = tt.load %530, %518, %cst {cache = 1 : i32, evict = 2 : i32, isVolatile = false} : tensor<1x2048xbf16>
      %532 = arith.extf %531 : tensor<1x2048xbf16> to tensor<1x2048xf32>
      %533 = tt.addptr %245, %514 : tensor<1x2048x!tt.ptr<f32, 1>>, tensor<1x2048xi32>
      %534 = tt.load %533, %515, %cst_5 {cache = 1 : i32, evict = 3 : i32, isVolatile = false} : tensor<1x2048xf32>
      %535 = tt.addptr %246, %516 : tensor<1x2048x!tt.ptr<bf16, 1>>, tensor<1x2048xi32>
      %536 = tt.load %535, %518, %cst {cache = 1 : i32, evict = 2 : i32, isVolatile = false} : tensor<1x2048xbf16>
      %537 = arith.extf %536 : tensor<1x2048xbf16> to tensor<1x2048xf32>
      %538 = tt.addptr %247, %514 : tensor<1x2048x!tt.ptr<f32, 1>>, tensor<1x2048xi32>
      %539 = tt.load %538, %515, %cst_5 {cache = 1 : i32, evict = 3 : i32, isVolatile = false} : tensor<1x2048xf32>
      %540 = tt.addptr %248, %516 : tensor<1x2048x!tt.ptr<bf16, 1>>, tensor<1x2048xi32>
      %541 = tt.load %540, %518, %cst {cache = 1 : i32, evict = 2 : i32, isVolatile = false} : tensor<1x2048xbf16>
      %542 = arith.extf %541 : tensor<1x2048xbf16> to tensor<1x2048xf32>
      %543 = tt.addptr %249, %514 : tensor<1x2048x!tt.ptr<f32, 1>>, tensor<1x2048xi32>
      %544 = tt.load %543, %515, %cst_5 {cache = 1 : i32, evict = 3 : i32, isVolatile = false} : tensor<1x2048xf32>
      %545 = tt.addptr %250, %516 : tensor<1x2048x!tt.ptr<bf16, 1>>, tensor<1x2048xi32>
      %546 = tt.load %545, %518, %cst {cache = 1 : i32, evict = 2 : i32, isVolatile = false} : tensor<1x2048xbf16>
      %547 = arith.extf %546 : tensor<1x2048xbf16> to tensor<1x2048xf32>
      %548 = tt.addptr %251, %514 : tensor<1x2048x!tt.ptr<f32, 1>>, tensor<1x2048xi32>
      %549 = tt.load %548, %515, %cst_5 {cache = 1 : i32, evict = 3 : i32, isVolatile = false} : tensor<1x2048xf32>
      %550 = tt.addptr %252, %516 : tensor<1x2048x!tt.ptr<bf16, 1>>, tensor<1x2048xi32>
      %551 = tt.load %550, %518, %cst {cache = 1 : i32, evict = 2 : i32, isVolatile = false} : tensor<1x2048xbf16>
      %552 = arith.extf %551 : tensor<1x2048xbf16> to tensor<1x2048xf32>
      %553 = tt.addptr %253, %514 : tensor<1x2048x!tt.ptr<f32, 1>>, tensor<1x2048xi32>
      %554 = tt.load %553, %515, %cst_5 {cache = 1 : i32, evict = 3 : i32, isVolatile = false} : tensor<1x2048xf32>
      %555 = tt.addptr %254, %516 : tensor<1x2048x!tt.ptr<bf16, 1>>, tensor<1x2048xi32>
      %556 = tt.load %555, %518, %cst {cache = 1 : i32, evict = 2 : i32, isVolatile = false} : tensor<1x2048xbf16>
      %557 = arith.extf %556 : tensor<1x2048xbf16> to tensor<1x2048xf32>
      %558 = tt.addptr %255, %514 : tensor<1x2048x!tt.ptr<f32, 1>>, tensor<1x2048xi32>
      %559 = tt.load %558, %515, %cst_5 {cache = 1 : i32, evict = 3 : i32, isVolatile = false} : tensor<1x2048xf32>
      %560 = tt.addptr %256, %516 : tensor<1x2048x!tt.ptr<bf16, 1>>, tensor<1x2048xi32>
      %561 = tt.load %560, %518, %cst {cache = 1 : i32, evict = 2 : i32, isVolatile = false} : tensor<1x2048xbf16>
      %562 = arith.extf %561 : tensor<1x2048xbf16> to tensor<1x2048xf32>
      %563 = tt.addptr %257, %514 : tensor<1x2048x!tt.ptr<f32, 1>>, tensor<1x2048xi32>
      %564 = tt.load %563, %515, %cst_5 {cache = 1 : i32, evict = 3 : i32, isVolatile = false} : tensor<1x2048xf32>
      %565 = tt.addptr %258, %516 : tensor<1x2048x!tt.ptr<bf16, 1>>, tensor<1x2048xi32>
      %566 = tt.load %565, %518, %cst {cache = 1 : i32, evict = 2 : i32, isVolatile = false} : tensor<1x2048xbf16>
      %567 = arith.extf %566 : tensor<1x2048xbf16> to tensor<1x2048xf32>
      %568 = tt.addptr %259, %514 : tensor<1x2048x!tt.ptr<f32, 1>>, tensor<1x2048xi32>
      %569 = tt.load %568, %515, %cst_5 {cache = 1 : i32, evict = 3 : i32, isVolatile = false} : tensor<1x2048xf32>
      %570 = tt.addptr %260, %516 : tensor<1x2048x!tt.ptr<bf16, 1>>, tensor<1x2048xi32>
      %571 = tt.load %570, %518, %cst {cache = 1 : i32, evict = 2 : i32, isVolatile = false} : tensor<1x2048xbf16>
      %572 = arith.extf %571 : tensor<1x2048xbf16> to tensor<1x2048xf32>
      %573 = tt.addptr %261, %514 : tensor<1x2048x!tt.ptr<f32, 1>>, tensor<1x2048xi32>
      %574 = tt.load %573, %515, %cst_5 {cache = 1 : i32, evict = 3 : i32, isVolatile = false} : tensor<1x2048xf32>
      %575 = tt.addptr %262, %516 : tensor<1x2048x!tt.ptr<bf16, 1>>, tensor<1x2048xi32>
      %576 = tt.load %575, %518, %cst {cache = 1 : i32, evict = 2 : i32, isVolatile = false} : tensor<1x2048xbf16>
      %577 = arith.extf %576 : tensor<1x2048xbf16> to tensor<1x2048xf32>
      %578 = tt.addptr %263, %514 : tensor<1x2048x!tt.ptr<f32, 1>>, tensor<1x2048xi32>
      %579 = tt.load %578, %515, %cst_5 {cache = 1 : i32, evict = 3 : i32, isVolatile = false} : tensor<1x2048xf32>
      %580 = tt.addptr %264, %516 : tensor<1x2048x!tt.ptr<bf16, 1>>, tensor<1x2048xi32>
      %581 = tt.load %580, %518, %cst {cache = 1 : i32, evict = 2 : i32, isVolatile = false} : tensor<1x2048xbf16>
      %582 = arith.extf %581 : tensor<1x2048xbf16> to tensor<1x2048xf32>
      %583 = tt.addptr %265, %514 : tensor<1x2048x!tt.ptr<f32, 1>>, tensor<1x2048xi32>
      %584 = tt.load %583, %515, %cst_5 {cache = 1 : i32, evict = 3 : i32, isVolatile = false} : tensor<1x2048xf32>
      %585 = tt.addptr %266, %516 : tensor<1x2048x!tt.ptr<bf16, 1>>, tensor<1x2048xi32>
      %586 = tt.load %585, %518, %cst {cache = 1 : i32, evict = 2 : i32, isVolatile = false} : tensor<1x2048xbf16>
      %587 = arith.extf %586 : tensor<1x2048xbf16> to tensor<1x2048xf32>
      %588 = tt.addptr %267, %514 : tensor<1x2048x!tt.ptr<f32, 1>>, tensor<1x2048xi32>
      %589 = tt.load %588, %515, %cst_5 {cache = 1 : i32, evict = 3 : i32, isVolatile = false} : tensor<1x2048xf32>
      %590 = tt.addptr %268, %516 : tensor<1x2048x!tt.ptr<bf16, 1>>, tensor<1x2048xi32>
      %591 = tt.load %590, %518, %cst {cache = 1 : i32, evict = 2 : i32, isVolatile = false} : tensor<1x2048xbf16>
      %592 = arith.extf %591 : tensor<1x2048xbf16> to tensor<1x2048xf32>
      %593 = tt.addptr %269, %514 : tensor<1x2048x!tt.ptr<f32, 1>>, tensor<1x2048xi32>
      %594 = tt.load %593, %515, %cst_5 {cache = 1 : i32, evict = 3 : i32, isVolatile = false} : tensor<1x2048xf32>
      %595 = tt.addptr %270, %516 : tensor<1x2048x!tt.ptr<bf16, 1>>, tensor<1x2048xi32>
      %596 = tt.load %595, %518, %cst {cache = 1 : i32, evict = 2 : i32, isVolatile = false} : tensor<1x2048xbf16>
      %597 = arith.extf %596 : tensor<1x2048xbf16> to tensor<1x2048xf32>
      %598 = tt.addptr %271, %514 : tensor<1x2048x!tt.ptr<f32, 1>>, tensor<1x2048xi32>
      %599 = tt.load %598, %515, %cst_5 {cache = 1 : i32, evict = 3 : i32, isVolatile = false} : tensor<1x2048xf32>
      %600 = tt.addptr %272, %516 : tensor<1x2048x!tt.ptr<bf16, 1>>, tensor<1x2048xi32>
      %601 = tt.load %600, %518, %cst {cache = 1 : i32, evict = 2 : i32, isVolatile = false} : tensor<1x2048xbf16>
      %602 = arith.extf %601 : tensor<1x2048xbf16> to tensor<1x2048xf32>
      %603 = tt.addptr %273, %514 : tensor<1x2048x!tt.ptr<f32, 1>>, tensor<1x2048xi32>
      %604 = tt.load %603, %515, %cst_5 {cache = 1 : i32, evict = 3 : i32, isVolatile = false} : tensor<1x2048xf32>
      %605 = tt.addptr %274, %516 : tensor<1x2048x!tt.ptr<bf16, 1>>, tensor<1x2048xi32>
      %606 = tt.load %605, %518, %cst {cache = 1 : i32, evict = 2 : i32, isVolatile = false} : tensor<1x2048xbf16>
      %607 = arith.extf %606 : tensor<1x2048xbf16> to tensor<1x2048xf32>
      %608 = tt.addptr %275, %514 : tensor<1x2048x!tt.ptr<f32, 1>>, tensor<1x2048xi32>
      %609 = tt.load %608, %515, %cst_5 {cache = 1 : i32, evict = 3 : i32, isVolatile = false} : tensor<1x2048xf32>
      %610 = tt.addptr %276, %516 : tensor<1x2048x!tt.ptr<bf16, 1>>, tensor<1x2048xi32>
      %611 = tt.load %610, %518, %cst {cache = 1 : i32, evict = 2 : i32, isVolatile = false} : tensor<1x2048xbf16>
      %612 = arith.extf %611 : tensor<1x2048xbf16> to tensor<1x2048xf32>
      %613 = tt.addptr %277, %514 : tensor<1x2048x!tt.ptr<f32, 1>>, tensor<1x2048xi32>
      %614 = tt.load %613, %515, %cst_5 {cache = 1 : i32, evict = 3 : i32, isVolatile = false} : tensor<1x2048xf32>
      %615 = tt.addptr %278, %516 : tensor<1x2048x!tt.ptr<bf16, 1>>, tensor<1x2048xi32>
      %616 = tt.load %615, %518, %cst {cache = 1 : i32, evict = 2 : i32, isVolatile = false} : tensor<1x2048xbf16>
      %617 = arith.extf %616 : tensor<1x2048xbf16> to tensor<1x2048xf32>
      %618 = tt.addptr %279, %514 : tensor<1x2048x!tt.ptr<f32, 1>>, tensor<1x2048xi32>
      %619 = tt.load %618, %515, %cst_5 {cache = 1 : i32, evict = 3 : i32, isVolatile = false} : tensor<1x2048xf32>
      %620 = tt.addptr %280, %516 : tensor<1x2048x!tt.ptr<bf16, 1>>, tensor<1x2048xi32>
      %621 = tt.load %620, %518, %cst {cache = 1 : i32, evict = 2 : i32, isVolatile = false} : tensor<1x2048xbf16>
      %622 = arith.extf %621 : tensor<1x2048xbf16> to tensor<1x2048xf32>
      %623 = tt.addptr %281, %514 : tensor<1x2048x!tt.ptr<f32, 1>>, tensor<1x2048xi32>
      %624 = tt.load %623, %515, %cst_5 {cache = 1 : i32, evict = 3 : i32, isVolatile = false} : tensor<1x2048xf32>
      %625 = tt.addptr %282, %516 : tensor<1x2048x!tt.ptr<bf16, 1>>, tensor<1x2048xi32>
      %626 = tt.load %625, %518, %cst {cache = 1 : i32, evict = 2 : i32, isVolatile = false} : tensor<1x2048xbf16>
      %627 = arith.extf %626 : tensor<1x2048xbf16> to tensor<1x2048xf32>
      %628 = tt.addptr %283, %514 : tensor<1x2048x!tt.ptr<f32, 1>>, tensor<1x2048xi32>
      %629 = tt.load %628, %515, %cst_5 {cache = 1 : i32, evict = 3 : i32, isVolatile = false} : tensor<1x2048xf32>
      %630 = tt.addptr %284, %516 : tensor<1x2048x!tt.ptr<bf16, 1>>, tensor<1x2048xi32>
      %631 = tt.load %630, %518, %cst {cache = 1 : i32, evict = 2 : i32, isVolatile = false} : tensor<1x2048xbf16>
      %632 = arith.extf %631 : tensor<1x2048xbf16> to tensor<1x2048xf32>
      %633 = tt.addptr %285, %514 : tensor<1x2048x!tt.ptr<f32, 1>>, tensor<1x2048xi32>
      %634 = tt.load %633, %515, %cst_5 {cache = 1 : i32, evict = 3 : i32, isVolatile = false} : tensor<1x2048xf32>
      %635 = tt.addptr %286, %516 : tensor<1x2048x!tt.ptr<bf16, 1>>, tensor<1x2048xi32>
      %636 = tt.load %635, %518, %cst {cache = 1 : i32, evict = 2 : i32, isVolatile = false} : tensor<1x2048xbf16>
      %637 = arith.extf %636 : tensor<1x2048xbf16> to tensor<1x2048xf32>
      %638 = tt.addptr %287, %514 : tensor<1x2048x!tt.ptr<f32, 1>>, tensor<1x2048xi32>
      %639 = tt.load %638, %515, %cst_5 {cache = 1 : i32, evict = 3 : i32, isVolatile = false} : tensor<1x2048xf32>
      %640 = tt.addptr %288, %516 : tensor<1x2048x!tt.ptr<bf16, 1>>, tensor<1x2048xi32>
      %641 = tt.load %640, %518, %cst {cache = 1 : i32, evict = 2 : i32, isVolatile = false} : tensor<1x2048xbf16>
      %642 = arith.extf %641 : tensor<1x2048xbf16> to tensor<1x2048xf32>
      %643 = tt.addptr %289, %514 : tensor<1x2048x!tt.ptr<f32, 1>>, tensor<1x2048xi32>
      %644 = tt.load %643, %515, %cst_5 {cache = 1 : i32, evict = 3 : i32, isVolatile = false} : tensor<1x2048xf32>
      %645 = tt.addptr %290, %516 : tensor<1x2048x!tt.ptr<bf16, 1>>, tensor<1x2048xi32>
      %646 = tt.load %645, %518, %cst {cache = 1 : i32, evict = 2 : i32, isVolatile = false} : tensor<1x2048xbf16>
      %647 = arith.extf %646 : tensor<1x2048xbf16> to tensor<1x2048xf32>
      %648 = tt.addptr %291, %514 : tensor<1x2048x!tt.ptr<f32, 1>>, tensor<1x2048xi32>
      %649 = tt.load %648, %515, %cst_5 {cache = 1 : i32, evict = 3 : i32, isVolatile = false} : tensor<1x2048xf32>
      %650 = tt.addptr %292, %516 : tensor<1x2048x!tt.ptr<bf16, 1>>, tensor<1x2048xi32>
      %651 = tt.load %650, %518, %cst {cache = 1 : i32, evict = 2 : i32, isVolatile = false} : tensor<1x2048xbf16>
      %652 = arith.extf %651 : tensor<1x2048xbf16> to tensor<1x2048xf32>
      %653 = tt.addptr %293, %514 : tensor<1x2048x!tt.ptr<f32, 1>>, tensor<1x2048xi32>
      %654 = tt.load %653, %515, %cst_5 {cache = 1 : i32, evict = 3 : i32, isVolatile = false} : tensor<1x2048xf32>
      %655 = tt.addptr %294, %516 : tensor<1x2048x!tt.ptr<bf16, 1>>, tensor<1x2048xi32>
      %656 = tt.load %655, %518, %cst {cache = 1 : i32, evict = 2 : i32, isVolatile = false} : tensor<1x2048xbf16>
      %657 = arith.extf %656 : tensor<1x2048xbf16> to tensor<1x2048xf32>
      %658 = tt.addptr %295, %514 : tensor<1x2048x!tt.ptr<f32, 1>>, tensor<1x2048xi32>
      %659 = tt.load %658, %515, %cst_5 {cache = 1 : i32, evict = 3 : i32, isVolatile = false} : tensor<1x2048xf32>
      %660 = tt.addptr %296, %516 : tensor<1x2048x!tt.ptr<bf16, 1>>, tensor<1x2048xi32>
      %661 = tt.load %660, %518, %cst {cache = 1 : i32, evict = 2 : i32, isVolatile = false} : tensor<1x2048xbf16>
      %662 = arith.extf %661 : tensor<1x2048xbf16> to tensor<1x2048xf32>
      %663 = tt.addptr %297, %514 : tensor<1x2048x!tt.ptr<f32, 1>>, tensor<1x2048xi32>
      %664 = tt.load %663, %515, %cst_5 {cache = 1 : i32, evict = 3 : i32, isVolatile = false} : tensor<1x2048xf32>
      %665 = tt.addptr %298, %516 : tensor<1x2048x!tt.ptr<bf16, 1>>, tensor<1x2048xi32>
      %666 = tt.load %665, %518, %cst {cache = 1 : i32, evict = 2 : i32, isVolatile = false} : tensor<1x2048xbf16>
      %667 = arith.extf %666 : tensor<1x2048xbf16> to tensor<1x2048xf32>
      %668 = tt.addptr %299, %514 : tensor<1x2048x!tt.ptr<f32, 1>>, tensor<1x2048xi32>
      %669 = tt.load %668, %515, %cst_5 {cache = 1 : i32, evict = 3 : i32, isVolatile = false} : tensor<1x2048xf32>
      %670 = tt.addptr %300, %516 : tensor<1x2048x!tt.ptr<bf16, 1>>, tensor<1x2048xi32>
      %671 = tt.load %670, %518, %cst {cache = 1 : i32, evict = 2 : i32, isVolatile = false} : tensor<1x2048xbf16>
      %672 = arith.extf %671 : tensor<1x2048xbf16> to tensor<1x2048xf32>
      %673 = tt.addptr %301, %514 : tensor<1x2048x!tt.ptr<f32, 1>>, tensor<1x2048xi32>
      %674 = tt.load %673, %515, %cst_5 {cache = 1 : i32, evict = 3 : i32, isVolatile = false} : tensor<1x2048xf32>
      %675 = tt.addptr %302, %516 : tensor<1x2048x!tt.ptr<bf16, 1>>, tensor<1x2048xi32>
      %676 = tt.load %675, %518, %cst {cache = 1 : i32, evict = 2 : i32, isVolatile = false} : tensor<1x2048xbf16>
      %677 = arith.extf %676 : tensor<1x2048xbf16> to tensor<1x2048xf32>
      %678 = tt.addptr %303, %514 : tensor<1x2048x!tt.ptr<f32, 1>>, tensor<1x2048xi32>
      %679 = tt.load %678, %515, %cst_5 {cache = 1 : i32, evict = 3 : i32, isVolatile = false} : tensor<1x2048xf32>
      %680 = tt.addptr %304, %516 : tensor<1x2048x!tt.ptr<bf16, 1>>, tensor<1x2048xi32>
      %681 = tt.load %680, %518, %cst {cache = 1 : i32, evict = 2 : i32, isVolatile = false} : tensor<1x2048xbf16>
      %682 = arith.extf %681 : tensor<1x2048xbf16> to tensor<1x2048xf32>
      %683 = tt.addptr %305, %514 : tensor<1x2048x!tt.ptr<f32, 1>>, tensor<1x2048xi32>
      %684 = tt.load %683, %515, %cst_5 {cache = 1 : i32, evict = 3 : i32, isVolatile = false} : tensor<1x2048xf32>
      %685 = tt.addptr %306, %516 : tensor<1x2048x!tt.ptr<bf16, 1>>, tensor<1x2048xi32>
      %686 = tt.load %685, %518, %cst {cache = 1 : i32, evict = 2 : i32, isVolatile = false} : tensor<1x2048xbf16>
      %687 = arith.extf %686 : tensor<1x2048xbf16> to tensor<1x2048xf32>
      %688 = tt.addptr %307, %514 : tensor<1x2048x!tt.ptr<f32, 1>>, tensor<1x2048xi32>
      %689 = tt.load %688, %515, %cst_5 {cache = 1 : i32, evict = 3 : i32, isVolatile = false} : tensor<1x2048xf32>
      %690 = tt.addptr %308, %516 : tensor<1x2048x!tt.ptr<bf16, 1>>, tensor<1x2048xi32>
      %691 = tt.load %690, %518, %cst {cache = 1 : i32, evict = 2 : i32, isVolatile = false} : tensor<1x2048xbf16>
      %692 = arith.extf %691 : tensor<1x2048xbf16> to tensor<1x2048xf32>
      %693 = tt.addptr %309, %514 : tensor<1x2048x!tt.ptr<f32, 1>>, tensor<1x2048xi32>
      %694 = tt.load %693, %515, %cst_5 {cache = 1 : i32, evict = 3 : i32, isVolatile = false} : tensor<1x2048xf32>
      %695 = tt.addptr %310, %516 : tensor<1x2048x!tt.ptr<bf16, 1>>, tensor<1x2048xi32>
      %696 = tt.load %695, %518, %cst {cache = 1 : i32, evict = 2 : i32, isVolatile = false} : tensor<1x2048xbf16>
      %697 = arith.extf %696 : tensor<1x2048xbf16> to tensor<1x2048xf32>
      %698 = tt.addptr %311, %514 : tensor<1x2048x!tt.ptr<f32, 1>>, tensor<1x2048xi32>
      %699 = tt.load %698, %515, %cst_5 {cache = 1 : i32, evict = 3 : i32, isVolatile = false} : tensor<1x2048xf32>
      %700 = tt.addptr %312, %516 : tensor<1x2048x!tt.ptr<bf16, 1>>, tensor<1x2048xi32>
      %701 = tt.load %700, %518, %cst {cache = 1 : i32, evict = 2 : i32, isVolatile = false} : tensor<1x2048xbf16>
      %702 = arith.extf %701 : tensor<1x2048xbf16> to tensor<1x2048xf32>
      %703 = tt.addptr %313, %514 : tensor<1x2048x!tt.ptr<f32, 1>>, tensor<1x2048xi32>
      %704 = tt.load %703, %515, %cst_5 {cache = 1 : i32, evict = 3 : i32, isVolatile = false} : tensor<1x2048xf32>
      %705 = tt.addptr %314, %516 : tensor<1x2048x!tt.ptr<bf16, 1>>, tensor<1x2048xi32>
      %706 = tt.load %705, %518, %cst {cache = 1 : i32, evict = 2 : i32, isVolatile = false} : tensor<1x2048xbf16>
      %707 = arith.extf %706 : tensor<1x2048xbf16> to tensor<1x2048xf32>
      %708 = tt.addptr %315, %514 : tensor<1x2048x!tt.ptr<f32, 1>>, tensor<1x2048xi32>
      %709 = tt.load %708, %515, %cst_5 {cache = 1 : i32, evict = 3 : i32, isVolatile = false} : tensor<1x2048xf32>
      %710 = tt.addptr %316, %516 : tensor<1x2048x!tt.ptr<bf16, 1>>, tensor<1x2048xi32>
      %711 = tt.load %710, %518, %cst {cache = 1 : i32, evict = 2 : i32, isVolatile = false} : tensor<1x2048xbf16>
      %712 = arith.extf %711 : tensor<1x2048xbf16> to tensor<1x2048xf32>
      %713 = tt.addptr %317, %514 : tensor<1x2048x!tt.ptr<f32, 1>>, tensor<1x2048xi32>
      %714 = tt.load %713, %515, %cst_5 {cache = 1 : i32, evict = 3 : i32, isVolatile = false} : tensor<1x2048xf32>
      %715 = tt.addptr %318, %516 : tensor<1x2048x!tt.ptr<bf16, 1>>, tensor<1x2048xi32>
      %716 = tt.load %715, %518, %cst {cache = 1 : i32, evict = 2 : i32, isVolatile = false} : tensor<1x2048xbf16>
      %717 = arith.extf %716 : tensor<1x2048xbf16> to tensor<1x2048xf32>
      %718 = tt.addptr %319, %514 : tensor<1x2048x!tt.ptr<f32, 1>>, tensor<1x2048xi32>
      %719 = tt.load %718, %515, %cst_5 {cache = 1 : i32, evict = 3 : i32, isVolatile = false} : tensor<1x2048xf32>
      %720 = tt.addptr %320, %516 : tensor<1x2048x!tt.ptr<bf16, 1>>, tensor<1x2048xi32>
      %721 = tt.load %720, %518, %cst {cache = 1 : i32, evict = 2 : i32, isVolatile = false} : tensor<1x2048xbf16>
      %722 = arith.extf %721 : tensor<1x2048xbf16> to tensor<1x2048xf32>
      %723 = tt.addptr %321, %514 : tensor<1x2048x!tt.ptr<f32, 1>>, tensor<1x2048xi32>
      %724 = tt.load %723, %515, %cst_5 {cache = 1 : i32, evict = 3 : i32, isVolatile = false} : tensor<1x2048xf32>
      %725 = tt.addptr %322, %516 : tensor<1x2048x!tt.ptr<bf16, 1>>, tensor<1x2048xi32>
      %726 = tt.load %725, %518, %cst {cache = 1 : i32, evict = 2 : i32, isVolatile = false} : tensor<1x2048xbf16>
      %727 = arith.extf %726 : tensor<1x2048xbf16> to tensor<1x2048xf32>
      %728 = tt.addptr %323, %514 : tensor<1x2048x!tt.ptr<f32, 1>>, tensor<1x2048xi32>
      %729 = tt.load %728, %515, %cst_5 {cache = 1 : i32, evict = 3 : i32, isVolatile = false} : tensor<1x2048xf32>
      %730 = tt.addptr %324, %516 : tensor<1x2048x!tt.ptr<bf16, 1>>, tensor<1x2048xi32>
      %731 = tt.load %730, %518, %cst {cache = 1 : i32, evict = 2 : i32, isVolatile = false} : tensor<1x2048xbf16>
      %732 = arith.extf %731 : tensor<1x2048xbf16> to tensor<1x2048xf32>
      %733 = tt.addptr %325, %514 : tensor<1x2048x!tt.ptr<f32, 1>>, tensor<1x2048xi32>
      %734 = tt.load %733, %515, %cst_5 {cache = 1 : i32, evict = 3 : i32, isVolatile = false} : tensor<1x2048xf32>
      %735 = tt.addptr %326, %516 : tensor<1x2048x!tt.ptr<bf16, 1>>, tensor<1x2048xi32>
      %736 = tt.load %735, %518, %cst {cache = 1 : i32, evict = 2 : i32, isVolatile = false} : tensor<1x2048xbf16>
      %737 = arith.extf %736 : tensor<1x2048xbf16> to tensor<1x2048xf32>
      %738 = tt.addptr %327, %514 : tensor<1x2048x!tt.ptr<f32, 1>>, tensor<1x2048xi32>
      %739 = tt.load %738, %515, %cst_5 {cache = 1 : i32, evict = 3 : i32, isVolatile = false} : tensor<1x2048xf32>
      %740 = tt.addptr %328, %516 : tensor<1x2048x!tt.ptr<bf16, 1>>, tensor<1x2048xi32>
      %741 = tt.load %740, %518, %cst {cache = 1 : i32, evict = 2 : i32, isVolatile = false} : tensor<1x2048xbf16>
      %742 = arith.extf %741 : tensor<1x2048xbf16> to tensor<1x2048xf32>
      %743 = tt.addptr %329, %514 : tensor<1x2048x!tt.ptr<f32, 1>>, tensor<1x2048xi32>
      %744 = tt.load %743, %515, %cst_5 {cache = 1 : i32, evict = 3 : i32, isVolatile = false} : tensor<1x2048xf32>
      %745 = tt.addptr %330, %516 : tensor<1x2048x!tt.ptr<bf16, 1>>, tensor<1x2048xi32>
      %746 = tt.load %745, %518, %cst {cache = 1 : i32, evict = 2 : i32, isVolatile = false} : tensor<1x2048xbf16>
      %747 = arith.extf %746 : tensor<1x2048xbf16> to tensor<1x2048xf32>
      %748 = tt.addptr %331, %514 : tensor<1x2048x!tt.ptr<f32, 1>>, tensor<1x2048xi32>
      %749 = tt.load %748, %515, %cst_5 {cache = 1 : i32, evict = 3 : i32, isVolatile = false} : tensor<1x2048xf32>
      %750 = tt.addptr %332, %516 : tensor<1x2048x!tt.ptr<bf16, 1>>, tensor<1x2048xi32>
      %751 = tt.load %750, %518, %cst {cache = 1 : i32, evict = 2 : i32, isVolatile = false} : tensor<1x2048xbf16>
      %752 = arith.extf %751 : tensor<1x2048xbf16> to tensor<1x2048xf32>
      %753 = tt.addptr %333, %514 : tensor<1x2048x!tt.ptr<f32, 1>>, tensor<1x2048xi32>
      %754 = tt.load %753, %515, %cst_5 {cache = 1 : i32, evict = 3 : i32, isVolatile = false} : tensor<1x2048xf32>
      %755 = tt.addptr %334, %516 : tensor<1x2048x!tt.ptr<bf16, 1>>, tensor<1x2048xi32>
      %756 = tt.load %755, %518, %cst {cache = 1 : i32, evict = 2 : i32, isVolatile = false} : tensor<1x2048xbf16>
      %757 = arith.extf %756 : tensor<1x2048xbf16> to tensor<1x2048xf32>
      %758 = tt.addptr %335, %514 : tensor<1x2048x!tt.ptr<f32, 1>>, tensor<1x2048xi32>
      %759 = tt.load %758, %515, %cst_5 {cache = 1 : i32, evict = 3 : i32, isVolatile = false} : tensor<1x2048xf32>
      %760 = tt.addptr %336, %516 : tensor<1x2048x!tt.ptr<bf16, 1>>, tensor<1x2048xi32>
      %761 = tt.load %760, %518, %cst {cache = 1 : i32, evict = 2 : i32, isVolatile = false} : tensor<1x2048xbf16>
      %762 = arith.extf %761 : tensor<1x2048xbf16> to tensor<1x2048xf32>
      %763 = tt.addptr %337, %514 : tensor<1x2048x!tt.ptr<f32, 1>>, tensor<1x2048xi32>
      %764 = tt.load %763, %515, %cst_5 {cache = 1 : i32, evict = 3 : i32, isVolatile = false} : tensor<1x2048xf32>
      %765 = tt.addptr %338, %516 : tensor<1x2048x!tt.ptr<bf16, 1>>, tensor<1x2048xi32>
      %766 = tt.load %765, %518, %cst {cache = 1 : i32, evict = 2 : i32, isVolatile = false} : tensor<1x2048xbf16>
      %767 = arith.extf %766 : tensor<1x2048xbf16> to tensor<1x2048xf32>
      %768 = tt.addptr %339, %514 : tensor<1x2048x!tt.ptr<f32, 1>>, tensor<1x2048xi32>
      %769 = tt.load %768, %515, %cst_5 {cache = 1 : i32, evict = 3 : i32, isVolatile = false} : tensor<1x2048xf32>
      %770 = tt.addptr %340, %516 : tensor<1x2048x!tt.ptr<bf16, 1>>, tensor<1x2048xi32>
      %771 = tt.load %770, %518, %cst {cache = 1 : i32, evict = 3 : i32, isVolatile = false} : tensor<1x2048xbf16>
      %772 = arith.extf %771 : tensor<1x2048xbf16> to tensor<1x2048xf32>
      %773 = tt.addptr %341, %514 : tensor<1x2048x!tt.ptr<f32, 1>>, tensor<1x2048xi32>
      %774 = tt.load %773, %515, %cst_5 {cache = 1 : i32, evict = 3 : i32, isVolatile = false} : tensor<1x2048xf32>
      %775 = tt.addptr %342, %516 : tensor<1x2048x!tt.ptr<bf16, 1>>, tensor<1x2048xi32>
      %776 = tt.load %775, %518, %cst {cache = 1 : i32, evict = 2 : i32, isVolatile = false} : tensor<1x2048xbf16>
      %777 = arith.extf %776 : tensor<1x2048xbf16> to tensor<1x2048xf32>
      %778 = tt.addptr %343, %514 : tensor<1x2048x!tt.ptr<f32, 1>>, tensor<1x2048xi32>
      %779 = tt.load %778, %515, %cst_5 {cache = 1 : i32, evict = 3 : i32, isVolatile = false} : tensor<1x2048xf32>
      %780 = tt.addptr %344, %516 : tensor<1x2048x!tt.ptr<bf16, 1>>, tensor<1x2048xi32>
      %781 = tt.load %780, %518, %cst {cache = 1 : i32, evict = 3 : i32, isVolatile = false} : tensor<1x2048xbf16>
      %782 = arith.extf %781 : tensor<1x2048xbf16> to tensor<1x2048xf32>
      %783 = tt.addptr %345, %514 : tensor<1x2048x!tt.ptr<f32, 1>>, tensor<1x2048xi32>
      %784 = tt.load %783, %515, %cst_5 {cache = 1 : i32, evict = 3 : i32, isVolatile = false} : tensor<1x2048xf32>
      %785 = arith.mulf %520, %346 : tensor<1x2048xf32>
      %786 = arith.addf %522, %cst_3 : tensor<1x2048xf32>
      %787 = arith.mulf %785, %786 : tensor<1x2048xf32>
      %788 = arith.mulf %524, %cst_2 : tensor<1x2048xf32>
      %789 = arith.addf %787, %788 : tensor<1x2048xf32>
      %790 = arith.mulf %789, %347 : tensor<1x2048xf32>
      %791 = arith.mulf %527, %348 : tensor<1x2048xf32>
      %792 = arith.addf %529, %cst_3 : tensor<1x2048xf32>
      %793 = arith.mulf %791, %792 : tensor<1x2048xf32>
      %794 = arith.addf %793, %789 : tensor<1x2048xf32>
      %795 = arith.mulf %532, %349 : tensor<1x2048xf32>
      %796 = arith.addf %534, %cst_3 : tensor<1x2048xf32>
      %797 = arith.mulf %795, %796 : tensor<1x2048xf32>
      %798 = arith.addf %797, %794 : tensor<1x2048xf32>
      %799 = arith.mulf %798, %350 : tensor<1x2048xf32>
      %800 = arith.mulf %537, %351 : tensor<1x2048xf32>
      %801 = arith.addf %539, %cst_3 : tensor<1x2048xf32>
      %802 = arith.mulf %800, %801 : tensor<1x2048xf32>
      %803 = arith.addf %802, %798 : tensor<1x2048xf32>
      %804 = arith.mulf %542, %352 : tensor<1x2048xf32>
      %805 = arith.addf %544, %cst_3 : tensor<1x2048xf32>
      %806 = arith.mulf %804, %805 : tensor<1x2048xf32>
      %807 = arith.addf %806, %803 : tensor<1x2048xf32>
      %808 = arith.mulf %807, %353 : tensor<1x2048xf32>
      %809 = arith.mulf %547, %354 : tensor<1x2048xf32>
      %810 = arith.addf %549, %cst_3 : tensor<1x2048xf32>
      %811 = arith.mulf %809, %810 : tensor<1x2048xf32>
      %812 = arith.addf %811, %807 : tensor<1x2048xf32>
      %813 = arith.mulf %552, %355 : tensor<1x2048xf32>
      %814 = arith.addf %554, %cst_3 : tensor<1x2048xf32>
      %815 = arith.mulf %813, %814 : tensor<1x2048xf32>
      %816 = arith.addf %815, %812 : tensor<1x2048xf32>
      %817 = arith.mulf %816, %356 : tensor<1x2048xf32>
      %818 = arith.mulf %557, %357 : tensor<1x2048xf32>
      %819 = arith.addf %559, %cst_3 : tensor<1x2048xf32>
      %820 = arith.mulf %818, %819 : tensor<1x2048xf32>
      %821 = arith.addf %820, %816 : tensor<1x2048xf32>
      %822 = arith.mulf %562, %358 : tensor<1x2048xf32>
      %823 = arith.addf %564, %cst_3 : tensor<1x2048xf32>
      %824 = arith.mulf %822, %823 : tensor<1x2048xf32>
      %825 = arith.addf %824, %821 : tensor<1x2048xf32>
      %826 = arith.mulf %825, %359 : tensor<1x2048xf32>
      %827 = arith.mulf %567, %360 : tensor<1x2048xf32>
      %828 = arith.addf %569, %cst_3 : tensor<1x2048xf32>
      %829 = arith.mulf %827, %828 : tensor<1x2048xf32>
      %830 = arith.addf %829, %825 : tensor<1x2048xf32>
      %831 = arith.mulf %572, %361 : tensor<1x2048xf32>
      %832 = arith.addf %574, %cst_3 : tensor<1x2048xf32>
      %833 = arith.mulf %831, %832 : tensor<1x2048xf32>
      %834 = arith.addf %833, %830 : tensor<1x2048xf32>
      %835 = arith.mulf %834, %362 : tensor<1x2048xf32>
      %836 = arith.mulf %577, %363 : tensor<1x2048xf32>
      %837 = arith.addf %579, %cst_3 : tensor<1x2048xf32>
      %838 = arith.mulf %836, %837 : tensor<1x2048xf32>
      %839 = arith.addf %838, %834 : tensor<1x2048xf32>
      %840 = arith.mulf %582, %364 : tensor<1x2048xf32>
      %841 = arith.addf %584, %cst_3 : tensor<1x2048xf32>
      %842 = arith.mulf %840, %841 : tensor<1x2048xf32>
      %843 = arith.addf %842, %839 : tensor<1x2048xf32>
      %844 = arith.mulf %843, %365 : tensor<1x2048xf32>
      %845 = arith.mulf %587, %366 : tensor<1x2048xf32>
      %846 = arith.addf %589, %cst_3 : tensor<1x2048xf32>
      %847 = arith.mulf %845, %846 : tensor<1x2048xf32>
      %848 = arith.addf %847, %843 : tensor<1x2048xf32>
      %849 = arith.mulf %592, %367 : tensor<1x2048xf32>
      %850 = arith.addf %594, %cst_3 : tensor<1x2048xf32>
      %851 = arith.mulf %849, %850 : tensor<1x2048xf32>
      %852 = arith.addf %851, %848 : tensor<1x2048xf32>
      %853 = arith.mulf %852, %368 : tensor<1x2048xf32>
      %854 = arith.mulf %597, %369 : tensor<1x2048xf32>
      %855 = arith.addf %599, %cst_3 : tensor<1x2048xf32>
      %856 = arith.mulf %854, %855 : tensor<1x2048xf32>
      %857 = arith.addf %856, %852 : tensor<1x2048xf32>
      %858 = arith.mulf %602, %370 : tensor<1x2048xf32>
      %859 = arith.addf %604, %cst_3 : tensor<1x2048xf32>
      %860 = arith.mulf %858, %859 : tensor<1x2048xf32>
      %861 = arith.addf %860, %857 : tensor<1x2048xf32>
      %862 = arith.mulf %861, %371 : tensor<1x2048xf32>
      %863 = arith.mulf %607, %372 : tensor<1x2048xf32>
      %864 = arith.addf %609, %cst_3 : tensor<1x2048xf32>
      %865 = arith.mulf %863, %864 : tensor<1x2048xf32>
      %866 = arith.addf %865, %861 : tensor<1x2048xf32>
      %867 = arith.mulf %612, %373 : tensor<1x2048xf32>
      %868 = arith.addf %614, %cst_3 : tensor<1x2048xf32>
      %869 = arith.mulf %867, %868 : tensor<1x2048xf32>
      %870 = arith.addf %869, %866 : tensor<1x2048xf32>
      %871 = arith.mulf %870, %374 : tensor<1x2048xf32>
      %872 = arith.mulf %617, %375 : tensor<1x2048xf32>
      %873 = arith.addf %619, %cst_3 : tensor<1x2048xf32>
      %874 = arith.mulf %872, %873 : tensor<1x2048xf32>
      %875 = arith.addf %874, %870 : tensor<1x2048xf32>
      %876 = arith.mulf %622, %376 : tensor<1x2048xf32>
      %877 = arith.addf %624, %cst_3 : tensor<1x2048xf32>
      %878 = arith.mulf %876, %877 : tensor<1x2048xf32>
      %879 = arith.addf %878, %875 : tensor<1x2048xf32>
      %880 = arith.mulf %879, %377 : tensor<1x2048xf32>
      %881 = arith.mulf %627, %378 : tensor<1x2048xf32>
      %882 = arith.addf %629, %cst_3 : tensor<1x2048xf32>
      %883 = arith.mulf %881, %882 : tensor<1x2048xf32>
      %884 = arith.addf %883, %879 : tensor<1x2048xf32>
      %885 = arith.mulf %632, %379 : tensor<1x2048xf32>
      %886 = arith.addf %634, %cst_3 : tensor<1x2048xf32>
      %887 = arith.mulf %885, %886 : tensor<1x2048xf32>
      %888 = arith.addf %887, %884 : tensor<1x2048xf32>
      %889 = arith.mulf %888, %380 : tensor<1x2048xf32>
      %890 = arith.mulf %637, %381 : tensor<1x2048xf32>
      %891 = arith.addf %639, %cst_3 : tensor<1x2048xf32>
      %892 = arith.mulf %890, %891 : tensor<1x2048xf32>
      %893 = arith.addf %892, %888 : tensor<1x2048xf32>
      %894 = arith.mulf %642, %382 : tensor<1x2048xf32>
      %895 = arith.addf %644, %cst_3 : tensor<1x2048xf32>
      %896 = arith.mulf %894, %895 : tensor<1x2048xf32>
      %897 = arith.addf %896, %893 : tensor<1x2048xf32>
      %898 = arith.mulf %897, %383 : tensor<1x2048xf32>
      %899 = arith.mulf %647, %384 : tensor<1x2048xf32>
      %900 = arith.addf %649, %cst_3 : tensor<1x2048xf32>
      %901 = arith.mulf %899, %900 : tensor<1x2048xf32>
      %902 = arith.addf %901, %897 : tensor<1x2048xf32>
      %903 = arith.mulf %652, %385 : tensor<1x2048xf32>
      %904 = arith.addf %654, %cst_3 : tensor<1x2048xf32>
      %905 = arith.mulf %903, %904 : tensor<1x2048xf32>
      %906 = arith.addf %905, %902 : tensor<1x2048xf32>
      %907 = arith.mulf %906, %386 : tensor<1x2048xf32>
      %908 = arith.mulf %657, %387 : tensor<1x2048xf32>
      %909 = arith.addf %659, %cst_3 : tensor<1x2048xf32>
      %910 = arith.mulf %908, %909 : tensor<1x2048xf32>
      %911 = arith.addf %910, %906 : tensor<1x2048xf32>
      %912 = arith.mulf %662, %388 : tensor<1x2048xf32>
      %913 = arith.addf %664, %cst_3 : tensor<1x2048xf32>
      %914 = arith.mulf %912, %913 : tensor<1x2048xf32>
      %915 = arith.addf %914, %911 : tensor<1x2048xf32>
      %916 = arith.mulf %915, %389 : tensor<1x2048xf32>
      %917 = arith.mulf %667, %390 : tensor<1x2048xf32>
      %918 = arith.addf %669, %cst_3 : tensor<1x2048xf32>
      %919 = arith.mulf %917, %918 : tensor<1x2048xf32>
      %920 = arith.addf %919, %915 : tensor<1x2048xf32>
      %921 = arith.mulf %672, %391 : tensor<1x2048xf32>
      %922 = arith.addf %674, %cst_3 : tensor<1x2048xf32>
      %923 = arith.mulf %921, %922 : tensor<1x2048xf32>
      %924 = arith.addf %923, %920 : tensor<1x2048xf32>
      %925 = arith.mulf %924, %392 : tensor<1x2048xf32>
      %926 = arith.mulf %677, %393 : tensor<1x2048xf32>
      %927 = arith.addf %679, %cst_3 : tensor<1x2048xf32>
      %928 = arith.mulf %926, %927 : tensor<1x2048xf32>
      %929 = arith.addf %928, %924 : tensor<1x2048xf32>
      %930 = arith.mulf %682, %394 : tensor<1x2048xf32>
      %931 = arith.addf %684, %cst_3 : tensor<1x2048xf32>
      %932 = arith.mulf %930, %931 : tensor<1x2048xf32>
      %933 = arith.addf %932, %929 : tensor<1x2048xf32>
      %934 = arith.mulf %933, %395 : tensor<1x2048xf32>
      %935 = arith.mulf %687, %396 : tensor<1x2048xf32>
      %936 = arith.addf %689, %cst_3 : tensor<1x2048xf32>
      %937 = arith.mulf %935, %936 : tensor<1x2048xf32>
      %938 = arith.addf %937, %933 : tensor<1x2048xf32>
      %939 = arith.mulf %692, %397 : tensor<1x2048xf32>
      %940 = arith.addf %694, %cst_3 : tensor<1x2048xf32>
      %941 = arith.mulf %939, %940 : tensor<1x2048xf32>
      %942 = arith.addf %941, %938 : tensor<1x2048xf32>
      %943 = arith.mulf %942, %398 : tensor<1x2048xf32>
      %944 = arith.mulf %697, %399 : tensor<1x2048xf32>
      %945 = arith.addf %699, %cst_3 : tensor<1x2048xf32>
      %946 = arith.mulf %944, %945 : tensor<1x2048xf32>
      %947 = arith.addf %946, %942 : tensor<1x2048xf32>
      %948 = arith.mulf %702, %400 : tensor<1x2048xf32>
      %949 = arith.addf %704, %cst_3 : tensor<1x2048xf32>
      %950 = arith.mulf %948, %949 : tensor<1x2048xf32>
      %951 = arith.addf %950, %947 : tensor<1x2048xf32>
      %952 = arith.mulf %951, %401 : tensor<1x2048xf32>
      %953 = arith.mulf %707, %402 : tensor<1x2048xf32>
      %954 = arith.addf %709, %cst_3 : tensor<1x2048xf32>
      %955 = arith.mulf %953, %954 : tensor<1x2048xf32>
      %956 = arith.addf %955, %951 : tensor<1x2048xf32>
      %957 = arith.mulf %712, %403 : tensor<1x2048xf32>
      %958 = arith.addf %714, %cst_3 : tensor<1x2048xf32>
      %959 = arith.mulf %957, %958 : tensor<1x2048xf32>
      %960 = arith.addf %959, %956 : tensor<1x2048xf32>
      %961 = arith.mulf %960, %404 : tensor<1x2048xf32>
      %962 = arith.mulf %717, %405 : tensor<1x2048xf32>
      %963 = arith.addf %719, %cst_3 : tensor<1x2048xf32>
      %964 = arith.mulf %962, %963 : tensor<1x2048xf32>
      %965 = arith.addf %964, %960 : tensor<1x2048xf32>
      %966 = arith.mulf %722, %406 : tensor<1x2048xf32>
      %967 = arith.addf %724, %cst_3 : tensor<1x2048xf32>
      %968 = arith.mulf %966, %967 : tensor<1x2048xf32>
      %969 = arith.addf %968, %965 : tensor<1x2048xf32>
      %970 = arith.mulf %969, %407 : tensor<1x2048xf32>
      %971 = arith.mulf %727, %408 : tensor<1x2048xf32>
      %972 = arith.addf %729, %cst_3 : tensor<1x2048xf32>
      %973 = arith.mulf %971, %972 : tensor<1x2048xf32>
      %974 = arith.addf %973, %969 : tensor<1x2048xf32>
      %975 = arith.mulf %732, %409 : tensor<1x2048xf32>
      %976 = arith.addf %734, %cst_3 : tensor<1x2048xf32>
      %977 = arith.mulf %975, %976 : tensor<1x2048xf32>
      %978 = arith.addf %977, %974 : tensor<1x2048xf32>
      %979 = arith.mulf %978, %410 : tensor<1x2048xf32>
      %980 = arith.mulf %737, %411 : tensor<1x2048xf32>
      %981 = arith.addf %739, %cst_3 : tensor<1x2048xf32>
      %982 = arith.mulf %980, %981 : tensor<1x2048xf32>
      %983 = arith.addf %982, %978 : tensor<1x2048xf32>
      %984 = arith.mulf %742, %412 : tensor<1x2048xf32>
      %985 = arith.addf %744, %cst_3 : tensor<1x2048xf32>
      %986 = arith.mulf %984, %985 : tensor<1x2048xf32>
      %987 = arith.addf %986, %983 : tensor<1x2048xf32>
      %988 = arith.mulf %987, %413 : tensor<1x2048xf32>
      %989 = arith.mulf %747, %414 : tensor<1x2048xf32>
      %990 = arith.addf %749, %cst_3 : tensor<1x2048xf32>
      %991 = arith.mulf %989, %990 : tensor<1x2048xf32>
      %992 = arith.addf %991, %987 : tensor<1x2048xf32>
      %993 = arith.mulf %752, %415 : tensor<1x2048xf32>
      %994 = arith.addf %754, %cst_3 : tensor<1x2048xf32>
      %995 = arith.mulf %993, %994 : tensor<1x2048xf32>
      %996 = arith.addf %995, %992 : tensor<1x2048xf32>
      %997 = arith.mulf %996, %416 : tensor<1x2048xf32>
      %998 = arith.mulf %757, %417 : tensor<1x2048xf32>
      %999 = arith.addf %759, %cst_3 : tensor<1x2048xf32>
      %1000 = arith.mulf %998, %999 : tensor<1x2048xf32>
      %1001 = arith.addf %1000, %996 : tensor<1x2048xf32>
      %1002 = arith.mulf %762, %418 : tensor<1x2048xf32>
      %1003 = arith.addf %764, %cst_3 : tensor<1x2048xf32>
      %1004 = arith.mulf %1002, %1003 : tensor<1x2048xf32>
      %1005 = arith.addf %1004, %1001 : tensor<1x2048xf32>
      %1006 = arith.mulf %1005, %419 : tensor<1x2048xf32>
      %1007 = arith.mulf %767, %420 : tensor<1x2048xf32>
      %1008 = arith.addf %769, %cst_3 : tensor<1x2048xf32>
      %1009 = arith.mulf %1007, %1008 : tensor<1x2048xf32>
      %1010 = arith.addf %1009, %1005 : tensor<1x2048xf32>
      %1011 = arith.mulf %772, %421 : tensor<1x2048xf32>
      %1012 = arith.addf %774, %cst_3 : tensor<1x2048xf32>
      %1013 = arith.mulf %1011, %1012 : tensor<1x2048xf32>
      %1014 = arith.mulf %777, %422 : tensor<1x2048xf32>
      %1015 = arith.addf %779, %cst_3 : tensor<1x2048xf32>
      %1016 = arith.mulf %1014, %1015 : tensor<1x2048xf32>
      %1017 = arith.addf %1016, %1010 : tensor<1x2048xf32>
      %1018 = arith.addf %1013, %1017 : tensor<1x2048xf32>
      %1019 = arith.addf %784, %cst_3 : tensor<1x2048xf32>
      %1020 = arith.mulf %782, %1019 : tensor<1x2048xf32>
      %1021 = arith.mulf %1020, %1018 : tensor<1x2048xf32>
      %1022 = arith.addf %arg241, %1021 : tensor<1x2048xf32>
      %1023 = arith.select %518, %1022, %arg241 : tensor<1x2048xi1>, tensor<1x2048xf32>
      %1024 = tt.addptr %423, %516 : tensor<1x2048x!tt.ptr<f32, 1>>, tensor<1x2048xi32>
      tt.store %1024, %790, %518 {cache = 1 : i32, evict = 1 : i32} : tensor<1x2048xf32>
      %1025 = tt.addptr %424, %516 : tensor<1x2048x!tt.ptr<f32, 1>>, tensor<1x2048xi32>
      tt.store %1025, %794, %518 {cache = 1 : i32, evict = 1 : i32} : tensor<1x2048xf32>
      %1026 = tt.addptr %425, %516 : tensor<1x2048x!tt.ptr<f32, 1>>, tensor<1x2048xi32>
      tt.store %1026, %799, %518 {cache = 1 : i32, evict = 1 : i32} : tensor<1x2048xf32>
      %1027 = tt.addptr %426, %516 : tensor<1x2048x!tt.ptr<f32, 1>>, tensor<1x2048xi32>
      tt.store %1027, %803, %518 {cache = 1 : i32, evict = 1 : i32} : tensor<1x2048xf32>
      %1028 = tt.addptr %427, %516 : tensor<1x2048x!tt.ptr<f32, 1>>, tensor<1x2048xi32>
      tt.store %1028, %808, %518 {cache = 1 : i32, evict = 1 : i32} : tensor<1x2048xf32>
      %1029 = tt.addptr %428, %516 : tensor<1x2048x!tt.ptr<f32, 1>>, tensor<1x2048xi32>
      tt.store %1029, %812, %518 {cache = 1 : i32, evict = 1 : i32} : tensor<1x2048xf32>
      %1030 = tt.addptr %429, %516 : tensor<1x2048x!tt.ptr<f32, 1>>, tensor<1x2048xi32>
      tt.store %1030, %817, %518 {cache = 1 : i32, evict = 1 : i32} : tensor<1x2048xf32>
      %1031 = tt.addptr %430, %516 : tensor<1x2048x!tt.ptr<f32, 1>>, tensor<1x2048xi32>
      tt.store %1031, %821, %518 {cache = 1 : i32, evict = 1 : i32} : tensor<1x2048xf32>
      %1032 = tt.addptr %431, %516 : tensor<1x2048x!tt.ptr<f32, 1>>, tensor<1x2048xi32>
      tt.store %1032, %826, %518 {cache = 1 : i32, evict = 1 : i32} : tensor<1x2048xf32>
      %1033 = tt.addptr %432, %516 : tensor<1x2048x!tt.ptr<f32, 1>>, tensor<1x2048xi32>
      tt.store %1033, %830, %518 {cache = 1 : i32, evict = 1 : i32} : tensor<1x2048xf32>
      %1034 = tt.addptr %433, %516 : tensor<1x2048x!tt.ptr<f32, 1>>, tensor<1x2048xi32>
      tt.store %1034, %835, %518 {cache = 1 : i32, evict = 1 : i32} : tensor<1x2048xf32>
      %1035 = tt.addptr %434, %516 : tensor<1x2048x!tt.ptr<f32, 1>>, tensor<1x2048xi32>
      tt.store %1035, %839, %518 {cache = 1 : i32, evict = 1 : i32} : tensor<1x2048xf32>
      %1036 = tt.addptr %435, %516 : tensor<1x2048x!tt.ptr<f32, 1>>, tensor<1x2048xi32>
      tt.store %1036, %844, %518 {cache = 1 : i32, evict = 1 : i32} : tensor<1x2048xf32>
      %1037 = tt.addptr %436, %516 : tensor<1x2048x!tt.ptr<f32, 1>>, tensor<1x2048xi32>
      tt.store %1037, %848, %518 {cache = 1 : i32, evict = 1 : i32} : tensor<1x2048xf32>
      %1038 = tt.addptr %437, %516 : tensor<1x2048x!tt.ptr<f32, 1>>, tensor<1x2048xi32>
      tt.store %1038, %853, %518 {cache = 1 : i32, evict = 1 : i32} : tensor<1x2048xf32>
      %1039 = tt.addptr %438, %516 : tensor<1x2048x!tt.ptr<f32, 1>>, tensor<1x2048xi32>
      tt.store %1039, %857, %518 {cache = 1 : i32, evict = 1 : i32} : tensor<1x2048xf32>
      %1040 = tt.addptr %439, %516 : tensor<1x2048x!tt.ptr<f32, 1>>, tensor<1x2048xi32>
      tt.store %1040, %862, %518 {cache = 1 : i32, evict = 1 : i32} : tensor<1x2048xf32>
      %1041 = tt.addptr %440, %516 : tensor<1x2048x!tt.ptr<f32, 1>>, tensor<1x2048xi32>
      tt.store %1041, %866, %518 {cache = 1 : i32, evict = 1 : i32} : tensor<1x2048xf32>
      %1042 = tt.addptr %441, %516 : tensor<1x2048x!tt.ptr<f32, 1>>, tensor<1x2048xi32>
      tt.store %1042, %871, %518 {cache = 1 : i32, evict = 1 : i32} : tensor<1x2048xf32>
      %1043 = tt.addptr %442, %516 : tensor<1x2048x!tt.ptr<f32, 1>>, tensor<1x2048xi32>
      tt.store %1043, %875, %518 {cache = 1 : i32, evict = 1 : i32} : tensor<1x2048xf32>
      %1044 = tt.addptr %443, %516 : tensor<1x2048x!tt.ptr<f32, 1>>, tensor<1x2048xi32>
      tt.store %1044, %880, %518 {cache = 1 : i32, evict = 1 : i32} : tensor<1x2048xf32>
      %1045 = tt.addptr %444, %516 : tensor<1x2048x!tt.ptr<f32, 1>>, tensor<1x2048xi32>
      tt.store %1045, %884, %518 {cache = 1 : i32, evict = 1 : i32} : tensor<1x2048xf32>
      %1046 = tt.addptr %445, %516 : tensor<1x2048x!tt.ptr<f32, 1>>, tensor<1x2048xi32>
      tt.store %1046, %889, %518 {cache = 1 : i32, evict = 1 : i32} : tensor<1x2048xf32>
      %1047 = tt.addptr %446, %516 : tensor<1x2048x!tt.ptr<f32, 1>>, tensor<1x2048xi32>
      tt.store %1047, %893, %518 {cache = 1 : i32, evict = 1 : i32} : tensor<1x2048xf32>
      %1048 = tt.addptr %447, %516 : tensor<1x2048x!tt.ptr<f32, 1>>, tensor<1x2048xi32>
      tt.store %1048, %898, %518 {cache = 1 : i32, evict = 1 : i32} : tensor<1x2048xf32>
      %1049 = tt.addptr %448, %516 : tensor<1x2048x!tt.ptr<f32, 1>>, tensor<1x2048xi32>
      tt.store %1049, %902, %518 {cache = 1 : i32, evict = 1 : i32} : tensor<1x2048xf32>
      %1050 = tt.addptr %449, %516 : tensor<1x2048x!tt.ptr<f32, 1>>, tensor<1x2048xi32>
      tt.store %1050, %907, %518 {cache = 1 : i32, evict = 1 : i32} : tensor<1x2048xf32>
      %1051 = tt.addptr %450, %516 : tensor<1x2048x!tt.ptr<f32, 1>>, tensor<1x2048xi32>
      tt.store %1051, %911, %518 {cache = 1 : i32, evict = 1 : i32} : tensor<1x2048xf32>
      %1052 = tt.addptr %451, %516 : tensor<1x2048x!tt.ptr<f32, 1>>, tensor<1x2048xi32>
      tt.store %1052, %916, %518 {cache = 1 : i32, evict = 1 : i32} : tensor<1x2048xf32>
      %1053 = tt.addptr %452, %516 : tensor<1x2048x!tt.ptr<f32, 1>>, tensor<1x2048xi32>
      tt.store %1053, %920, %518 {cache = 1 : i32, evict = 1 : i32} : tensor<1x2048xf32>
      %1054 = tt.addptr %453, %516 : tensor<1x2048x!tt.ptr<f32, 1>>, tensor<1x2048xi32>
      tt.store %1054, %925, %518 {cache = 1 : i32, evict = 1 : i32} : tensor<1x2048xf32>
      %1055 = tt.addptr %454, %516 : tensor<1x2048x!tt.ptr<f32, 1>>, tensor<1x2048xi32>
      tt.store %1055, %929, %518 {cache = 1 : i32, evict = 1 : i32} : tensor<1x2048xf32>
      %1056 = tt.addptr %455, %516 : tensor<1x2048x!tt.ptr<f32, 1>>, tensor<1x2048xi32>
      tt.store %1056, %934, %518 {cache = 1 : i32, evict = 1 : i32} : tensor<1x2048xf32>
      %1057 = tt.addptr %456, %516 : tensor<1x2048x!tt.ptr<f32, 1>>, tensor<1x2048xi32>
      tt.store %1057, %938, %518 {cache = 1 : i32, evict = 1 : i32} : tensor<1x2048xf32>
      %1058 = tt.addptr %457, %516 : tensor<1x2048x!tt.ptr<f32, 1>>, tensor<1x2048xi32>
      tt.store %1058, %943, %518 {cache = 1 : i32, evict = 1 : i32} : tensor<1x2048xf32>
      %1059 = tt.addptr %458, %516 : tensor<1x2048x!tt.ptr<f32, 1>>, tensor<1x2048xi32>
      tt.store %1059, %947, %518 {cache = 1 : i32, evict = 1 : i32} : tensor<1x2048xf32>
      %1060 = tt.addptr %459, %516 : tensor<1x2048x!tt.ptr<f32, 1>>, tensor<1x2048xi32>
      tt.store %1060, %952, %518 {cache = 1 : i32, evict = 1 : i32} : tensor<1x2048xf32>
      %1061 = tt.addptr %460, %516 : tensor<1x2048x!tt.ptr<f32, 1>>, tensor<1x2048xi32>
      tt.store %1061, %956, %518 {cache = 1 : i32, evict = 1 : i32} : tensor<1x2048xf32>
      %1062 = tt.addptr %461, %516 : tensor<1x2048x!tt.ptr<f32, 1>>, tensor<1x2048xi32>
      tt.store %1062, %961, %518 {cache = 1 : i32, evict = 1 : i32} : tensor<1x2048xf32>
      %1063 = tt.addptr %462, %516 : tensor<1x2048x!tt.ptr<f32, 1>>, tensor<1x2048xi32>
      tt.store %1063, %965, %518 {cache = 1 : i32, evict = 1 : i32} : tensor<1x2048xf32>
      %1064 = tt.addptr %463, %516 : tensor<1x2048x!tt.ptr<f32, 1>>, tensor<1x2048xi32>
      tt.store %1064, %970, %518 {cache = 1 : i32, evict = 1 : i32} : tensor<1x2048xf32>
      %1065 = tt.addptr %464, %516 : tensor<1x2048x!tt.ptr<f32, 1>>, tensor<1x2048xi32>
      tt.store %1065, %974, %518 {cache = 1 : i32, evict = 1 : i32} : tensor<1x2048xf32>
      %1066 = tt.addptr %465, %516 : tensor<1x2048x!tt.ptr<f32, 1>>, tensor<1x2048xi32>
      tt.store %1066, %979, %518 {cache = 1 : i32, evict = 1 : i32} : tensor<1x2048xf32>
      %1067 = tt.addptr %466, %516 : tensor<1x2048x!tt.ptr<f32, 1>>, tensor<1x2048xi32>
      tt.store %1067, %983, %518 {cache = 1 : i32, evict = 1 : i32} : tensor<1x2048xf32>
      %1068 = tt.addptr %467, %516 : tensor<1x2048x!tt.ptr<f32, 1>>, tensor<1x2048xi32>
      tt.store %1068, %988, %518 {cache = 1 : i32, evict = 1 : i32} : tensor<1x2048xf32>
      %1069 = tt.addptr %468, %516 : tensor<1x2048x!tt.ptr<f32, 1>>, tensor<1x2048xi32>
      tt.store %1069, %992, %518 {cache = 1 : i32, evict = 1 : i32} : tensor<1x2048xf32>
      %1070 = tt.addptr %469, %516 : tensor<1x2048x!tt.ptr<f32, 1>>, tensor<1x2048xi32>
      tt.store %1070, %997, %518 {cache = 1 : i32, evict = 1 : i32} : tensor<1x2048xf32>
      %1071 = tt.addptr %470, %516 : tensor<1x2048x!tt.ptr<f32, 1>>, tensor<1x2048xi32>
      tt.store %1071, %1001, %518 {cache = 1 : i32, evict = 1 : i32} : tensor<1x2048xf32>
      %1072 = tt.addptr %471, %516 : tensor<1x2048x!tt.ptr<f32, 1>>, tensor<1x2048xi32>
      tt.store %1072, %1006, %518 {cache = 1 : i32, evict = 1 : i32} : tensor<1x2048xf32>
      %1073 = tt.addptr %472, %516 : tensor<1x2048x!tt.ptr<f32, 1>>, tensor<1x2048xi32>
      tt.store %1073, %1010, %518 {cache = 1 : i32, evict = 1 : i32} : tensor<1x2048xf32>
      %1074 = tt.addptr %473, %516 : tensor<1x2048x!tt.ptr<f32, 1>>, tensor<1x2048xi32>
      tt.store %1074, %1018, %518 {cache = 1 : i32, evict = 1 : i32} : tensor<1x2048xf32>
      scf.yield %1023 : tensor<1x2048xf32>
    }
    %475 = "tt.reduce"(%474) <{axis = 1 : i32}> ({
    ^bb0(%arg240: f32, %arg241: f32):
      %513 = arith.addf %arg240, %arg241 : f32
      tt.reduce.return %513 : f32
    }) : (tensor<1x2048xf32>) -> tensor<1xf32>
    %476 = tt.expand_dims %475 {axis = 1 : i32} : (tensor<1xf32>) -> tensor<1x1xf32>
    %477 = tt.addptr %arg184, %0 : !tt.ptr<f32, 1>, i32
    %478 = tt.splat %477 : (!tt.ptr<f32, 1>) -> tensor<1x1x!tt.ptr<f32, 1>>
    %479 = tt.load %478, %2 {cache = 1 : i32, evict = 3 : i32, isVolatile = false} : tensor<1x1xf32>
    %480 = arith.muli %0, %c2304_i32 : i32
    %481 = tt.splat %480 : (i32) -> tensor<1x2048xi32>
    %482 = tt.splat %arg182 : (!tt.ptr<bf16, 1>) -> tensor<1x2048x!tt.ptr<bf16, 1>>
    %483 = tt.splat %1 : (i1) -> tensor<1x2048xi1>
    %484 = tt.splat %arg183 : (!tt.ptr<f32, 1>) -> tensor<1x2048x!tt.ptr<f32, 1>>
    %485 = tt.splat %arg235 : (!tt.ptr<f32, 1>) -> tensor<1x2048x!tt.ptr<f32, 1>>
    %486 = tt.splat %arg178 : (!tt.ptr<f32, 1>) -> tensor<1x2048x!tt.ptr<f32, 1>>
    %487 = tt.splat %arg176 : (!tt.ptr<bf16, 1>) -> tensor<1x2048x!tt.ptr<bf16, 1>>
    %488 = tt.broadcast %479 : (tensor<1x1xf32>) -> tensor<1x2048xf32>
    %489 = arith.mulf %476, %cst_1 : tensor<1x1xf32>
    %490 = arith.mulf %479, %479 : tensor<1x1xf32>
    %491 = arith.mulf %490, %479 : tensor<1x1xf32>
    %492 = arith.mulf %489, %491 : tensor<1x1xf32>
    %493 = arith.divf %492, %cst_0 : tensor<1x1xf32>
    %494 = tt.broadcast %493 : (tensor<1x1xf32>) -> tensor<1x2048xf32>
    %495 = tt.splat %arg236 : (!tt.ptr<f32, 1>) -> tensor<1x2048x!tt.ptr<f32, 1>>
    %496 = scf.for %arg240 = %c0_i32 to %c2304_i32 step %c2048_i32 iter_args(%arg241 = %cst_5) -> (tensor<1x2048xf32>)  : i32 {
      %513 = tt.splat %arg240 : (i32) -> tensor<1x2048xi32>
      %514 = arith.addi %513, %4 : tensor<1x2048xi32>
      %515 = arith.cmpi slt, %514, %cst_4 : tensor<1x2048xi32>
      %516 = arith.addi %514, %481 : tensor<1x2048xi32>
      %517 = tt.addptr %482, %516 : tensor<1x2048x!tt.ptr<bf16, 1>>, tensor<1x2048xi32>
      %518 = arith.andi %515, %483 : tensor<1x2048xi1>
      %519 = tt.load %517, %518, %cst {cache = 1 : i32, evict = 2 : i32, isVolatile = false} : tensor<1x2048xbf16>
      %520 = arith.extf %519 : tensor<1x2048xbf16> to tensor<1x2048xf32>
      %521 = tt.addptr %484, %514 : tensor<1x2048x!tt.ptr<f32, 1>>, tensor<1x2048xi32>
      %522 = tt.load %521, %515, %cst_5 {cache = 1 : i32, evict = 3 : i32, isVolatile = false} : tensor<1x2048xf32>
      %523 = tt.addptr %485, %516 : tensor<1x2048x!tt.ptr<f32, 1>>, tensor<1x2048xi32>
      %524 = tt.load %523, %518, %cst_5 {cache = 1 : i32, evict = 2 : i32, isVolatile = false} : tensor<1x2048xf32>
      %525 = tt.addptr %486, %514 : tensor<1x2048x!tt.ptr<f32, 1>>, tensor<1x2048xi32>
      %526 = tt.load %525, %515, %cst_5 {cache = 1 : i32, evict = 3 : i32, isVolatile = false} : tensor<1x2048xf32>
      %527 = tt.addptr %487, %516 : tensor<1x2048x!tt.ptr<bf16, 1>>, tensor<1x2048xi32>
      %528 = tt.load %527, %518, %cst {cache = 1 : i32, evict = 3 : i32, isVolatile = false} : tensor<1x2048xbf16>
      %529 = arith.extf %528 : tensor<1x2048xbf16> to tensor<1x2048xf32>
      %530 = arith.addf %522, %cst_3 : tensor<1x2048xf32>
      %531 = arith.mulf %520, %530 : tensor<1x2048xf32>
      %532 = arith.mulf %531, %488 : tensor<1x2048xf32>
      %533 = arith.mulf %494, %524 : tensor<1x2048xf32>
      %534 = arith.addf %532, %533 : tensor<1x2048xf32>
      %535 = arith.addf %534, %533 : tensor<1x2048xf32>
      %536 = arith.addf %526, %cst_3 : tensor<1x2048xf32>
      %537 = arith.mulf %535, %536 : tensor<1x2048xf32>
      %538 = arith.mulf %537, %529 : tensor<1x2048xf32>
      %539 = arith.addf %arg241, %538 : tensor<1x2048xf32>
      %540 = arith.select %518, %539, %arg241 : tensor<1x2048xi1>, tensor<1x2048xf32>
      %541 = tt.addptr %495, %516 : tensor<1x2048x!tt.ptr<f32, 1>>, tensor<1x2048xi32>
      tt.store %541, %535, %518 {cache = 1 : i32, evict = 1 : i32} : tensor<1x2048xf32>
      scf.yield %540 : tensor<1x2048xf32>
    }
    %497 = "tt.reduce"(%496) <{axis = 1 : i32}> ({
    ^bb0(%arg240: f32, %arg241: f32):
      %513 = arith.addf %arg240, %arg241 : f32
      tt.reduce.return %513 : f32
    }) : (tensor<1x2048xf32>) -> tensor<1xf32>
    %498 = tt.expand_dims %497 {axis = 1 : i32} : (tensor<1xf32>) -> tensor<1x1xf32>
    %499 = arith.muli %0, %c2304_i32 : i32
    %500 = tt.splat %499 : (i32) -> tensor<1x2048xi32>
    %501 = tt.splat %arg236 : (!tt.ptr<f32, 1>) -> tensor<1x2048x!tt.ptr<f32, 1>>
    %502 = tt.splat %1 : (i1) -> tensor<1x2048xi1>
    %503 = tt.splat %arg178 : (!tt.ptr<f32, 1>) -> tensor<1x2048x!tt.ptr<f32, 1>>
    %504 = tt.splat %arg176 : (!tt.ptr<bf16, 1>) -> tensor<1x2048x!tt.ptr<bf16, 1>>
    %505 = tt.broadcast %232 : (tensor<1x1xf32>) -> tensor<1x2048xf32>
    %506 = arith.mulf %498, %cst_1 : tensor<1x1xf32>
    %507 = arith.mulf %232, %232 : tensor<1x1xf32>
    %508 = arith.mulf %507, %232 : tensor<1x1xf32>
    %509 = arith.mulf %506, %508 : tensor<1x1xf32>
    %510 = arith.divf %509, %cst_0 : tensor<1x1xf32>
    %511 = tt.broadcast %510 : (tensor<1x1xf32>) -> tensor<1x2048xf32>
    %512 = tt.splat %arg237 : (!tt.ptr<bf16, 1>) -> tensor<1x2048x!tt.ptr<bf16, 1>>
    scf.for %arg240 = %c0_i32 to %c2304_i32 step %c2048_i32  : i32 {
      %513 = tt.splat %arg240 : (i32) -> tensor<1x2048xi32>
      %514 = arith.addi %513, %4 : tensor<1x2048xi32>
      %515 = arith.cmpi slt, %514, %cst_4 : tensor<1x2048xi32>
      %516 = arith.addi %514, %500 : tensor<1x2048xi32>
      %517 = tt.addptr %501, %516 : tensor<1x2048x!tt.ptr<f32, 1>>, tensor<1x2048xi32>
      %518 = arith.andi %515, %502 : tensor<1x2048xi1>
      %519 = tt.load %517, %518, %cst_5 {cache = 1 : i32, evict = 2 : i32, isVolatile = false} : tensor<1x2048xf32>
      %520 = tt.addptr %503, %514 : tensor<1x2048x!tt.ptr<f32, 1>>, tensor<1x2048xi32>
      %521 = tt.load %520, %515, %cst_5 {cache = 1 : i32, evict = 3 : i32, isVolatile = false} : tensor<1x2048xf32>
      %522 = tt.addptr %504, %516 : tensor<1x2048x!tt.ptr<bf16, 1>>, tensor<1x2048xi32>
      %523 = tt.load %522, %518, %cst {cache = 1 : i32, evict = 2 : i32, isVolatile = false} : tensor<1x2048xbf16>
      %524 = arith.extf %523 : tensor<1x2048xbf16> to tensor<1x2048xf32>
      %525 = arith.addf %521, %cst_3 : tensor<1x2048xf32>
      %526 = arith.mulf %519, %525 : tensor<1x2048xf32>
      %527 = arith.mulf %526, %505 : tensor<1x2048xf32>
      %528 = arith.mulf %511, %524 : tensor<1x2048xf32>
      %529 = arith.addf %527, %528 : tensor<1x2048xf32>
      %530 = arith.addf %529, %528 : tensor<1x2048xf32>
      %531 = tt.addptr %512, %516 : tensor<1x2048x!tt.ptr<bf16, 1>>, tensor<1x2048xi32>
      %532 = arith.truncf %530 : tensor<1x2048xf32> to tensor<1x2048xbf16>
      tt.store %531, %532, %518 {cache = 1 : i32, evict = 1 : i32} : tensor<1x2048xbf16>
    }
    tt.return
  }
}
