module {
  tt.func public @triton__0d1d2d3d4d5d6d78de(%arg0: !tt.ptr<bf16, 1> {tt.divisibility = 16 : i32}, %arg1: !tt.ptr<f32, 1> {tt.divisibility = 16 : i32}, %arg2: !tt.ptr<f32, 1> {tt.divisibility = 16 : i32}, %arg3: !tt.ptr<i64, 1> {tt.divisibility = 16 : i32}, %arg4: !tt.ptr<f32, 1> {tt.divisibility = 16 : i32}, %arg5: !tt.ptr<f32, 1> {tt.divisibility = 16 : i32}, %arg6: !tt.ptr<f32, 1> {tt.divisibility = 16 : i32}, %arg7: i32, %arg8: i32 {tt.divisibility = 16 : i32, tt.max_divisibility = 16 : i32}) attributes {noinline = false} {
    %c4_i32 = arith.constant 4 : i32
    %cst = arith.constant dense<0.000000e+00> : tensor<1x2048xbf16>
    %cst_0 = arith.constant dense<2304> : tensor<1x1xi64>
    %cst_1 = arith.constant dense<0> : tensor<1x1xi64>
    %cst_2 = arith.constant dense<288256> : tensor<1x1xi64>
    %c2304_i32 = arith.constant 2304 : i32
    %c2048_i32 = arith.constant 2048 : i32
    %c0_i32 = arith.constant 0 : i32
    %cst_3 = arith.constant dense<2.304000e+03> : tensor<1x1xf32>
    %cst_4 = arith.constant dense<-5.000000e-01> : tensor<1x1xf32>
    %cst_5 = arith.constant dense<-1> : tensor<1x1xi64>
    %cst_6 = arith.constant dense<4.800000e+01> : tensor<1x2048xf32>
    %cst_7 = arith.constant dense<1.000000e+00> : tensor<1x2048xf32>
    %cst_8 = arith.constant dense<2304> : tensor<1x2048xi32>
    %cst_9 = arith.constant dense<0.000000e+00> : tensor<1x2048xf32>
    %0 = tt.get_program_id x : i32
    %1 = arith.cmpi slt, %0, %c4_i32 : i32
    %2 = tt.splat %1 : (i1) -> tensor<1x1xi1>
    %3 = tt.make_range {end = 2048 : i32, start = 0 : i32} : tensor<2048xi32>
    %4 = tt.expand_dims %3 {axis = 0 : i32} : (tensor<2048xi32>) -> tensor<1x2048xi32>
    %5 = arith.muli %0, %c2304_i32 : i32
    %6 = tt.splat %5 : (i32) -> tensor<1x2048xi32>
    %7 = tt.splat %arg0 : (!tt.ptr<bf16, 1>) -> tensor<1x2048x!tt.ptr<bf16, 1>>
    %8 = tt.splat %1 : (i1) -> tensor<1x2048xi1>
    %9 = tt.splat %arg1 : (!tt.ptr<f32, 1>) -> tensor<1x2048x!tt.ptr<f32, 1>>
    %10 = tt.splat %arg2 : (!tt.ptr<f32, 1>) -> tensor<1x2048x!tt.ptr<f32, 1>>
    %11 = scf.for %arg9 = %c0_i32 to %c2304_i32 step %c2048_i32 iter_args(%arg10 = %cst_9) -> (tensor<1x2048xf32>)  : i32 {
      %42 = tt.splat %arg9 : (i32) -> tensor<1x2048xi32>
      %43 = arith.addi %42, %4 : tensor<1x2048xi32>
      %44 = arith.cmpi slt, %43, %cst_8 : tensor<1x2048xi32>
      %45 = arith.addi %43, %6 : tensor<1x2048xi32>
      %46 = tt.addptr %7, %45 : tensor<1x2048x!tt.ptr<bf16, 1>>, tensor<1x2048xi32>
      %47 = arith.andi %44, %8 : tensor<1x2048xi1>
      %48 = tt.load %46, %47, %cst {cache = 1 : i32, evict = 3 : i32, isVolatile = false} : tensor<1x2048xbf16>
      %49 = arith.extf %48 : tensor<1x2048xbf16> to tensor<1x2048xf32>
      %50 = tt.addptr %9, %43 : tensor<1x2048x!tt.ptr<f32, 1>>, tensor<1x2048xi32>
      %51 = tt.load %50, %44, %cst_9 {cache = 1 : i32, evict = 3 : i32, isVolatile = false} : tensor<1x2048xf32>
      %52 = tt.addptr %10, %45 : tensor<1x2048x!tt.ptr<f32, 1>>, tensor<1x2048xi32>
      %53 = tt.load %52, %47, %cst_9 {cache = 1 : i32, evict = 3 : i32, isVolatile = false} : tensor<1x2048xf32>
      %54 = arith.addf %51, %cst_7 : tensor<1x2048xf32>
      %55 = arith.mulf %49, %54 : tensor<1x2048xf32>
      %56 = arith.mulf %53, %cst_6 : tensor<1x2048xf32>
      %57 = arith.mulf %55, %56 : tensor<1x2048xf32>
      %58 = arith.addf %arg10, %57 : tensor<1x2048xf32>
      %59 = arith.select %47, %58, %arg10 : tensor<1x2048xi1>, tensor<1x2048xf32>
      scf.yield %59 : tensor<1x2048xf32>
    }
    %12 = "tt.reduce"(%11) <{axis = 1 : i32}> ({
    ^bb0(%arg9: f32, %arg10: f32):
      %42 = arith.addf %arg9, %arg10 : f32
      tt.reduce.return %42 : f32
    }) : (tensor<1x2048xf32>) -> tensor<1xf32>
    %13 = tt.expand_dims %12 {axis = 1 : i32} : (tensor<1xf32>) -> tensor<1x1xf32>
    %14 = tt.addptr %arg3, %0 : !tt.ptr<i64, 1>, i32
    %15 = tt.splat %14 : (!tt.ptr<i64, 1>) -> tensor<1x1x!tt.ptr<i64, 1>>
    %16 = tt.load %15, %2 {cache = 1 : i32, evict = 3 : i32, isVolatile = false} : tensor<1x1xi64>
    %17 = tt.addptr %arg5, %0 : !tt.ptr<f32, 1>, i32
    %18 = tt.splat %17 : (!tt.ptr<f32, 1>) -> tensor<1x1x!tt.ptr<f32, 1>>
    %19 = tt.load %18, %2 {cache = 1 : i32, evict = 3 : i32, isVolatile = false} : tensor<1x1xf32>
    %20 = arith.muli %0, %c2304_i32 : i32
    %21 = tt.splat %20 : (i32) -> tensor<1x2048xi32>
    %22 = tt.splat %arg4 : (!tt.ptr<f32, 1>) -> tensor<1x2048x!tt.ptr<f32, 1>>
    %23 = tt.splat %1 : (i1) -> tensor<1x2048xi1>
    %24 = tt.splat %arg0 : (!tt.ptr<bf16, 1>) -> tensor<1x2048x!tt.ptr<bf16, 1>>
    %25 = tt.splat %arg1 : (!tt.ptr<f32, 1>) -> tensor<1x2048x!tt.ptr<f32, 1>>
    %26 = tt.splat %arg2 : (!tt.ptr<f32, 1>) -> tensor<1x2048x!tt.ptr<f32, 1>>
    %27 = arith.addi %16, %cst_2 : tensor<1x1xi64>
    %28 = arith.cmpi slt, %16, %cst_1 : tensor<1x1xi64>
    %29 = arith.select %28, %27, %16 : tensor<1x1xi1>, tensor<1x1xi64>
    %30 = arith.cmpi eq, %16, %cst_5 : tensor<1x1xi64>
    %31 = tt.broadcast %19 : (tensor<1x1xf32>) -> tensor<1x2048xf32>
    %32 = arith.mulf %13, %cst_4 : tensor<1x1xf32>
    %33 = arith.mulf %19, %19 : tensor<1x1xf32>
    %34 = arith.mulf %33, %19 : tensor<1x1xf32>
    %35 = arith.mulf %32, %34 : tensor<1x1xf32>
    %36 = arith.divf %35, %cst_3 : tensor<1x1xf32>
    %37 = tt.broadcast %36 : (tensor<1x1xf32>) -> tensor<1x2048xf32>
    %38 = tt.broadcast %30 : (tensor<1x1xi1>) -> tensor<1x2048xi1>
    %39 = arith.muli %29, %cst_0 : tensor<1x1xi64>
    %40 = tt.broadcast %39 : (tensor<1x1xi64>) -> tensor<1x2048xi64>
    %41 = tt.splat %arg6 : (!tt.ptr<f32, 1>) -> tensor<1x2048x!tt.ptr<f32, 1>>
    scf.for %arg9 = %c0_i32 to %c2304_i32 step %c2048_i32  : i32 {
      %42 = tt.splat %arg9 : (i32) -> tensor<1x2048xi32>
      %43 = arith.addi %42, %4 : tensor<1x2048xi32>
      %44 = arith.cmpi slt, %43, %cst_8 : tensor<1x2048xi32>
      %45 = arith.addi %43, %21 : tensor<1x2048xi32>
      %46 = tt.addptr %22, %45 : tensor<1x2048x!tt.ptr<f32, 1>>, tensor<1x2048xi32>
      %47 = arith.andi %44, %23 : tensor<1x2048xi1>
      %48 = tt.load %46, %47, %cst_9 {cache = 1 : i32, evict = 2 : i32, isVolatile = false} : tensor<1x2048xf32>
      %49 = tt.addptr %24, %45 : tensor<1x2048x!tt.ptr<bf16, 1>>, tensor<1x2048xi32>
      %50 = tt.load %49, %47, %cst {cache = 1 : i32, evict = 2 : i32, isVolatile = false} : tensor<1x2048xbf16>
      %51 = arith.extf %50 : tensor<1x2048xbf16> to tensor<1x2048xf32>
      %52 = tt.addptr %25, %43 : tensor<1x2048x!tt.ptr<f32, 1>>, tensor<1x2048xi32>
      %53 = tt.load %52, %44, %cst_9 {cache = 1 : i32, evict = 3 : i32, isVolatile = false} : tensor<1x2048xf32>
      %54 = tt.addptr %26, %45 : tensor<1x2048x!tt.ptr<f32, 1>>, tensor<1x2048xi32>
      %55 = tt.load %54, %47, %cst_9 {cache = 1 : i32, evict = 2 : i32, isVolatile = false} : tensor<1x2048xf32>
      %56 = arith.addf %53, %cst_7 : tensor<1x2048xf32>
      %57 = arith.mulf %51, %56 : tensor<1x2048xf32>
      %58 = arith.mulf %57, %31 : tensor<1x2048xf32>
      %59 = arith.addf %48, %58 : tensor<1x2048xf32>
      %60 = arith.mulf %55, %cst_6 : tensor<1x2048xf32>
      %61 = arith.mulf %37, %60 : tensor<1x2048xf32>
      %62 = arith.addf %59, %61 : tensor<1x2048xf32>
      %63 = arith.addf %62, %61 : tensor<1x2048xf32>
      %64 = arith.mulf %63, %cst_6 : tensor<1x2048xf32>
      %65 = arith.select %38, %cst_9, %64 : tensor<1x2048xi1>, tensor<1x2048xf32>
      %66 = arith.extsi %43 : tensor<1x2048xi32> to tensor<1x2048xi64>
      %67 = arith.addi %66, %40 : tensor<1x2048xi64>
      %68 = tt.addptr %41, %67 : tensor<1x2048x!tt.ptr<f32, 1>>, tensor<1x2048xi64>
      %69 = "tt.atomic_rmw"(%68, %65, %47) <{atomic_rmw_op = 5 : i32, scope = 1 : i32, sem = 4 : i32}> : (tensor<1x2048x!tt.ptr<f32, 1>>, tensor<1x2048xf32>, tensor<1x2048xi1>) -> tensor<1x2048xf32>
    }
    tt.return
  }
}
