module {
  tt.func public @triton__0d1d2d3d4d5d6de7de(%arg0: !tt.ptr<bf16, 1> {tt.divisibility = 16 : i32}, %arg1: !tt.ptr<f32, 1> {tt.divisibility = 16 : i32}, %arg2: !tt.ptr<f32, 1> {tt.divisibility = 16 : i32}, %arg3: !tt.ptr<f32, 1> {tt.divisibility = 16 : i32}, %arg4: !tt.ptr<f32, 1> {tt.divisibility = 16 : i32}, %arg5: !tt.ptr<bf16, 1> {tt.divisibility = 16 : i32}, %arg6: i32 {tt.divisibility = 16 : i32, tt.max_divisibility = 16 : i32}, %arg7: i32 {tt.divisibility = 16 : i32, tt.max_divisibility = 16 : i32}) attributes {noinline = false} {
    %c512_i32 = arith.constant 512 : i32
    %cst = arith.constant dense<0.000000e+00> : tensor<1x2048xbf16>
    %c2304_i32 = arith.constant 2304 : i32
    %c2048_i32 = arith.constant 2048 : i32
    %c0_i32 = arith.constant 0 : i32
    %cst_0 = arith.constant dense<1.000000e+00> : tensor<1x2048xf32>
    %cst_1 = arith.constant dense<9.99999974E-6> : tensor<1x1xf32>
    %cst_2 = arith.constant dense<2.304000e+03> : tensor<1x1xf32>
    %cst_3 = arith.constant dense<2304> : tensor<1x2048xi32>
    %cst_4 = arith.constant dense<0.000000e+00> : tensor<1x2048xf32>
    %0 = tt.get_program_id x : i32
    %1 = arith.cmpi slt, %0, %c512_i32 : i32
    %2 = tt.splat %1 : (i1) -> tensor<1x1xi1>
    %3 = tt.make_range {end = 2048 : i32, start = 0 : i32} : tensor<2048xi32>
    %4 = tt.expand_dims %3 {axis = 0 : i32} : (tensor<2048xi32>) -> tensor<1x2048xi32>
    %5 = arith.muli %0, %c2304_i32 : i32
    %6 = tt.splat %5 : (i32) -> tensor<1x2048xi32>
    %7 = tt.splat %arg0 : (!tt.ptr<bf16, 1>) -> tensor<1x2048x!tt.ptr<bf16, 1>>
    %8 = tt.splat %1 : (i1) -> tensor<1x2048xi1>
    %9 = scf.for %arg8 = %c0_i32 to %c2304_i32 step %c2048_i32 iter_args(%arg9 = %cst_4) -> (tensor<1x2048xf32>)  : i32 {
      %37 = tt.splat %arg8 : (i32) -> tensor<1x2048xi32>
      %38 = arith.addi %37, %4 : tensor<1x2048xi32>
      %39 = arith.cmpi slt, %38, %cst_3 : tensor<1x2048xi32>
      %40 = arith.addi %38, %6 : tensor<1x2048xi32>
      %41 = tt.addptr %7, %40 : tensor<1x2048x!tt.ptr<bf16, 1>>, tensor<1x2048xi32>
      %42 = arith.andi %39, %8 : tensor<1x2048xi1>
      %43 = tt.load %41, %42, %cst {cache = 1 : i32, evict = 3 : i32, isVolatile = false} : tensor<1x2048xbf16>
      %44 = arith.extf %43 : tensor<1x2048xbf16> to tensor<1x2048xf32>
      %45 = arith.mulf %44, %44 : tensor<1x2048xf32>
      %46 = arith.addf %arg9, %45 : tensor<1x2048xf32>
      %47 = arith.select %42, %46, %arg9 : tensor<1x2048xi1>, tensor<1x2048xf32>
      scf.yield %47 : tensor<1x2048xf32>
    }
    %10 = "tt.reduce"(%9) <{axis = 1 : i32}> ({
    ^bb0(%arg8: f32, %arg9: f32):
      %37 = arith.addf %arg8, %arg9 : f32
      tt.reduce.return %37 : f32
    }) : (tensor<1x2048xf32>) -> tensor<1xf32>
    %11 = tt.expand_dims %10 {axis = 1 : i32} : (tensor<1xf32>) -> tensor<1x1xf32>
    %12 = tt.addptr %arg4, %0 : !tt.ptr<f32, 1>, i32
    %13 = tt.splat %12 : (!tt.ptr<f32, 1>) -> tensor<1x1x!tt.ptr<f32, 1>>
    tt.store %13, %11, %2 {cache = 1 : i32, evict = 1 : i32} : tensor<1x1xf32>
    %14 = arith.muli %0, %c2304_i32 : i32
    %15 = tt.splat %14 : (i32) -> tensor<1x2048xi32>
    %16 = tt.splat %arg0 : (!tt.ptr<bf16, 1>) -> tensor<1x2048x!tt.ptr<bf16, 1>>
    %17 = tt.splat %1 : (i1) -> tensor<1x2048xi1>
    %18 = tt.splat %arg1 : (!tt.ptr<f32, 1>) -> tensor<1x2048x!tt.ptr<f32, 1>>
    %19 = tt.splat %arg2 : (!tt.ptr<f32, 1>) -> tensor<1x2048x!tt.ptr<f32, 1>>
    %20 = arith.divf %11, %cst_2 : tensor<1x1xf32>
    %21 = arith.addf %20, %cst_1 : tensor<1x1xf32>
    %22 = scf.for %arg8 = %c0_i32 to %c2304_i32 step %c2048_i32 iter_args(%arg9 = %cst_4) -> (tensor<1x2048xf32>)  : i32 {
      %37 = tt.splat %arg8 : (i32) -> tensor<1x2048xi32>
      %38 = arith.addi %37, %4 : tensor<1x2048xi32>
      %39 = arith.cmpi slt, %38, %cst_3 : tensor<1x2048xi32>
      %40 = arith.addi %38, %15 : tensor<1x2048xi32>
      %41 = tt.addptr %16, %40 : tensor<1x2048x!tt.ptr<bf16, 1>>, tensor<1x2048xi32>
      %42 = arith.andi %39, %17 : tensor<1x2048xi1>
      %43 = tt.load %41, %42, %cst {cache = 1 : i32, evict = 3 : i32, isVolatile = false} : tensor<1x2048xbf16>
      %44 = arith.extf %43 : tensor<1x2048xbf16> to tensor<1x2048xf32>
      %45 = tt.addptr %18, %38 : tensor<1x2048x!tt.ptr<f32, 1>>, tensor<1x2048xi32>
      %46 = tt.load %45, %39, %cst_4 {cache = 1 : i32, evict = 3 : i32, isVolatile = false} : tensor<1x2048xf32>
      %47 = tt.addptr %19, %40 : tensor<1x2048x!tt.ptr<f32, 1>>, tensor<1x2048xi32>
      %48 = tt.load %47, %42, %cst_4 {cache = 1 : i32, evict = 3 : i32, isVolatile = false} : tensor<1x2048xf32>
      %49 = tt.extern_elementwise %21 {libname = "libdevice", libpath = "/home/zeus/miniconda3/envs/cloudspace/lib/python3.10/site-packages/triton/language/../third_party/cuda/lib/libdevice.10.bc", pure = true, symbol = "__nv_rsqrtf"} : (tensor<1x1xf32>) -> tensor<1x1xf32>
      %50 = tt.broadcast %49 : (tensor<1x1xf32>) -> tensor<1x2048xf32>
      %51 = arith.mulf %44, %50 : tensor<1x2048xf32>
      %52 = arith.addf %46, %cst_0 : tensor<1x2048xf32>
      %53 = arith.mulf %51, %52 : tensor<1x2048xf32>
      %54 = arith.addf %53, %48 : tensor<1x2048xf32>
      %55 = arith.mulf %54, %54 : tensor<1x2048xf32>
      %56 = arith.addf %arg9, %55 : tensor<1x2048xf32>
      %57 = arith.select %42, %56, %arg9 : tensor<1x2048xi1>, tensor<1x2048xf32>
      scf.yield %57 : tensor<1x2048xf32>
    }
    %23 = "tt.reduce"(%22) <{axis = 1 : i32}> ({
    ^bb0(%arg8: f32, %arg9: f32):
      %37 = arith.addf %arg8, %arg9 : f32
      tt.reduce.return %37 : f32
    }) : (tensor<1x2048xf32>) -> tensor<1xf32>
    %24 = tt.expand_dims %23 {axis = 1 : i32} : (tensor<1xf32>) -> tensor<1x1xf32>
    %25 = arith.muli %0, %c2304_i32 : i32
    %26 = tt.splat %25 : (i32) -> tensor<1x2048xi32>
    %27 = tt.splat %arg0 : (!tt.ptr<bf16, 1>) -> tensor<1x2048x!tt.ptr<bf16, 1>>
    %28 = tt.splat %1 : (i1) -> tensor<1x2048xi1>
    %29 = tt.splat %arg1 : (!tt.ptr<f32, 1>) -> tensor<1x2048x!tt.ptr<f32, 1>>
    %30 = tt.splat %arg2 : (!tt.ptr<f32, 1>) -> tensor<1x2048x!tt.ptr<f32, 1>>
    %31 = tt.splat %arg3 : (!tt.ptr<f32, 1>) -> tensor<1x2048x!tt.ptr<f32, 1>>
    %32 = arith.divf %11, %cst_2 : tensor<1x1xf32>
    %33 = arith.addf %32, %cst_1 : tensor<1x1xf32>
    %34 = arith.divf %24, %cst_2 : tensor<1x1xf32>
    %35 = arith.addf %34, %cst_1 : tensor<1x1xf32>
    %36 = tt.splat %arg5 : (!tt.ptr<bf16, 1>) -> tensor<1x2048x!tt.ptr<bf16, 1>>
    scf.for %arg8 = %c0_i32 to %c2304_i32 step %c2048_i32  : i32 {
      %37 = tt.splat %arg8 : (i32) -> tensor<1x2048xi32>
      %38 = arith.addi %37, %4 : tensor<1x2048xi32>
      %39 = arith.cmpi slt, %38, %cst_3 : tensor<1x2048xi32>
      %40 = arith.addi %38, %26 : tensor<1x2048xi32>
      %41 = tt.addptr %27, %40 : tensor<1x2048x!tt.ptr<bf16, 1>>, tensor<1x2048xi32>
      %42 = arith.andi %39, %28 : tensor<1x2048xi1>
      %43 = tt.load %41, %42, %cst {cache = 1 : i32, evict = 2 : i32, isVolatile = false} : tensor<1x2048xbf16>
      %44 = arith.extf %43 : tensor<1x2048xbf16> to tensor<1x2048xf32>
      %45 = tt.addptr %29, %38 : tensor<1x2048x!tt.ptr<f32, 1>>, tensor<1x2048xi32>
      %46 = tt.load %45, %39, %cst_4 {cache = 1 : i32, evict = 3 : i32, isVolatile = false} : tensor<1x2048xf32>
      %47 = tt.addptr %30, %40 : tensor<1x2048x!tt.ptr<f32, 1>>, tensor<1x2048xi32>
      %48 = tt.load %47, %42, %cst_4 {cache = 1 : i32, evict = 2 : i32, isVolatile = false} : tensor<1x2048xf32>
      %49 = tt.addptr %31, %38 : tensor<1x2048x!tt.ptr<f32, 1>>, tensor<1x2048xi32>
      %50 = tt.load %49, %39, %cst_4 {cache = 1 : i32, evict = 3 : i32, isVolatile = false} : tensor<1x2048xf32>
      %51 = tt.extern_elementwise %33 {libname = "libdevice", libpath = "/home/zeus/miniconda3/envs/cloudspace/lib/python3.10/site-packages/triton/language/../third_party/cuda/lib/libdevice.10.bc", pure = true, symbol = "__nv_rsqrtf"} : (tensor<1x1xf32>) -> tensor<1x1xf32>
      %52 = tt.broadcast %51 : (tensor<1x1xf32>) -> tensor<1x2048xf32>
      %53 = arith.mulf %44, %52 : tensor<1x2048xf32>
      %54 = arith.addf %46, %cst_0 : tensor<1x2048xf32>
      %55 = arith.mulf %53, %54 : tensor<1x2048xf32>
      %56 = arith.addf %55, %48 : tensor<1x2048xf32>
      %57 = tt.extern_elementwise %35 {libname = "libdevice", libpath = "/home/zeus/miniconda3/envs/cloudspace/lib/python3.10/site-packages/triton/language/../third_party/cuda/lib/libdevice.10.bc", pure = true, symbol = "__nv_rsqrtf"} : (tensor<1x1xf32>) -> tensor<1x1xf32>
      %58 = tt.broadcast %57 : (tensor<1x1xf32>) -> tensor<1x2048xf32>
      %59 = arith.mulf %56, %58 : tensor<1x2048xf32>
      %60 = arith.addf %50, %cst_0 : tensor<1x2048xf32>
      %61 = arith.mulf %59, %60 : tensor<1x2048xf32>
      %62 = tt.addptr %36, %40 : tensor<1x2048x!tt.ptr<bf16, 1>>, tensor<1x2048xi32>
      %63 = arith.truncf %61 : tensor<1x2048xf32> to tensor<1x2048xbf16>
      tt.store %62, %63, %42 {cache = 1 : i32, evict = 1 : i32} : tensor<1x2048xbf16>
    }
    tt.return
  }
}
