module {
  tt.func public @triton__0d1d2d3d4de5de(%arg0: !tt.ptr<bf16, 1> {tt.divisibility = 16 : i32}, %arg1: !tt.ptr<bf16, 1> {tt.divisibility = 16 : i32}, %arg2: !tt.ptr<f32, 1> {tt.divisibility = 16 : i32}, %arg3: !tt.ptr<bf16, 1> {tt.divisibility = 16 : i32}, %arg4: i32 {tt.divisibility = 16 : i32, tt.max_divisibility = 16 : i32}, %arg5: i32 {tt.divisibility = 16 : i32, tt.max_divisibility = 16 : i32}) attributes {noinline = false} {
    %c8192_i32 = arith.constant 8192 : i32
    %c-1_i32 = arith.constant -1 : i32
    %cst = arith.constant dense<0.000000e+00> : tensor<1x1024xbf16>
    %cst_0 = arith.constant dense<true> : tensor<1x1024xi1>
    %c1024_i32 = arith.constant 1024 : i32
    %c0_i32 = arith.constant 0 : i32
    %cst_1 = arith.constant dense<-3.38953139E+38> : tensor<1x1024xf32>
    %cst_2 = arith.constant dense<1.000000e+00> : tensor<1x1024xf32>
    %cst_3 = arith.constant dense<1> : tensor<1x1024xi64>
    %cst_4 = arith.constant dense<5.000000e+01> : tensor<1x1024xf32>
    %cst_5 = arith.constant dense<6.250000e-02> : tensor<1x1024xf32>
    %cst_6 = arith.constant dense<0.000000e+00> : tensor<1x1024xf32>
    %cst_7 = arith.constant dense<8192> : tensor<1x1024xi32>
    %cst_8 = arith.constant dense<0xFF800000> : tensor<1x1024xf32>
    %0 = tt.get_program_id x : i32
    %1 = tt.make_range {end = 1024 : i32, start = 0 : i32} : tensor<1024xi32>
    %2 = tt.expand_dims %1 {axis = 0 : i32} : (tensor<1024xi32>) -> tensor<1x1024xi32>
    %3 = arith.remsi %0, %c8192_i32 : i32
    %4 = arith.muli %0, %c8192_i32 : i32
    %5 = tt.splat %4 : (i32) -> tensor<1x1024xi32>
    %6 = tt.splat %arg0 : (!tt.ptr<bf16, 1>) -> tensor<1x1024x!tt.ptr<bf16, 1>>
    %7 = arith.muli %3, %c-1_i32 : i32
    %8 = tt.splat %7 : (i32) -> tensor<1x1024xi32>
    %9 = scf.for %arg6 = %c0_i32 to %c8192_i32 step %c1024_i32 iter_args(%arg7 = %cst_8) -> (tensor<1x1024xf32>)  : i32 {
      %31 = tt.splat %arg6 : (i32) -> tensor<1x1024xi32>
      %32 = arith.addi %31, %2 : tensor<1x1024xi32>
      %33 = arith.cmpi slt, %32, %cst_7 : tensor<1x1024xi32>
      %34 = arith.addi %32, %5 : tensor<1x1024xi32>
      %35 = tt.addptr %6, %34 : tensor<1x1024x!tt.ptr<bf16, 1>>, tensor<1x1024xi32>
      %36 = tt.load %35, %33, %cst {cache = 1 : i32, evict = 3 : i32, isVolatile = false} : tensor<1x1024xbf16>
      %37 = arith.extf %36 : tensor<1x1024xbf16> to tensor<1x1024xf32>
      %38 = arith.mulf %37, %cst_5 : tensor<1x1024xf32>
      %39 = arith.divf %38, %cst_4 : tensor<1x1024xf32>
      %40 = tt.extern_elementwise %39 {libname = "libdevice", libpath = "/home/zeus/miniconda3/envs/cloudspace/lib/python3.10/site-packages/triton/language/../third_party/cuda/lib/libdevice.10.bc", pure = true, symbol = "__nv_tanhf"} : (tensor<1x1024xf32>) -> tensor<1x1024xf32>
      %41 = arith.mulf %40, %cst_4 : tensor<1x1024xf32>
      %42 = arith.addi %32, %8 : tensor<1x1024xi32>
      %43 = arith.extsi %42 : tensor<1x1024xi32> to tensor<1x1024xi64>
      %44 = arith.cmpi sge, %43, %cst_3 : tensor<1x1024xi64>
      %45 = arith.select %44, %cst_2, %cst_6 : tensor<1x1024xi1>, tensor<1x1024xf32>
      %46 = arith.cmpf une, %45, %cst_6 : tensor<1x1024xf32>
      %47 = arith.select %46, %cst_1, %45 : tensor<1x1024xi1>, tensor<1x1024xf32>
      %48 = arith.addf %41, %47 : tensor<1x1024xf32>
      %49 = arith.cmpf ogt, %arg7, %48 : tensor<1x1024xf32>
      %50 = arith.cmpf une, %arg7, %arg7 : tensor<1x1024xf32>
      %51 = arith.ori %49, %50 : tensor<1x1024xi1>
      %52 = arith.xori %51, %cst_0 : tensor<1x1024xi1>
      %53 = arith.andi %33, %52 : tensor<1x1024xi1>
      %54 = arith.select %53, %48, %arg7 : tensor<1x1024xi1>, tensor<1x1024xf32>
      scf.yield %54 : tensor<1x1024xf32>
    }
    %10 = "tt.reduce"(%9) <{axis = 1 : i32}> ({
    ^bb0(%arg6: f32, %arg7: f32):
      %31 = arith.cmpf ogt, %arg6, %arg7 : f32
      %32 = arith.cmpf une, %arg6, %arg6 : f32
      %33 = arith.ori %31, %32 : i1
      %34 = arith.select %33, %arg6, %arg7 : f32
      tt.reduce.return %34 : f32
    }) : (tensor<1x1024xf32>) -> tensor<1xf32>
    %11 = tt.expand_dims %10 {axis = 1 : i32} : (tensor<1xf32>) -> tensor<1x1xf32>
    %12 = arith.muli %0, %c8192_i32 : i32
    %13 = tt.splat %12 : (i32) -> tensor<1x1024xi32>
    %14 = tt.splat %arg0 : (!tt.ptr<bf16, 1>) -> tensor<1x1024x!tt.ptr<bf16, 1>>
    %15 = arith.muli %3, %c-1_i32 : i32
    %16 = tt.splat %15 : (i32) -> tensor<1x1024xi32>
    %17 = tt.broadcast %11 : (tensor<1x1xf32>) -> tensor<1x1024xf32>
    %18 = scf.for %arg6 = %c0_i32 to %c8192_i32 step %c1024_i32 iter_args(%arg7 = %cst_6) -> (tensor<1x1024xf32>)  : i32 {
      %31 = tt.splat %arg6 : (i32) -> tensor<1x1024xi32>
      %32 = arith.addi %31, %2 : tensor<1x1024xi32>
      %33 = arith.cmpi slt, %32, %cst_7 : tensor<1x1024xi32>
      %34 = arith.addi %32, %13 : tensor<1x1024xi32>
      %35 = tt.addptr %14, %34 : tensor<1x1024x!tt.ptr<bf16, 1>>, tensor<1x1024xi32>
      %36 = tt.load %35, %33, %cst {cache = 1 : i32, evict = 3 : i32, isVolatile = false} : tensor<1x1024xbf16>
      %37 = arith.extf %36 : tensor<1x1024xbf16> to tensor<1x1024xf32>
      %38 = arith.mulf %37, %cst_5 : tensor<1x1024xf32>
      %39 = arith.divf %38, %cst_4 : tensor<1x1024xf32>
      %40 = tt.extern_elementwise %39 {libname = "libdevice", libpath = "/home/zeus/miniconda3/envs/cloudspace/lib/python3.10/site-packages/triton/language/../third_party/cuda/lib/libdevice.10.bc", pure = true, symbol = "__nv_tanhf"} : (tensor<1x1024xf32>) -> tensor<1x1024xf32>
      %41 = arith.mulf %40, %cst_4 : tensor<1x1024xf32>
      %42 = arith.addi %32, %16 : tensor<1x1024xi32>
      %43 = arith.extsi %42 : tensor<1x1024xi32> to tensor<1x1024xi64>
      %44 = arith.cmpi sge, %43, %cst_3 : tensor<1x1024xi64>
      %45 = arith.select %44, %cst_2, %cst_6 : tensor<1x1024xi1>, tensor<1x1024xf32>
      %46 = arith.cmpf une, %45, %cst_6 : tensor<1x1024xf32>
      %47 = arith.select %46, %cst_1, %45 : tensor<1x1024xi1>, tensor<1x1024xf32>
      %48 = arith.addf %41, %47 : tensor<1x1024xf32>
      %49 = arith.subf %48, %17 : tensor<1x1024xf32>
      %50 = math.exp %49 : tensor<1x1024xf32>
      %51 = arith.addf %arg7, %50 : tensor<1x1024xf32>
      %52 = arith.select %33, %51, %arg7 : tensor<1x1024xi1>, tensor<1x1024xf32>
      scf.yield %52 : tensor<1x1024xf32>
    }
    %19 = "tt.reduce"(%18) <{axis = 1 : i32}> ({
    ^bb0(%arg6: f32, %arg7: f32):
      %31 = arith.addf %arg6, %arg7 : f32
      tt.reduce.return %31 : f32
    }) : (tensor<1x1024xf32>) -> tensor<1xf32>
    %20 = tt.expand_dims %19 {axis = 1 : i32} : (tensor<1xf32>) -> tensor<1x1xf32>
    %21 = arith.muli %0, %c8192_i32 : i32
    %22 = tt.splat %21 : (i32) -> tensor<1x1024xi32>
    %23 = tt.splat %arg0 : (!tt.ptr<bf16, 1>) -> tensor<1x1024x!tt.ptr<bf16, 1>>
    %24 = arith.muli %3, %c-1_i32 : i32
    %25 = tt.splat %24 : (i32) -> tensor<1x1024xi32>
    %26 = tt.broadcast %11 : (tensor<1x1xf32>) -> tensor<1x1024xf32>
    %27 = tt.broadcast %20 : (tensor<1x1xf32>) -> tensor<1x1024xf32>
    %28 = tt.splat %arg1 : (!tt.ptr<bf16, 1>) -> tensor<1x1024x!tt.ptr<bf16, 1>>
    %29 = tt.splat %arg2 : (!tt.ptr<f32, 1>) -> tensor<1x1024x!tt.ptr<f32, 1>>
    %30 = tt.splat %arg3 : (!tt.ptr<bf16, 1>) -> tensor<1x1024x!tt.ptr<bf16, 1>>
    scf.for %arg6 = %c0_i32 to %c8192_i32 step %c1024_i32  : i32 {
      %31 = tt.splat %arg6 : (i32) -> tensor<1x1024xi32>
      %32 = arith.addi %31, %2 : tensor<1x1024xi32>
      %33 = arith.cmpi slt, %32, %cst_7 : tensor<1x1024xi32>
      %34 = arith.addi %32, %22 : tensor<1x1024xi32>
      %35 = tt.addptr %23, %34 : tensor<1x1024x!tt.ptr<bf16, 1>>, tensor<1x1024xi32>
      %36 = tt.load %35, %33, %cst {cache = 1 : i32, evict = 2 : i32, isVolatile = false} : tensor<1x1024xbf16>
      %37 = arith.extf %36 : tensor<1x1024xbf16> to tensor<1x1024xf32>
      %38 = arith.mulf %37, %cst_5 : tensor<1x1024xf32>
      %39 = arith.divf %38, %cst_4 : tensor<1x1024xf32>
      %40 = tt.extern_elementwise %39 {libname = "libdevice", libpath = "/home/zeus/miniconda3/envs/cloudspace/lib/python3.10/site-packages/triton/language/../third_party/cuda/lib/libdevice.10.bc", pure = true, symbol = "__nv_tanhf"} : (tensor<1x1024xf32>) -> tensor<1x1024xf32>
      %41 = arith.mulf %40, %cst_4 : tensor<1x1024xf32>
      %42 = arith.addi %32, %25 : tensor<1x1024xi32>
      %43 = arith.extsi %42 : tensor<1x1024xi32> to tensor<1x1024xi64>
      %44 = arith.cmpi sge, %43, %cst_3 : tensor<1x1024xi64>
      %45 = arith.select %44, %cst_2, %cst_6 : tensor<1x1024xi1>, tensor<1x1024xf32>
      %46 = arith.cmpf une, %45, %cst_6 : tensor<1x1024xf32>
      %47 = arith.select %46, %cst_1, %45 : tensor<1x1024xi1>, tensor<1x1024xf32>
      %48 = arith.addf %41, %47 : tensor<1x1024xf32>
      %49 = arith.subf %48, %26 : tensor<1x1024xf32>
      %50 = math.exp %49 : tensor<1x1024xf32>
      %51 = arith.divf %50, %27 : tensor<1x1024xf32>
      %52 = tt.addptr %28, %34 : tensor<1x1024x!tt.ptr<bf16, 1>>, tensor<1x1024xi32>
      %53 = arith.truncf %51 : tensor<1x1024xf32> to tensor<1x1024xbf16>
      tt.store %52, %53, %33 {cache = 1 : i32, evict = 1 : i32} : tensor<1x1024xbf16>
      %54 = tt.addptr %29, %34 : tensor<1x1024x!tt.ptr<f32, 1>>, tensor<1x1024xi32>
      tt.store %54, %51, %33 {cache = 1 : i32, evict = 1 : i32} : tensor<1x1024xf32>
      %55 = tt.addptr %30, %34 : tensor<1x1024x!tt.ptr<bf16, 1>>, tensor<1x1024xi32>
      %56 = arith.truncf %40 : tensor<1x1024xf32> to tensor<1x1024xbf16>
      tt.store %55, %56, %33 {cache = 1 : i32, evict = 1 : i32} : tensor<1x1024xbf16>
    }
    tt.return
  }
}
