module {
  tt.func public @triton__0d1d2d3d4de5de(%arg0: !tt.ptr<bf16, 1> {tt.divisibility = 16 : i32}, %arg1: !tt.ptr<f32, 1> {tt.divisibility = 16 : i32}, %arg2: !tt.ptr<f32, 1> {tt.divisibility = 16 : i32}, %arg3: !tt.ptr<f32, 1> {tt.divisibility = 16 : i32}, %arg4: i32 {tt.divisibility = 16 : i32, tt.max_divisibility = 16 : i32}, %arg5: i32 {tt.divisibility = 16 : i32, tt.max_divisibility = 16 : i32}) attributes {noinline = false} {
    %c256_i32 = arith.constant 256 : i32
    %c2048_i32 = arith.constant 2048 : i32
    %c256_i64 = arith.constant 256 : i64
    %cst = arith.constant dense<0.000000e+00> : tensor<1x1024xbf16>
    %c128_i64 = arith.constant 128 : i64
    %c-128_i32 = arith.constant -128 : i32
    %c128_i32 = arith.constant 128 : i32
    %cst_0 = arith.constant dense<786432> : tensor<1x1024xi32>
    %cst_1 = arith.constant dense<262144> : tensor<1x1024xi32>
    %cst_2 = arith.constant dense<-262144> : tensor<1x1024xi32>
    %cst_3 = arith.constant dense<0.000000e+00> : tensor<1x1024xf32>
    %cst_4 = arith.constant dense<524288> : tensor<1x1024xi32>
    %cst_5 = arith.constant dense<256> : tensor<1x1024xi32>
    %cst_6 = arith.constant dense<1048576> : tensor<1x1024xi32>
    %cst_7 = arith.constant dense<2048> : tensor<1x1024xi32>
    %c1024_i32 = arith.constant 1024 : i32
    %0 = tt.get_program_id y : i32
    %1 = arith.muli %0, %c1024_i32 : i32
    %2 = tt.make_range {end = 1024 : i32, start = 0 : i32} : tensor<1024xi32>
    %3 = tt.expand_dims %2 {axis = 0 : i32} : (tensor<1024xi32>) -> tensor<1x1024xi32>
    %4 = tt.splat %1 : (i32) -> tensor<1x1024xi32>
    %5 = arith.addi %4, %3 : tensor<1x1024xi32>
    %6 = tt.get_program_id x : i32
    %7 = arith.cmpi slt, %6, %c256_i32 : i32
    %8 = arith.remsi %5, %cst_7 : tensor<1x1024xi32>
    %9 = arith.divsi %5, %cst_7 : tensor<1x1024xi32>
    %10 = arith.muli %6, %c2048_i32 : i32
    %11 = tt.splat %10 : (i32) -> tensor<1x1024xi32>
    %12 = arith.addi %8, %11 : tensor<1x1024xi32>
    %13 = arith.muli %9, %cst_6 : tensor<1x1024xi32>
    %14 = arith.addi %12, %13 : tensor<1x1024xi32>
    %15 = tt.splat %arg0 : (!tt.ptr<bf16, 1>) -> tensor<1x1024x!tt.ptr<bf16, 1>>
    %16 = tt.addptr %15, %14 : tensor<1x1024x!tt.ptr<bf16, 1>>, tensor<1x1024xi32>
    %17 = tt.splat %7 : (i1) -> tensor<1x1024xi1>
    %18 = tt.load %16, %17 {cache = 1 : i32, evict = 3 : i32, isVolatile = false} : tensor<1x1024xbf16>
    %19 = arith.extf %18 : tensor<1x1024xbf16> to tensor<1x1024xf32>
    %20 = arith.muli %8, %cst_5 : tensor<1x1024xi32>
    %21 = tt.splat %6 : (i32) -> tensor<1x1024xi32>
    %22 = arith.addi %21, %20 : tensor<1x1024xi32>
    %23 = tt.splat %arg1 : (!tt.ptr<f32, 1>) -> tensor<1x1024x!tt.ptr<f32, 1>>
    %24 = tt.addptr %23, %22 : tensor<1x1024x!tt.ptr<f32, 1>>, tensor<1x1024xi32>
    %25 = tt.load %24, %17 {cache = 1 : i32, evict = 3 : i32, isVolatile = false} : tensor<1x1024xf32>
    %26 = arith.addi %8, %cst_4 : tensor<1x1024xi32>
    %27 = arith.addi %26, %11 : tensor<1x1024xi32>
    %28 = arith.addi %27, %13 : tensor<1x1024xi32>
    %29 = tt.addptr %15, %28 : tensor<1x1024x!tt.ptr<bf16, 1>>, tensor<1x1024xi32>
    %30 = tt.load %29, %17 {cache = 1 : i32, evict = 3 : i32, isVolatile = false} : tensor<1x1024xbf16>
    %31 = arith.extf %30 : tensor<1x1024xbf16> to tensor<1x1024xf32>
    %32 = arith.extsi %6 : i32 to i64
    %33 = arith.cmpi sge, %32, %c256_i64 : i64
    %34 = arith.andi %33, %7 : i1
    %35 = tt.splat %34 : (i1) -> tensor<1x1024xi1>
    %36 = tt.load %16, %35, %cst {cache = 1 : i32, evict = 3 : i32, isVolatile = false} : tensor<1x1024xbf16>
    %37 = arith.extf %36 : tensor<1x1024xbf16> to tensor<1x1024xf32>
    %38 = tt.splat %33 : (i1) -> tensor<1x1024xi1>
    %39 = arith.select %38, %37, %cst_3 : tensor<1x1024xi1>, tensor<1x1024xf32>
    %40 = arith.mulf %19, %25 : tensor<1x1024xf32>
    %41 = arith.cmpi sge, %32, %c128_i64 : i64
    %42 = arith.addi %8, %cst_2 : tensor<1x1024xi32>
    %43 = arith.addi %42, %11 : tensor<1x1024xi32>
    %44 = arith.addi %43, %13 : tensor<1x1024xi32>
    %45 = tt.addptr %15, %44 : tensor<1x1024x!tt.ptr<bf16, 1>>, tensor<1x1024xi32>
    %46 = arith.andi %41, %7 : i1
    %47 = tt.splat %46 : (i1) -> tensor<1x1024xi1>
    %48 = tt.load %45, %47, %cst {cache = 1 : i32, evict = 3 : i32, isVolatile = false} : tensor<1x1024xbf16>
    %49 = arith.extf %48 : tensor<1x1024xbf16> to tensor<1x1024xf32>
    %50 = arith.addi %6, %c-128_i32 : i32
    %51 = tt.splat %50 : (i32) -> tensor<1x1024xi32>
    %52 = arith.addi %51, %20 : tensor<1x1024xi32>
    %53 = tt.splat %arg2 : (!tt.ptr<f32, 1>) -> tensor<1x1024x!tt.ptr<f32, 1>>
    %54 = tt.addptr %53, %52 : tensor<1x1024x!tt.ptr<f32, 1>>, tensor<1x1024xi32>
    %55 = tt.load %54, %47, %cst_3 {cache = 1 : i32, evict = 3 : i32, isVolatile = false} : tensor<1x1024xf32>
    %56 = arith.mulf %49, %55 : tensor<1x1024xf32>
    %57 = arith.subf %cst_3, %56 : tensor<1x1024xf32>
    %58 = tt.splat %41 : (i1) -> tensor<1x1024xi1>
    %59 = arith.select %58, %57, %cst_3 : tensor<1x1024xi1>, tensor<1x1024xf32>
    %60 = arith.addf %40, %59 : tensor<1x1024xf32>
    %61 = arith.cmpi slt, %32, %c128_i64 : i64
    %62 = arith.addi %8, %cst_1 : tensor<1x1024xi32>
    %63 = arith.addi %62, %11 : tensor<1x1024xi32>
    %64 = arith.addi %63, %13 : tensor<1x1024xi32>
    %65 = tt.addptr %15, %64 : tensor<1x1024x!tt.ptr<bf16, 1>>, tensor<1x1024xi32>
    %66 = arith.andi %61, %7 : i1
    %67 = tt.splat %66 : (i1) -> tensor<1x1024xi1>
    %68 = tt.load %65, %67, %cst {cache = 1 : i32, evict = 3 : i32, isVolatile = false} : tensor<1x1024xbf16>
    %69 = arith.extf %68 : tensor<1x1024xbf16> to tensor<1x1024xf32>
    %70 = arith.addi %6, %c128_i32 : i32
    %71 = tt.splat %70 : (i32) -> tensor<1x1024xi32>
    %72 = arith.addi %71, %20 : tensor<1x1024xi32>
    %73 = tt.addptr %53, %72 : tensor<1x1024x!tt.ptr<f32, 1>>, tensor<1x1024xi32>
    %74 = tt.load %73, %67, %cst_3 {cache = 1 : i32, evict = 3 : i32, isVolatile = false} : tensor<1x1024xf32>
    %75 = arith.mulf %69, %74 : tensor<1x1024xf32>
    %76 = tt.splat %61 : (i1) -> tensor<1x1024xi1>
    %77 = arith.select %76, %75, %cst_3 : tensor<1x1024xi1>, tensor<1x1024xf32>
    %78 = arith.addf %60, %77 : tensor<1x1024xf32>
    %79 = arith.addf %39, %78 : tensor<1x1024xf32>
    %80 = tt.load %29, %35, %cst {cache = 1 : i32, evict = 3 : i32, isVolatile = false} : tensor<1x1024xbf16>
    %81 = arith.extf %80 : tensor<1x1024xbf16> to tensor<1x1024xf32>
    %82 = arith.select %38, %81, %cst_3 : tensor<1x1024xi1>, tensor<1x1024xf32>
    %83 = arith.mulf %31, %25 : tensor<1x1024xf32>
    %84 = tt.load %65, %47, %cst {cache = 1 : i32, evict = 3 : i32, isVolatile = false} : tensor<1x1024xbf16>
    %85 = arith.extf %84 : tensor<1x1024xbf16> to tensor<1x1024xf32>
    %86 = arith.mulf %85, %55 : tensor<1x1024xf32>
    %87 = arith.subf %cst_3, %86 : tensor<1x1024xf32>
    %88 = arith.select %58, %87, %cst_3 : tensor<1x1024xi1>, tensor<1x1024xf32>
    %89 = arith.addf %83, %88 : tensor<1x1024xf32>
    %90 = arith.addi %8, %cst_0 : tensor<1x1024xi32>
    %91 = arith.addi %90, %11 : tensor<1x1024xi32>
    %92 = arith.addi %91, %13 : tensor<1x1024xi32>
    %93 = tt.addptr %15, %92 : tensor<1x1024x!tt.ptr<bf16, 1>>, tensor<1x1024xi32>
    %94 = tt.load %93, %67, %cst {cache = 1 : i32, evict = 3 : i32, isVolatile = false} : tensor<1x1024xbf16>
    %95 = arith.extf %94 : tensor<1x1024xbf16> to tensor<1x1024xf32>
    %96 = arith.mulf %95, %74 : tensor<1x1024xf32>
    %97 = arith.select %76, %96, %cst_3 : tensor<1x1024xi1>, tensor<1x1024xf32>
    %98 = arith.addf %89, %97 : tensor<1x1024xf32>
    %99 = arith.addf %82, %98 : tensor<1x1024xf32>
    %100 = arith.addf %79, %99 : tensor<1x1024xf32>
    %101 = arith.muli %9, %cst_4 : tensor<1x1024xi32>
    %102 = arith.addi %12, %101 : tensor<1x1024xi32>
    %103 = tt.splat %arg3 : (!tt.ptr<f32, 1>) -> tensor<1x1024x!tt.ptr<f32, 1>>
    %104 = tt.addptr %103, %102 : tensor<1x1024x!tt.ptr<f32, 1>>, tensor<1x1024xi32>
    tt.store %104, %100, %17 {cache = 1 : i32, evict = 1 : i32} : tensor<1x1024xf32>
    tt.return
  }
}
