module {
  tt.func public @triton__0d1d2de3de(%arg0: !tt.ptr<bf16, 1> {tt.divisibility = 16 : i32}, %arg1: !tt.ptr<bf16, 1> {tt.divisibility = 16 : i32}, %arg2: i64 {tt.divisibility = 16 : i32, tt.max_divisibility = 16 : i32}, %arg3: i64 {tt.divisibility = 16 : i32, tt.max_divisibility = 16 : i32}) attributes {noinline = false} {
    %c8192_i64 = arith.constant 8192 : i64
    %c-1_i64 = arith.constant -1 : i64
    %cst = arith.constant dense<0.000000e+00> : tensor<1x2048xbf16>
    %cst_0 = arith.constant dense<true> : tensor<1x2048xi1>
    %c8192_i32 = arith.constant 8192 : i32
    %c2048_i32 = arith.constant 2048 : i32
    %c0_i32 = arith.constant 0 : i32
    %cst_1 = arith.constant dense<8192> : tensor<1x2048xi64>
    %cst_2 = arith.constant dense<-3.38953139E+38> : tensor<1x2048xf32>
    %cst_3 = arith.constant dense<1.000000e+00> : tensor<1x2048xf32>
    %cst_4 = arith.constant dense<1> : tensor<1x2048xi64>
    %cst_5 = arith.constant dense<5.000000e+01> : tensor<1x2048xf32>
    %cst_6 = arith.constant dense<6.250000e-02> : tensor<1x2048xf32>
    %cst_7 = arith.constant dense<0.000000e+00> : tensor<1x2048xf32>
    %cst_8 = arith.constant dense<0xFF800000> : tensor<1x2048xf32>
    %0 = tt.get_program_id x : i32
    %1 = arith.extsi %0 : i32 to i64
    %2 = tt.make_range {end = 2048 : i32, start = 0 : i32} : tensor<2048xi32>
    %3 = tt.expand_dims %2 {axis = 0 : i32} : (tensor<2048xi32>) -> tensor<1x2048xi32>
    %4 = arith.extsi %3 : tensor<1x2048xi32> to tensor<1x2048xi64>
    %5 = arith.remsi %1, %c8192_i64 : i64
    %6 = arith.muli %1, %c8192_i64 : i64
    %7 = tt.splat %6 : (i64) -> tensor<1x2048xi64>
    %8 = tt.splat %arg0 : (!tt.ptr<bf16, 1>) -> tensor<1x2048x!tt.ptr<bf16, 1>>
    %9 = arith.muli %5, %c-1_i64 : i64
    %10 = tt.splat %9 : (i64) -> tensor<1x2048xi64>
    %11 = scf.for %arg4 = %c0_i32 to %c8192_i32 step %c2048_i32 iter_args(%arg5 = %cst_8) -> (tensor<1x2048xf32>)  : i32 {
      %31 = arith.extsi %arg4 : i32 to i64
      %32 = tt.splat %31 : (i64) -> tensor<1x2048xi64>
      %33 = arith.addi %32, %4 : tensor<1x2048xi64>
      %34 = arith.cmpi slt, %33, %cst_1 : tensor<1x2048xi64>
      %35 = arith.addi %33, %7 : tensor<1x2048xi64>
      %36 = tt.addptr %8, %35 : tensor<1x2048x!tt.ptr<bf16, 1>>, tensor<1x2048xi64>
      %37 = tt.load %36, %34, %cst {cache = 1 : i32, evict = 3 : i32, isVolatile = false} : tensor<1x2048xbf16>
      %38 = arith.extf %37 : tensor<1x2048xbf16> to tensor<1x2048xf32>
      %39 = arith.mulf %38, %cst_6 : tensor<1x2048xf32>
      %40 = arith.divf %39, %cst_5 : tensor<1x2048xf32>
      %41 = tt.extern_elementwise %40 {libname = "libdevice", libpath = "/home/zeus/miniconda3/envs/cloudspace/lib/python3.10/site-packages/triton/language/../third_party/cuda/lib/libdevice.10.bc", pure = true, symbol = "__nv_tanhf"} : (tensor<1x2048xf32>) -> tensor<1x2048xf32>
      %42 = arith.mulf %41, %cst_5 : tensor<1x2048xf32>
      %43 = arith.addi %33, %10 : tensor<1x2048xi64>
      %44 = arith.cmpi sge, %43, %cst_4 : tensor<1x2048xi64>
      %45 = arith.select %44, %cst_3, %cst_7 : tensor<1x2048xi1>, tensor<1x2048xf32>
      %46 = arith.cmpf une, %45, %cst_7 : tensor<1x2048xf32>
      %47 = arith.select %46, %cst_2, %45 : tensor<1x2048xi1>, tensor<1x2048xf32>
      %48 = arith.addf %42, %47 : tensor<1x2048xf32>
      %49 = arith.cmpf ogt, %arg5, %48 : tensor<1x2048xf32>
      %50 = arith.cmpf une, %arg5, %arg5 : tensor<1x2048xf32>
      %51 = arith.ori %49, %50 : tensor<1x2048xi1>
      %52 = arith.xori %51, %cst_0 : tensor<1x2048xi1>
      %53 = arith.andi %34, %52 : tensor<1x2048xi1>
      %54 = arith.select %53, %48, %arg5 : tensor<1x2048xi1>, tensor<1x2048xf32>
      scf.yield %54 : tensor<1x2048xf32>
    }
    %12 = "tt.reduce"(%11) <{axis = 1 : i32}> ({
    ^bb0(%arg4: f32, %arg5: f32):
      %31 = arith.cmpf ogt, %arg4, %arg5 : f32
      %32 = arith.cmpf une, %arg4, %arg4 : f32
      %33 = arith.ori %31, %32 : i1
      %34 = arith.select %33, %arg4, %arg5 : f32
      tt.reduce.return %34 : f32
    }) : (tensor<1x2048xf32>) -> tensor<1xf32>
    %13 = tt.expand_dims %12 {axis = 1 : i32} : (tensor<1xf32>) -> tensor<1x1xf32>
    %14 = arith.muli %1, %c8192_i64 : i64
    %15 = tt.splat %14 : (i64) -> tensor<1x2048xi64>
    %16 = tt.splat %arg0 : (!tt.ptr<bf16, 1>) -> tensor<1x2048x!tt.ptr<bf16, 1>>
    %17 = arith.muli %5, %c-1_i64 : i64
    %18 = tt.splat %17 : (i64) -> tensor<1x2048xi64>
    %19 = tt.broadcast %13 : (tensor<1x1xf32>) -> tensor<1x2048xf32>
    %20 = scf.for %arg4 = %c0_i32 to %c8192_i32 step %c2048_i32 iter_args(%arg5 = %cst_7) -> (tensor<1x2048xf32>)  : i32 {
      %31 = arith.extsi %arg4 : i32 to i64
      %32 = tt.splat %31 : (i64) -> tensor<1x2048xi64>
      %33 = arith.addi %32, %4 : tensor<1x2048xi64>
      %34 = arith.cmpi slt, %33, %cst_1 : tensor<1x2048xi64>
      %35 = arith.addi %33, %15 : tensor<1x2048xi64>
      %36 = tt.addptr %16, %35 : tensor<1x2048x!tt.ptr<bf16, 1>>, tensor<1x2048xi64>
      %37 = tt.load %36, %34, %cst {cache = 1 : i32, evict = 3 : i32, isVolatile = false} : tensor<1x2048xbf16>
      %38 = arith.extf %37 : tensor<1x2048xbf16> to tensor<1x2048xf32>
      %39 = arith.mulf %38, %cst_6 : tensor<1x2048xf32>
      %40 = arith.divf %39, %cst_5 : tensor<1x2048xf32>
      %41 = tt.extern_elementwise %40 {libname = "libdevice", libpath = "/home/zeus/miniconda3/envs/cloudspace/lib/python3.10/site-packages/triton/language/../third_party/cuda/lib/libdevice.10.bc", pure = true, symbol = "__nv_tanhf"} : (tensor<1x2048xf32>) -> tensor<1x2048xf32>
      %42 = arith.mulf %41, %cst_5 : tensor<1x2048xf32>
      %43 = arith.addi %33, %18 : tensor<1x2048xi64>
      %44 = arith.cmpi sge, %43, %cst_4 : tensor<1x2048xi64>
      %45 = arith.select %44, %cst_3, %cst_7 : tensor<1x2048xi1>, tensor<1x2048xf32>
      %46 = arith.cmpf une, %45, %cst_7 : tensor<1x2048xf32>
      %47 = arith.select %46, %cst_2, %45 : tensor<1x2048xi1>, tensor<1x2048xf32>
      %48 = arith.addf %42, %47 : tensor<1x2048xf32>
      %49 = arith.subf %48, %19 : tensor<1x2048xf32>
      %50 = math.exp %49 : tensor<1x2048xf32>
      %51 = arith.addf %arg5, %50 : tensor<1x2048xf32>
      %52 = arith.select %34, %51, %arg5 : tensor<1x2048xi1>, tensor<1x2048xf32>
      scf.yield %52 : tensor<1x2048xf32>
    }
    %21 = "tt.reduce"(%20) <{axis = 1 : i32}> ({
    ^bb0(%arg4: f32, %arg5: f32):
      %31 = arith.addf %arg4, %arg5 : f32
      tt.reduce.return %31 : f32
    }) : (tensor<1x2048xf32>) -> tensor<1xf32>
    %22 = tt.expand_dims %21 {axis = 1 : i32} : (tensor<1xf32>) -> tensor<1x1xf32>
    %23 = arith.muli %1, %c8192_i64 : i64
    %24 = tt.splat %23 : (i64) -> tensor<1x2048xi64>
    %25 = tt.splat %arg0 : (!tt.ptr<bf16, 1>) -> tensor<1x2048x!tt.ptr<bf16, 1>>
    %26 = arith.muli %5, %c-1_i64 : i64
    %27 = tt.splat %26 : (i64) -> tensor<1x2048xi64>
    %28 = tt.broadcast %13 : (tensor<1x1xf32>) -> tensor<1x2048xf32>
    %29 = tt.broadcast %22 : (tensor<1x1xf32>) -> tensor<1x2048xf32>
    %30 = tt.splat %arg1 : (!tt.ptr<bf16, 1>) -> tensor<1x2048x!tt.ptr<bf16, 1>>
    scf.for %arg4 = %c0_i32 to %c8192_i32 step %c2048_i32  : i32 {
      %31 = arith.extsi %arg4 : i32 to i64
      %32 = tt.splat %31 : (i64) -> tensor<1x2048xi64>
      %33 = arith.addi %32, %4 : tensor<1x2048xi64>
      %34 = arith.cmpi slt, %33, %cst_1 : tensor<1x2048xi64>
      %35 = arith.addi %33, %24 : tensor<1x2048xi64>
      %36 = tt.addptr %25, %35 : tensor<1x2048x!tt.ptr<bf16, 1>>, tensor<1x2048xi64>
      %37 = tt.load %36, %34, %cst {cache = 1 : i32, evict = 2 : i32, isVolatile = false} : tensor<1x2048xbf16>
      %38 = arith.extf %37 : tensor<1x2048xbf16> to tensor<1x2048xf32>
      %39 = arith.mulf %38, %cst_6 : tensor<1x2048xf32>
      %40 = arith.divf %39, %cst_5 : tensor<1x2048xf32>
      %41 = tt.extern_elementwise %40 {libname = "libdevice", libpath = "/home/zeus/miniconda3/envs/cloudspace/lib/python3.10/site-packages/triton/language/../third_party/cuda/lib/libdevice.10.bc", pure = true, symbol = "__nv_tanhf"} : (tensor<1x2048xf32>) -> tensor<1x2048xf32>
      %42 = arith.mulf %41, %cst_5 : tensor<1x2048xf32>
      %43 = arith.addi %33, %27 : tensor<1x2048xi64>
      %44 = arith.cmpi sge, %43, %cst_4 : tensor<1x2048xi64>
      %45 = arith.select %44, %cst_3, %cst_7 : tensor<1x2048xi1>, tensor<1x2048xf32>
      %46 = arith.cmpf une, %45, %cst_7 : tensor<1x2048xf32>
      %47 = arith.select %46, %cst_2, %45 : tensor<1x2048xi1>, tensor<1x2048xf32>
      %48 = arith.addf %42, %47 : tensor<1x2048xf32>
      %49 = arith.subf %48, %28 : tensor<1x2048xf32>
      %50 = math.exp %49 : tensor<1x2048xf32>
      %51 = arith.divf %50, %29 : tensor<1x2048xf32>
      %52 = tt.addptr %30, %35 : tensor<1x2048x!tt.ptr<bf16, 1>>, tensor<1x2048xi64>
      %53 = arith.truncf %51 : tensor<1x2048xf32> to tensor<1x2048xbf16>
      tt.store %52, %53, %34 {cache = 1 : i32, evict = 1 : i32} : tensor<1x2048xbf16>
    }
    tt.return
  }
}
