module {
  tt.func public @triton__0d1d2d3d4d5d6de7de(%arg0: !tt.ptr<bf16, 1> {tt.divisibility = 16 : i32}, %arg1: !tt.ptr<bf16, 1> {tt.divisibility = 16 : i32}, %arg2: !tt.ptr<bf16, 1> {tt.divisibility = 16 : i32}, %arg3: !tt.ptr<f32, 1> {tt.divisibility = 16 : i32}, %arg4: !tt.ptr<bf16, 1> {tt.divisibility = 16 : i32}, %arg5: !tt.ptr<bf16, 1> {tt.divisibility = 16 : i32}, %arg6: i32 {tt.divisibility = 16 : i32, tt.max_divisibility = 16 : i32}, %arg7: i32 {tt.divisibility = 16 : i32, tt.max_divisibility = 16 : i32}) attributes {noinline = false} {
    %c256_i32 = arith.constant 256 : i32
    %c256_i64 = arith.constant 256 : i64
    %cst = arith.constant dense<0.000000e+00> : tensor<1x1024xbf16>
    %c128_i64 = arith.constant 128 : i64
    %c-128_i32 = arith.constant -128 : i32
    %c128_i32 = arith.constant 128 : i32
    %c512_i32 = arith.constant 512 : i32
    %c131072_i32 = arith.constant 131072 : i32
    %cst_0 = arith.constant dense<131072> : tensor<1x1024xi32>
    %cst_1 = arith.constant dense<3> : tensor<1x1024xi64>
    %cst_2 = arith.constant dense<0.000000e+00> : tensor<1x1024xf32>
    %cst_3 = arith.constant dense<262144> : tensor<1x1024xi32>
    %cst_4 = arith.constant dense<256> : tensor<1x1024xi32>
    %cst_5 = arith.constant dense<2> : tensor<1x1024xi64>
    %cst_6 = arith.constant dense<2048> : tensor<1x1024xi32>
    %cst_7 = arith.constant dense<4> : tensor<1x1024xi32>
    %cst_8 = arith.constant dense<512> : tensor<1x1024xi32>
    %c1024_i32 = arith.constant 1024 : i32
    %0 = tt.get_program_id y : i32
    %1 = arith.muli %0, %c1024_i32 : i32
    %2 = tt.make_range {end = 1024 : i32, start = 0 : i32} : tensor<1024xi32>
    %3 = tt.expand_dims %2 {axis = 0 : i32} : (tensor<1024xi32>) -> tensor<1x1024xi32>
    %4 = tt.splat %1 : (i32) -> tensor<1x1024xi32>
    %5 = arith.addi %4, %3 : tensor<1x1024xi32>
    %6 = tt.get_program_id x : i32
    %7 = arith.cmpi slt, %6, %c256_i32 : i32
    %8 = arith.divsi %5, %cst_8 : tensor<1x1024xi32>
    %9 = arith.remsi %8, %cst_7 : tensor<1x1024xi32>
    %10 = arith.divsi %5, %cst_6 : tensor<1x1024xi32>
    %11 = arith.remsi %5, %cst_6 : tensor<1x1024xi32>
    %12 = arith.remsi %5, %cst_8 : tensor<1x1024xi32>
    %13 = arith.extsi %9 : tensor<1x1024xi32> to tensor<1x1024xi64>
    %14 = arith.cmpi slt, %13, %cst_5 : tensor<1x1024xi64>
    %15 = arith.extsi %6 : i32 to i64
    %16 = arith.cmpi sge, %15, %c256_i64 : i64
    %17 = tt.splat %16 : (i1) -> tensor<1x1024xi1>
    %18 = arith.andi %17, %14 : tensor<1x1024xi1>
    %19 = arith.muli %11, %cst_4 : tensor<1x1024xi32>
    %20 = tt.splat %6 : (i32) -> tensor<1x1024xi32>
    %21 = arith.addi %20, %19 : tensor<1x1024xi32>
    %22 = arith.muli %10, %cst_3 : tensor<1x1024xi32>
    %23 = arith.addi %21, %22 : tensor<1x1024xi32>
    %24 = tt.splat %arg0 : (!tt.ptr<bf16, 1>) -> tensor<1x1024x!tt.ptr<bf16, 1>>
    %25 = tt.addptr %24, %23 : tensor<1x1024x!tt.ptr<bf16, 1>>, tensor<1x1024xi32>
    %26 = tt.splat %7 : (i1) -> tensor<1x1024xi1>
    %27 = arith.andi %18, %26 : tensor<1x1024xi1>
    %28 = tt.load %25, %27, %cst {cache = 1 : i32, evict = 3 : i32, isVolatile = false} : tensor<1x1024xbf16>
    %29 = arith.extf %28 : tensor<1x1024xbf16> to tensor<1x1024xf32>
    %30 = arith.select %18, %29, %cst_2 : tensor<1x1024xi1>, tensor<1x1024xf32>
    %31 = arith.andi %14, %26 : tensor<1x1024xi1>
    %32 = tt.load %25, %31, %cst {cache = 1 : i32, evict = 3 : i32, isVolatile = false} : tensor<1x1024xbf16>
    %33 = arith.extf %32 : tensor<1x1024xbf16> to tensor<1x1024xf32>
    %34 = arith.muli %12, %cst_4 : tensor<1x1024xi32>
    %35 = arith.addi %20, %34 : tensor<1x1024xi32>
    %36 = tt.splat %arg1 : (!tt.ptr<bf16, 1>) -> tensor<1x1024x!tt.ptr<bf16, 1>>
    %37 = tt.addptr %36, %35 : tensor<1x1024x!tt.ptr<bf16, 1>>, tensor<1x1024xi32>
    %38 = tt.load %37, %31, %cst {cache = 1 : i32, evict = 3 : i32, isVolatile = false} : tensor<1x1024xbf16>
    %39 = arith.extf %38 : tensor<1x1024xbf16> to tensor<1x1024xf32>
    %40 = arith.mulf %33, %39 : tensor<1x1024xf32>
    %41 = arith.cmpi sge, %15, %c128_i64 : i64
    %42 = tt.splat %41 : (i1) -> tensor<1x1024xi1>
    %43 = arith.andi %42, %14 : tensor<1x1024xi1>
    %44 = arith.addi %6, %c-128_i32 : i32
    %45 = tt.splat %44 : (i32) -> tensor<1x1024xi32>
    %46 = arith.addi %45, %19 : tensor<1x1024xi32>
    %47 = arith.addi %46, %22 : tensor<1x1024xi32>
    %48 = tt.addptr %24, %47 : tensor<1x1024x!tt.ptr<bf16, 1>>, tensor<1x1024xi32>
    %49 = arith.andi %43, %26 : tensor<1x1024xi1>
    %50 = tt.load %48, %49, %cst {cache = 1 : i32, evict = 3 : i32, isVolatile = false} : tensor<1x1024xbf16>
    %51 = arith.extf %50 : tensor<1x1024xbf16> to tensor<1x1024xf32>
    %52 = arith.addi %45, %34 : tensor<1x1024xi32>
    %53 = tt.splat %arg2 : (!tt.ptr<bf16, 1>) -> tensor<1x1024x!tt.ptr<bf16, 1>>
    %54 = tt.addptr %53, %52 : tensor<1x1024x!tt.ptr<bf16, 1>>, tensor<1x1024xi32>
    %55 = tt.load %54, %49, %cst {cache = 1 : i32, evict = 3 : i32, isVolatile = false} : tensor<1x1024xbf16>
    %56 = arith.extf %55 : tensor<1x1024xbf16> to tensor<1x1024xf32>
    %57 = arith.mulf %51, %56 : tensor<1x1024xf32>
    %58 = arith.subf %cst_2, %57 : tensor<1x1024xf32>
    %59 = arith.select %43, %58, %cst_2 : tensor<1x1024xi1>, tensor<1x1024xf32>
    %60 = arith.addf %40, %59 : tensor<1x1024xf32>
    %61 = arith.cmpi slt, %15, %c128_i64 : i64
    %62 = tt.splat %61 : (i1) -> tensor<1x1024xi1>
    %63 = arith.andi %62, %14 : tensor<1x1024xi1>
    %64 = arith.addi %6, %c128_i32 : i32
    %65 = tt.splat %64 : (i32) -> tensor<1x1024xi32>
    %66 = arith.addi %65, %19 : tensor<1x1024xi32>
    %67 = arith.addi %66, %22 : tensor<1x1024xi32>
    %68 = tt.addptr %24, %67 : tensor<1x1024x!tt.ptr<bf16, 1>>, tensor<1x1024xi32>
    %69 = arith.andi %63, %26 : tensor<1x1024xi1>
    %70 = tt.load %68, %69, %cst {cache = 1 : i32, evict = 3 : i32, isVolatile = false} : tensor<1x1024xbf16>
    %71 = arith.extf %70 : tensor<1x1024xbf16> to tensor<1x1024xf32>
    %72 = arith.addi %65, %34 : tensor<1x1024xi32>
    %73 = tt.addptr %53, %72 : tensor<1x1024x!tt.ptr<bf16, 1>>, tensor<1x1024xi32>
    %74 = tt.load %73, %69, %cst {cache = 1 : i32, evict = 3 : i32, isVolatile = false} : tensor<1x1024xbf16>
    %75 = arith.extf %74 : tensor<1x1024xbf16> to tensor<1x1024xf32>
    %76 = arith.mulf %71, %75 : tensor<1x1024xf32>
    %77 = arith.select %63, %76, %cst_2 : tensor<1x1024xi1>, tensor<1x1024xf32>
    %78 = arith.addf %60, %77 : tensor<1x1024xf32>
    %79 = arith.addf %30, %78 : tensor<1x1024xf32>
    %80 = arith.cmpi sge, %13, %cst_5 : tensor<1x1024xi64>
    %81 = arith.cmpi slt, %13, %cst_1 : tensor<1x1024xi64>
    %82 = arith.andi %80, %81 : tensor<1x1024xi1>
    %83 = arith.muli %6, %c512_i32 : i32
    %84 = tt.splat %83 : (i32) -> tensor<1x1024xi32>
    %85 = arith.addi %12, %84 : tensor<1x1024xi32>
    %86 = arith.muli %10, %cst_0 : tensor<1x1024xi32>
    %87 = arith.addi %85, %86 : tensor<1x1024xi32>
    %88 = tt.splat %arg3 : (!tt.ptr<f32, 1>) -> tensor<1x1024x!tt.ptr<f32, 1>>
    %89 = tt.addptr %88, %87 : tensor<1x1024x!tt.ptr<f32, 1>>, tensor<1x1024xi32>
    %90 = arith.andi %82, %26 : tensor<1x1024xi1>
    %91 = tt.load %89, %90, %cst_2 {cache = 1 : i32, evict = 3 : i32, isVolatile = false} : tensor<1x1024xf32>
    %92 = arith.cmpi sge, %13, %cst_1 : tensor<1x1024xi64>
    %93 = arith.addi %35, %22 : tensor<1x1024xi32>
    %94 = tt.splat %arg4 : (!tt.ptr<bf16, 1>) -> tensor<1x1024x!tt.ptr<bf16, 1>>
    %95 = tt.addptr %94, %93 : tensor<1x1024x!tt.ptr<bf16, 1>>, tensor<1x1024xi32>
    %96 = arith.andi %92, %26 : tensor<1x1024xi1>
    %97 = tt.load %95, %96, %cst {cache = 1 : i32, evict = 3 : i32, isVolatile = false} : tensor<1x1024xbf16>
    %98 = arith.extf %97 : tensor<1x1024xbf16> to tensor<1x1024xf32>
    %99 = arith.addi %6, %c131072_i32 : i32
    %100 = tt.splat %99 : (i32) -> tensor<1x1024xi32>
    %101 = arith.addi %100, %34 : tensor<1x1024xi32>
    %102 = arith.addi %101, %22 : tensor<1x1024xi32>
    %103 = tt.addptr %94, %102 : tensor<1x1024x!tt.ptr<bf16, 1>>, tensor<1x1024xi32>
    %104 = tt.load %103, %96, %cst {cache = 1 : i32, evict = 3 : i32, isVolatile = false} : tensor<1x1024xbf16>
    %105 = arith.extf %104 : tensor<1x1024xbf16> to tensor<1x1024xf32>
    %106 = arith.addf %98, %105 : tensor<1x1024xf32>
    %107 = arith.select %92, %106, %cst_2 : tensor<1x1024xi1>, tensor<1x1024xf32>
    %108 = arith.select %82, %91, %107 : tensor<1x1024xi1>, tensor<1x1024xf32>
    %109 = arith.select %14, %79, %108 : tensor<1x1024xi1>, tensor<1x1024xf32>
    %110 = arith.muli %5, %cst_4 : tensor<1x1024xi32>
    %111 = arith.addi %20, %110 : tensor<1x1024xi32>
    %112 = tt.splat %arg5 : (!tt.ptr<bf16, 1>) -> tensor<1x1024x!tt.ptr<bf16, 1>>
    %113 = tt.addptr %112, %111 : tensor<1x1024x!tt.ptr<bf16, 1>>, tensor<1x1024xi32>
    %114 = arith.truncf %109 : tensor<1x1024xf32> to tensor<1x1024xbf16>
    tt.store %113, %114, %26 {cache = 1 : i32, evict = 1 : i32} : tensor<1x1024xbf16>
    tt.return
  }
}
