module {
  tt.func public @triton__0d1d2d3d4d5d6d7d8de9de(%arg0: !tt.ptr<bf16, 1> {tt.divisibility = 16 : i32}, %arg1: !tt.ptr<f32, 1> {tt.divisibility = 16 : i32}, %arg2: !tt.ptr<f32, 1> {tt.divisibility = 16 : i32}, %arg3: !tt.ptr<f32, 1> {tt.divisibility = 16 : i32}, %arg4: !tt.ptr<f32, 1> {tt.divisibility = 16 : i32}, %arg5: !tt.ptr<f32, 1> {tt.divisibility = 16 : i32}, %arg6: !tt.ptr<f32, 1> {tt.divisibility = 16 : i32}, %arg7: !tt.ptr<bf16, 1> {tt.divisibility = 16 : i32}, %arg8: i32 {tt.divisibility = 16 : i32, tt.max_divisibility = 16 : i32}, %arg9: i32 {tt.divisibility = 16 : i32, tt.max_divisibility = 16 : i32}) attributes {noinline = false} {
    %c512_i32 = arith.constant 512 : i32
    %cst = arith.constant dense<0.000000e+00> : tensor<1x2048xbf16>
    %c2304_i32 = arith.constant 2304 : i32
    %c2048_i32 = arith.constant 2048 : i32
    %c0_i32 = arith.constant 0 : i32
    %cst_0 = arith.constant dense<1.000000e+00> : tensor<1x2048xf32>
    %cst_1 = arith.constant dense<9.99999974E-6> : tensor<1x1xf32>
    %cst_2 = arith.constant dense<2.304000e+03> : tensor<1x1xf32>
    %cst_3 = arith.constant dense<2304> : tensor<1x2048xi32>
    %cst_4 = arith.constant dense<0.000000e+00> : tensor<1x2048xf32>
    %0 = tt.get_program_id x : i32
    %1 = arith.cmpi slt, %0, %c512_i32 : i32
    %2 = tt.splat %1 : (i1) -> tensor<1x1xi1>
    %3 = tt.make_range {end = 2048 : i32, start = 0 : i32} : tensor<2048xi32>
    %4 = tt.expand_dims %3 {axis = 0 : i32} : (tensor<2048xi32>) -> tensor<1x2048xi32>
    %5 = arith.muli %0, %c2304_i32 : i32
    %6 = tt.splat %5 : (i32) -> tensor<1x2048xi32>
    %7 = tt.splat %arg0 : (!tt.ptr<bf16, 1>) -> tensor<1x2048x!tt.ptr<bf16, 1>>
    %8 = tt.splat %1 : (i1) -> tensor<1x2048xi1>
    %9 = scf.for %arg10 = %c0_i32 to %c2304_i32 step %c2048_i32 iter_args(%arg11 = %cst_4) -> (tensor<1x2048xf32>)  : i32 {
      %40 = tt.splat %arg10 : (i32) -> tensor<1x2048xi32>
      %41 = arith.addi %40, %4 : tensor<1x2048xi32>
      %42 = arith.cmpi slt, %41, %cst_3 : tensor<1x2048xi32>
      %43 = arith.addi %41, %6 : tensor<1x2048xi32>
      %44 = tt.addptr %7, %43 : tensor<1x2048x!tt.ptr<bf16, 1>>, tensor<1x2048xi32>
      %45 = arith.andi %42, %8 : tensor<1x2048xi1>
      %46 = tt.load %44, %45, %cst {cache = 1 : i32, evict = 3 : i32, isVolatile = false} : tensor<1x2048xbf16>
      %47 = arith.extf %46 : tensor<1x2048xbf16> to tensor<1x2048xf32>
      %48 = arith.mulf %47, %47 : tensor<1x2048xf32>
      %49 = arith.addf %arg11, %48 : tensor<1x2048xf32>
      %50 = arith.select %45, %49, %arg11 : tensor<1x2048xi1>, tensor<1x2048xf32>
      scf.yield %50 : tensor<1x2048xf32>
    }
    %10 = "tt.reduce"(%9) <{axis = 1 : i32}> ({
    ^bb0(%arg10: f32, %arg11: f32):
      %40 = arith.addf %arg10, %arg11 : f32
      tt.reduce.return %40 : f32
    }) : (tensor<1x2048xf32>) -> tensor<1xf32>
    %11 = tt.expand_dims %10 {axis = 1 : i32} : (tensor<1xf32>) -> tensor<1x1xf32>
    %12 = tt.addptr %arg4, %0 : !tt.ptr<f32, 1>, i32
    %13 = tt.splat %12 : (!tt.ptr<f32, 1>) -> tensor<1x1x!tt.ptr<f32, 1>>
    tt.store %13, %11, %2 {cache = 1 : i32, evict = 1 : i32} : tensor<1x1xf32>
    %14 = arith.muli %0, %c2304_i32 : i32
    %15 = tt.splat %14 : (i32) -> tensor<1x2048xi32>
    %16 = tt.splat %arg0 : (!tt.ptr<bf16, 1>) -> tensor<1x2048x!tt.ptr<bf16, 1>>
    %17 = tt.splat %1 : (i1) -> tensor<1x2048xi1>
    %18 = tt.splat %arg1 : (!tt.ptr<f32, 1>) -> tensor<1x2048x!tt.ptr<f32, 1>>
    %19 = tt.splat %arg2 : (!tt.ptr<f32, 1>) -> tensor<1x2048x!tt.ptr<f32, 1>>
    %20 = arith.divf %11, %cst_2 : tensor<1x1xf32>
    %21 = arith.addf %20, %cst_1 : tensor<1x1xf32>
    %22 = scf.for %arg10 = %c0_i32 to %c2304_i32 step %c2048_i32 iter_args(%arg11 = %cst_4) -> (tensor<1x2048xf32>)  : i32 {
      %40 = tt.splat %arg10 : (i32) -> tensor<1x2048xi32>
      %41 = arith.addi %40, %4 : tensor<1x2048xi32>
      %42 = arith.cmpi slt, %41, %cst_3 : tensor<1x2048xi32>
      %43 = arith.addi %41, %15 : tensor<1x2048xi32>
      %44 = tt.addptr %16, %43 : tensor<1x2048x!tt.ptr<bf16, 1>>, tensor<1x2048xi32>
      %45 = arith.andi %42, %17 : tensor<1x2048xi1>
      %46 = tt.load %44, %45, %cst {cache = 1 : i32, evict = 3 : i32, isVolatile = false} : tensor<1x2048xbf16>
      %47 = arith.extf %46 : tensor<1x2048xbf16> to tensor<1x2048xf32>
      %48 = tt.addptr %18, %41 : tensor<1x2048x!tt.ptr<f32, 1>>, tensor<1x2048xi32>
      %49 = tt.load %48, %42, %cst_4 {cache = 1 : i32, evict = 3 : i32, isVolatile = false} : tensor<1x2048xf32>
      %50 = tt.addptr %19, %43 : tensor<1x2048x!tt.ptr<f32, 1>>, tensor<1x2048xi32>
      %51 = tt.load %50, %45, %cst_4 {cache = 1 : i32, evict = 3 : i32, isVolatile = false} : tensor<1x2048xf32>
      %52 = tt.extern_elementwise %21 {libname = "libdevice", libpath = "/home/zeus/miniconda3/envs/cloudspace/lib/python3.10/site-packages/triton/language/../third_party/cuda/lib/libdevice.10.bc", pure = true, symbol = "__nv_rsqrtf"} : (tensor<1x1xf32>) -> tensor<1x1xf32>
      %53 = tt.broadcast %52 : (tensor<1x1xf32>) -> tensor<1x2048xf32>
      %54 = arith.mulf %47, %53 : tensor<1x2048xf32>
      %55 = arith.addf %49, %cst_0 : tensor<1x2048xf32>
      %56 = arith.mulf %54, %55 : tensor<1x2048xf32>
      %57 = arith.addf %56, %51 : tensor<1x2048xf32>
      %58 = arith.mulf %57, %57 : tensor<1x2048xf32>
      %59 = arith.addf %arg11, %58 : tensor<1x2048xf32>
      %60 = arith.select %45, %59, %arg11 : tensor<1x2048xi1>, tensor<1x2048xf32>
      scf.yield %60 : tensor<1x2048xf32>
    }
    %23 = "tt.reduce"(%22) <{axis = 1 : i32}> ({
    ^bb0(%arg10: f32, %arg11: f32):
      %40 = arith.addf %arg10, %arg11 : f32
      tt.reduce.return %40 : f32
    }) : (tensor<1x2048xf32>) -> tensor<1xf32>
    %24 = tt.expand_dims %23 {axis = 1 : i32} : (tensor<1xf32>) -> tensor<1x1xf32>
    %25 = tt.addptr %arg5, %0 : !tt.ptr<f32, 1>, i32
    %26 = tt.splat %25 : (!tt.ptr<f32, 1>) -> tensor<1x1x!tt.ptr<f32, 1>>
    tt.store %26, %24, %2 {cache = 1 : i32, evict = 1 : i32} : tensor<1x1xf32>
    %27 = arith.muli %0, %c2304_i32 : i32
    %28 = tt.splat %27 : (i32) -> tensor<1x2048xi32>
    %29 = tt.splat %arg0 : (!tt.ptr<bf16, 1>) -> tensor<1x2048x!tt.ptr<bf16, 1>>
    %30 = tt.splat %1 : (i1) -> tensor<1x2048xi1>
    %31 = tt.splat %arg1 : (!tt.ptr<f32, 1>) -> tensor<1x2048x!tt.ptr<f32, 1>>
    %32 = tt.splat %arg2 : (!tt.ptr<f32, 1>) -> tensor<1x2048x!tt.ptr<f32, 1>>
    %33 = tt.splat %arg3 : (!tt.ptr<f32, 1>) -> tensor<1x2048x!tt.ptr<f32, 1>>
    %34 = arith.divf %11, %cst_2 : tensor<1x1xf32>
    %35 = arith.addf %34, %cst_1 : tensor<1x1xf32>
    %36 = arith.divf %24, %cst_2 : tensor<1x1xf32>
    %37 = arith.addf %36, %cst_1 : tensor<1x1xf32>
    %38 = tt.splat %arg6 : (!tt.ptr<f32, 1>) -> tensor<1x2048x!tt.ptr<f32, 1>>
    %39 = tt.splat %arg7 : (!tt.ptr<bf16, 1>) -> tensor<1x2048x!tt.ptr<bf16, 1>>
    scf.for %arg10 = %c0_i32 to %c2304_i32 step %c2048_i32  : i32 {
      %40 = tt.splat %arg10 : (i32) -> tensor<1x2048xi32>
      %41 = arith.addi %40, %4 : tensor<1x2048xi32>
      %42 = arith.cmpi slt, %41, %cst_3 : tensor<1x2048xi32>
      %43 = arith.addi %41, %28 : tensor<1x2048xi32>
      %44 = tt.addptr %29, %43 : tensor<1x2048x!tt.ptr<bf16, 1>>, tensor<1x2048xi32>
      %45 = arith.andi %42, %30 : tensor<1x2048xi1>
      %46 = tt.load %44, %45, %cst {cache = 1 : i32, evict = 2 : i32, isVolatile = false} : tensor<1x2048xbf16>
      %47 = arith.extf %46 : tensor<1x2048xbf16> to tensor<1x2048xf32>
      %48 = tt.addptr %31, %41 : tensor<1x2048x!tt.ptr<f32, 1>>, tensor<1x2048xi32>
      %49 = tt.load %48, %42, %cst_4 {cache = 1 : i32, evict = 3 : i32, isVolatile = false} : tensor<1x2048xf32>
      %50 = tt.addptr %32, %43 : tensor<1x2048x!tt.ptr<f32, 1>>, tensor<1x2048xi32>
      %51 = tt.load %50, %45, %cst_4 {cache = 1 : i32, evict = 2 : i32, isVolatile = false} : tensor<1x2048xf32>
      %52 = tt.addptr %33, %41 : tensor<1x2048x!tt.ptr<f32, 1>>, tensor<1x2048xi32>
      %53 = tt.load %52, %42, %cst_4 {cache = 1 : i32, evict = 3 : i32, isVolatile = false} : tensor<1x2048xf32>
      %54 = tt.extern_elementwise %35 {libname = "libdevice", libpath = "/home/zeus/miniconda3/envs/cloudspace/lib/python3.10/site-packages/triton/language/../third_party/cuda/lib/libdevice.10.bc", pure = true, symbol = "__nv_rsqrtf"} : (tensor<1x1xf32>) -> tensor<1x1xf32>
      %55 = tt.broadcast %54 : (tensor<1x1xf32>) -> tensor<1x2048xf32>
      %56 = arith.mulf %47, %55 : tensor<1x2048xf32>
      %57 = arith.addf %49, %cst_0 : tensor<1x2048xf32>
      %58 = arith.mulf %56, %57 : tensor<1x2048xf32>
      %59 = arith.addf %58, %51 : tensor<1x2048xf32>
      %60 = tt.extern_elementwise %37 {libname = "libdevice", libpath = "/home/zeus/miniconda3/envs/cloudspace/lib/python3.10/site-packages/triton/language/../third_party/cuda/lib/libdevice.10.bc", pure = true, symbol = "__nv_rsqrtf"} : (tensor<1x1xf32>) -> tensor<1x1xf32>
      %61 = tt.broadcast %60 : (tensor<1x1xf32>) -> tensor<1x2048xf32>
      %62 = arith.mulf %59, %61 : tensor<1x2048xf32>
      %63 = arith.addf %53, %cst_0 : tensor<1x2048xf32>
      %64 = arith.mulf %62, %63 : tensor<1x2048xf32>
      %65 = tt.addptr %38, %43 : tensor<1x2048x!tt.ptr<f32, 1>>, tensor<1x2048xi32>
      tt.store %65, %62, %45 {cache = 1 : i32, evict = 1 : i32} : tensor<1x2048xf32>
      %66 = tt.addptr %39, %43 : tensor<1x2048x!tt.ptr<bf16, 1>>, tensor<1x2048xi32>
      %67 = arith.truncf %64 : tensor<1x2048xf32> to tensor<1x2048xbf16>
      tt.store %66, %67, %45 {cache = 1 : i32, evict = 1 : i32} : tensor<1x2048xbf16>
    }
    tt.return
  }
}
