module {
  tt.func public @triton__0d1d2d3d4de(%arg0: !tt.ptr<bf16, 1> {tt.divisibility = 16 : i32}, %arg1: !tt.ptr<f32, 1> {tt.divisibility = 16 : i32}, %arg2: !tt.ptr<bf16, 1> {tt.divisibility = 16 : i32}, %arg3: !tt.ptr<bf16, 1> {tt.divisibility = 16 : i32}, %arg4: i32 {tt.divisibility = 16 : i32, tt.max_divisibility = 16 : i32}) attributes {noinline = false} {
    %cst = arith.constant dense<0.000000e+00> : tensor<1024xbf16>
    %cst_0 = arith.constant dense<1.000000e+00> : tensor<1024xf32>
    %cst_1 = arith.constant dense<5.000000e-01> : tensor<1024xf32>
    %cst_2 = arith.constant dense<0.000000e+00> : tensor<1024xf32>
    %cst_3 = arith.constant dense<4> : tensor<1024xi64>
    %cst_4 = arith.constant dense<9216> : tensor<1024xi32>
    %c1024_i32 = arith.constant 1024 : i32
    %0 = tt.get_program_id x : i32
    %1 = arith.muli %0, %c1024_i32 : i32
    %2 = tt.make_range {end = 1024 : i32, start = 0 : i32} : tensor<1024xi32>
    %3 = tt.splat %1 : (i32) -> tensor<1024xi32>
    %4 = arith.addi %3, %2 : tensor<1024xi32>
    %5 = arith.divsi %4, %cst_4 : tensor<1024xi32>
    %6 = arith.extsi %5 : tensor<1024xi32> to tensor<1024xi64>
    %7 = arith.cmpi slt, %6, %cst_3 : tensor<1024xi64>
    %8 = tt.splat %arg0 : (!tt.ptr<bf16, 1>) -> tensor<1024x!tt.ptr<bf16, 1>>
    %9 = tt.addptr %8, %4 : tensor<1024x!tt.ptr<bf16, 1>>, tensor<1024xi32>
    %10 = tt.load %9, %7, %cst {cache = 1 : i32, evict = 1 : i32, isVolatile = false} : tensor<1024xbf16>
    %11 = arith.extf %10 : tensor<1024xbf16> to tensor<1024xf32>
    %12 = arith.mulf %11, %cst_1 : tensor<1024xf32>
    %13 = tt.splat %arg1 : (!tt.ptr<f32, 1>) -> tensor<1024x!tt.ptr<f32, 1>>
    %14 = tt.addptr %13, %4 : tensor<1024x!tt.ptr<f32, 1>>, tensor<1024xi32>
    %15 = tt.load %14, %7, %cst_2 {cache = 1 : i32, evict = 1 : i32, isVolatile = false} : tensor<1024xf32>
    %16 = arith.addf %15, %cst_0 : tensor<1024xf32>
    %17 = arith.mulf %12, %16 : tensor<1024xf32>
    %18 = tt.splat %arg2 : (!tt.ptr<bf16, 1>) -> tensor<1024x!tt.ptr<bf16, 1>>
    %19 = tt.addptr %18, %4 : tensor<1024x!tt.ptr<bf16, 1>>, tensor<1024xi32>
    %20 = tt.load %19, %7, %cst {cache = 1 : i32, evict = 1 : i32, isVolatile = false} : tensor<1024xbf16>
    %21 = arith.extf %20 : tensor<1024xbf16> to tensor<1024xf32>
    %22 = arith.mulf %17, %21 : tensor<1024xf32>
    %23 = arith.select %7, %22, %cst_2 : tensor<1024xi1>, tensor<1024xf32>
    %24 = tt.splat %arg3 : (!tt.ptr<bf16, 1>) -> tensor<1024x!tt.ptr<bf16, 1>>
    %25 = tt.addptr %24, %4 : tensor<1024x!tt.ptr<bf16, 1>>, tensor<1024xi32>
    %26 = arith.truncf %23 : tensor<1024xf32> to tensor<1024xbf16>
    tt.store %25, %26 {cache = 1 : i32, evict = 1 : i32} : tensor<1024xbf16>
    tt.return
  }
}
