module {
  tt.func public @triton__0d1d2d3d4d5d6d7d8d9d10d1112de(%arg0: !tt.ptr<f32, 1> {tt.divisibility = 16 : i32}, %arg1: !tt.ptr<bf16, 1> {tt.divisibility = 16 : i32}, %arg2: !tt.ptr<bf16, 1> {tt.divisibility = 16 : i32}, %arg3: !tt.ptr<f32, 1> {tt.divisibility = 16 : i32}, %arg4: !tt.ptr<bf16, 1> {tt.divisibility = 16 : i32}, %arg5: !tt.ptr<f32, 1> {tt.divisibility = 16 : i32}, %arg6: !tt.ptr<f32, 1> {tt.divisibility = 16 : i32}, %arg7: !tt.ptr<f32, 1> {tt.divisibility = 16 : i32}, %arg8: !tt.ptr<f32, 1> {tt.divisibility = 16 : i32}, %arg9: !tt.ptr<f32, 1> {tt.divisibility = 16 : i32}, %arg10: !tt.ptr<bf16, 1> {tt.divisibility = 16 : i32}, %arg11: i32, %arg12: i32 {tt.divisibility = 16 : i32, tt.max_divisibility = 16 : i32}) attributes {noinline = false} {
    %c4_i32 = arith.constant 4 : i32
    %cst = arith.constant dense<0.000000e+00> : tensor<1x2048xbf16>
    %c2304_i32 = arith.constant 2304 : i32
    %c2048_i32 = arith.constant 2048 : i32
    %c0_i32 = arith.constant 0 : i32
    %cst_0 = arith.constant dense<2.304000e+03> : tensor<1x1xf32>
    %cst_1 = arith.constant dense<-5.000000e-01> : tensor<1x1xf32>
    %cst_2 = arith.constant dense<1.000000e+00> : tensor<1x2048xf32>
    %cst_3 = arith.constant dense<2304> : tensor<1x2048xi32>
    %cst_4 = arith.constant dense<0.000000e+00> : tensor<1x2048xf32>
    %0 = tt.get_program_id x : i32
    %1 = arith.cmpi slt, %0, %c4_i32 : i32
    %2 = tt.splat %1 : (i1) -> tensor<1x1xi1>
    %3 = tt.make_range {end = 2048 : i32, start = 0 : i32} : tensor<2048xi32>
    %4 = tt.expand_dims %3 {axis = 0 : i32} : (tensor<2048xi32>) -> tensor<1x2048xi32>
    %5 = tt.addptr %arg5, %0 : !tt.ptr<f32, 1>, i32
    %6 = tt.splat %5 : (!tt.ptr<f32, 1>) -> tensor<1x1x!tt.ptr<f32, 1>>
    %7 = tt.load %6, %2 {cache = 1 : i32, evict = 3 : i32, isVolatile = false} : tensor<1x1xf32>
    %8 = arith.muli %0, %c2304_i32 : i32
    %9 = tt.splat %8 : (i32) -> tensor<1x2048xi32>
    %10 = tt.splat %arg1 : (!tt.ptr<bf16, 1>) -> tensor<1x2048x!tt.ptr<bf16, 1>>
    %11 = tt.splat %1 : (i1) -> tensor<1x2048xi1>
    %12 = tt.splat %arg2 : (!tt.ptr<bf16, 1>) -> tensor<1x2048x!tt.ptr<bf16, 1>>
    %13 = tt.splat %arg3 : (!tt.ptr<f32, 1>) -> tensor<1x2048x!tt.ptr<f32, 1>>
    %14 = tt.splat %arg4 : (!tt.ptr<bf16, 1>) -> tensor<1x2048x!tt.ptr<bf16, 1>>
    %15 = tt.splat %arg6 : (!tt.ptr<f32, 1>) -> tensor<1x2048x!tt.ptr<f32, 1>>
    %16 = tt.splat %arg7 : (!tt.ptr<f32, 1>) -> tensor<1x2048x!tt.ptr<f32, 1>>
    %17 = tt.broadcast %7 : (tensor<1x1xf32>) -> tensor<1x2048xf32>
    %18 = scf.for %arg13 = %c0_i32 to %c2304_i32 step %c2048_i32 iter_args(%arg14 = %cst_4) -> (tensor<1x2048xf32>)  : i32 {
      %60 = tt.splat %arg13 : (i32) -> tensor<1x2048xi32>
      %61 = arith.addi %60, %4 : tensor<1x2048xi32>
      %62 = arith.cmpi slt, %61, %cst_3 : tensor<1x2048xi32>
      %63 = arith.addi %61, %9 : tensor<1x2048xi32>
      %64 = tt.addptr %10, %63 : tensor<1x2048x!tt.ptr<bf16, 1>>, tensor<1x2048xi32>
      %65 = arith.andi %62, %11 : tensor<1x2048xi1>
      %66 = tt.load %64, %65, %cst {cache = 1 : i32, evict = 3 : i32, isVolatile = false} : tensor<1x2048xbf16>
      %67 = arith.extf %66 : tensor<1x2048xbf16> to tensor<1x2048xf32>
      %68 = tt.addptr %12, %63 : tensor<1x2048x!tt.ptr<bf16, 1>>, tensor<1x2048xi32>
      %69 = tt.load %68, %65, %cst {cache = 1 : i32, evict = 3 : i32, isVolatile = false} : tensor<1x2048xbf16>
      %70 = arith.extf %69 : tensor<1x2048xbf16> to tensor<1x2048xf32>
      %71 = tt.addptr %13, %61 : tensor<1x2048x!tt.ptr<f32, 1>>, tensor<1x2048xi32>
      %72 = tt.load %71, %62, %cst_4 {cache = 1 : i32, evict = 3 : i32, isVolatile = false} : tensor<1x2048xf32>
      %73 = tt.addptr %14, %63 : tensor<1x2048x!tt.ptr<bf16, 1>>, tensor<1x2048xi32>
      %74 = tt.load %73, %65, %cst {cache = 1 : i32, evict = 3 : i32, isVolatile = false} : tensor<1x2048xbf16>
      %75 = arith.extf %74 : tensor<1x2048xbf16> to tensor<1x2048xf32>
      %76 = tt.addptr %15, %61 : tensor<1x2048x!tt.ptr<f32, 1>>, tensor<1x2048xi32>
      %77 = tt.load %76, %62, %cst_4 {cache = 1 : i32, evict = 3 : i32, isVolatile = false} : tensor<1x2048xf32>
      %78 = tt.addptr %16, %63 : tensor<1x2048x!tt.ptr<f32, 1>>, tensor<1x2048xi32>
      %79 = tt.load %78, %65, %cst_4 {cache = 1 : i32, evict = 3 : i32, isVolatile = false} : tensor<1x2048xf32>
      %80 = arith.addf %67, %70 : tensor<1x2048xf32>
      %81 = arith.addf %72, %cst_2 : tensor<1x2048xf32>
      %82 = arith.mulf %80, %81 : tensor<1x2048xf32>
      %83 = arith.mulf %75, %17 : tensor<1x2048xf32>
      %84 = arith.addf %77, %cst_2 : tensor<1x2048xf32>
      %85 = arith.mulf %83, %84 : tensor<1x2048xf32>
      %86 = arith.addf %85, %79 : tensor<1x2048xf32>
      %87 = arith.mulf %82, %86 : tensor<1x2048xf32>
      %88 = arith.addf %arg14, %87 : tensor<1x2048xf32>
      %89 = arith.select %65, %88, %arg14 : tensor<1x2048xi1>, tensor<1x2048xf32>
      scf.yield %89 : tensor<1x2048xf32>
    }
    %19 = "tt.reduce"(%18) <{axis = 1 : i32}> ({
    ^bb0(%arg13: f32, %arg14: f32):
      %60 = arith.addf %arg13, %arg14 : f32
      tt.reduce.return %60 : f32
    }) : (tensor<1x2048xf32>) -> tensor<1xf32>
    %20 = tt.expand_dims %19 {axis = 1 : i32} : (tensor<1xf32>) -> tensor<1x1xf32>
    %21 = tt.addptr %arg8, %0 : !tt.ptr<f32, 1>, i32
    %22 = tt.splat %21 : (!tt.ptr<f32, 1>) -> tensor<1x1x!tt.ptr<f32, 1>>
    %23 = tt.load %22, %2 {cache = 1 : i32, evict = 3 : i32, isVolatile = false} : tensor<1x1xf32>
    %24 = arith.muli %0, %c2304_i32 : i32
    %25 = tt.splat %24 : (i32) -> tensor<1x2048xi32>
    %26 = tt.splat %arg4 : (!tt.ptr<bf16, 1>) -> tensor<1x2048x!tt.ptr<bf16, 1>>
    %27 = tt.splat %1 : (i1) -> tensor<1x2048xi1>
    %28 = tt.splat %arg6 : (!tt.ptr<f32, 1>) -> tensor<1x2048x!tt.ptr<f32, 1>>
    %29 = tt.splat %arg7 : (!tt.ptr<f32, 1>) -> tensor<1x2048x!tt.ptr<f32, 1>>
    %30 = tt.splat %arg9 : (!tt.ptr<f32, 1>) -> tensor<1x2048x!tt.ptr<f32, 1>>
    %31 = tt.splat %arg1 : (!tt.ptr<bf16, 1>) -> tensor<1x2048x!tt.ptr<bf16, 1>>
    %32 = tt.splat %arg2 : (!tt.ptr<bf16, 1>) -> tensor<1x2048x!tt.ptr<bf16, 1>>
    %33 = tt.splat %arg3 : (!tt.ptr<f32, 1>) -> tensor<1x2048x!tt.ptr<f32, 1>>
    %34 = arith.mulf %20, %cst_1 : tensor<1x1xf32>
    %35 = arith.mulf %23, %23 : tensor<1x1xf32>
    %36 = arith.mulf %35, %23 : tensor<1x1xf32>
    %37 = arith.mulf %34, %36 : tensor<1x1xf32>
    %38 = arith.divf %37, %cst_0 : tensor<1x1xf32>
    %39 = tt.broadcast %7 : (tensor<1x1xf32>) -> tensor<1x2048xf32>
    %40 = tt.broadcast %38 : (tensor<1x1xf32>) -> tensor<1x2048xf32>
    %41 = tt.broadcast %23 : (tensor<1x1xf32>) -> tensor<1x2048xf32>
    %42 = tt.splat %arg0 : (!tt.ptr<f32, 1>) -> tensor<1x2048x!tt.ptr<f32, 1>>
    %43 = scf.for %arg13 = %c0_i32 to %c2304_i32 step %c2048_i32 iter_args(%arg14 = %cst_4) -> (tensor<1x2048xf32>)  : i32 {
      %60 = tt.splat %arg13 : (i32) -> tensor<1x2048xi32>
      %61 = arith.addi %60, %4 : tensor<1x2048xi32>
      %62 = arith.cmpi slt, %61, %cst_3 : tensor<1x2048xi32>
      %63 = arith.addi %61, %25 : tensor<1x2048xi32>
      %64 = tt.addptr %26, %63 : tensor<1x2048x!tt.ptr<bf16, 1>>, tensor<1x2048xi32>
      %65 = arith.andi %62, %27 : tensor<1x2048xi1>
      %66 = tt.load %64, %65, %cst {cache = 1 : i32, evict = 3 : i32, isVolatile = false} : tensor<1x2048xbf16>
      %67 = arith.extf %66 : tensor<1x2048xbf16> to tensor<1x2048xf32>
      %68 = tt.addptr %28, %61 : tensor<1x2048x!tt.ptr<f32, 1>>, tensor<1x2048xi32>
      %69 = tt.load %68, %62, %cst_4 {cache = 1 : i32, evict = 3 : i32, isVolatile = false} : tensor<1x2048xf32>
      %70 = tt.addptr %29, %63 : tensor<1x2048x!tt.ptr<f32, 1>>, tensor<1x2048xi32>
      %71 = tt.load %70, %65, %cst_4 {cache = 1 : i32, evict = 2 : i32, isVolatile = false} : tensor<1x2048xf32>
      %72 = tt.addptr %30, %63 : tensor<1x2048x!tt.ptr<f32, 1>>, tensor<1x2048xi32>
      %73 = tt.load %72, %65, %cst_4 {cache = 1 : i32, evict = 2 : i32, isVolatile = false} : tensor<1x2048xf32>
      %74 = tt.addptr %31, %63 : tensor<1x2048x!tt.ptr<bf16, 1>>, tensor<1x2048xi32>
      %75 = tt.load %74, %65, %cst {cache = 1 : i32, evict = 2 : i32, isVolatile = false} : tensor<1x2048xbf16>
      %76 = arith.extf %75 : tensor<1x2048xbf16> to tensor<1x2048xf32>
      %77 = tt.addptr %32, %63 : tensor<1x2048x!tt.ptr<bf16, 1>>, tensor<1x2048xi32>
      %78 = tt.load %77, %65, %cst {cache = 1 : i32, evict = 2 : i32, isVolatile = false} : tensor<1x2048xbf16>
      %79 = arith.extf %78 : tensor<1x2048xbf16> to tensor<1x2048xf32>
      %80 = tt.addptr %33, %61 : tensor<1x2048x!tt.ptr<f32, 1>>, tensor<1x2048xi32>
      %81 = tt.load %80, %62, %cst_4 {cache = 1 : i32, evict = 3 : i32, isVolatile = false} : tensor<1x2048xf32>
      %82 = arith.mulf %67, %39 : tensor<1x2048xf32>
      %83 = arith.addf %69, %cst_2 : tensor<1x2048xf32>
      %84 = arith.mulf %82, %83 : tensor<1x2048xf32>
      %85 = arith.addf %84, %71 : tensor<1x2048xf32>
      %86 = arith.mulf %40, %85 : tensor<1x2048xf32>
      %87 = arith.addf %76, %79 : tensor<1x2048xf32>
      %88 = arith.addf %81, %cst_2 : tensor<1x2048xf32>
      %89 = arith.mulf %87, %88 : tensor<1x2048xf32>
      %90 = arith.mulf %89, %41 : tensor<1x2048xf32>
      %91 = arith.addf %73, %90 : tensor<1x2048xf32>
      %92 = arith.addf %91, %86 : tensor<1x2048xf32>
      %93 = arith.addf %92, %86 : tensor<1x2048xf32>
      %94 = arith.mulf %93, %83 : tensor<1x2048xf32>
      %95 = arith.mulf %94, %67 : tensor<1x2048xf32>
      %96 = arith.addf %arg14, %95 : tensor<1x2048xf32>
      %97 = arith.select %65, %96, %arg14 : tensor<1x2048xi1>, tensor<1x2048xf32>
      %98 = tt.addptr %42, %63 : tensor<1x2048x!tt.ptr<f32, 1>>, tensor<1x2048xi32>
      tt.store %98, %93, %65 {cache = 1 : i32, evict = 1 : i32} : tensor<1x2048xf32>
      scf.yield %97 : tensor<1x2048xf32>
    }
    %44 = "tt.reduce"(%43) <{axis = 1 : i32}> ({
    ^bb0(%arg13: f32, %arg14: f32):
      %60 = arith.addf %arg13, %arg14 : f32
      tt.reduce.return %60 : f32
    }) : (tensor<1x2048xf32>) -> tensor<1xf32>
    %45 = tt.expand_dims %44 {axis = 1 : i32} : (tensor<1xf32>) -> tensor<1x1xf32>
    %46 = arith.muli %0, %c2304_i32 : i32
    %47 = tt.splat %46 : (i32) -> tensor<1x2048xi32>
    %48 = tt.splat %arg0 : (!tt.ptr<f32, 1>) -> tensor<1x2048x!tt.ptr<f32, 1>>
    %49 = tt.splat %1 : (i1) -> tensor<1x2048xi1>
    %50 = tt.splat %arg6 : (!tt.ptr<f32, 1>) -> tensor<1x2048x!tt.ptr<f32, 1>>
    %51 = tt.splat %arg4 : (!tt.ptr<bf16, 1>) -> tensor<1x2048x!tt.ptr<bf16, 1>>
    %52 = tt.broadcast %7 : (tensor<1x1xf32>) -> tensor<1x2048xf32>
    %53 = arith.mulf %45, %cst_1 : tensor<1x1xf32>
    %54 = arith.mulf %7, %7 : tensor<1x1xf32>
    %55 = arith.mulf %54, %7 : tensor<1x1xf32>
    %56 = arith.mulf %53, %55 : tensor<1x1xf32>
    %57 = arith.divf %56, %cst_0 : tensor<1x1xf32>
    %58 = tt.broadcast %57 : (tensor<1x1xf32>) -> tensor<1x2048xf32>
    %59 = tt.splat %arg10 : (!tt.ptr<bf16, 1>) -> tensor<1x2048x!tt.ptr<bf16, 1>>
    scf.for %arg13 = %c0_i32 to %c2304_i32 step %c2048_i32  : i32 {
      %60 = tt.splat %arg13 : (i32) -> tensor<1x2048xi32>
      %61 = arith.addi %60, %4 : tensor<1x2048xi32>
      %62 = arith.cmpi slt, %61, %cst_3 : tensor<1x2048xi32>
      %63 = arith.addi %61, %47 : tensor<1x2048xi32>
      %64 = tt.addptr %48, %63 : tensor<1x2048x!tt.ptr<f32, 1>>, tensor<1x2048xi32>
      %65 = arith.andi %62, %49 : tensor<1x2048xi1>
      %66 = tt.load %64, %65, %cst_4 {cache = 1 : i32, evict = 2 : i32, isVolatile = false} : tensor<1x2048xf32>
      %67 = tt.addptr %50, %61 : tensor<1x2048x!tt.ptr<f32, 1>>, tensor<1x2048xi32>
      %68 = tt.load %67, %62, %cst_4 {cache = 1 : i32, evict = 3 : i32, isVolatile = false} : tensor<1x2048xf32>
      %69 = tt.addptr %51, %63 : tensor<1x2048x!tt.ptr<bf16, 1>>, tensor<1x2048xi32>
      %70 = tt.load %69, %65, %cst {cache = 1 : i32, evict = 2 : i32, isVolatile = false} : tensor<1x2048xbf16>
      %71 = arith.extf %70 : tensor<1x2048xbf16> to tensor<1x2048xf32>
      %72 = arith.addf %68, %cst_2 : tensor<1x2048xf32>
      %73 = arith.mulf %66, %72 : tensor<1x2048xf32>
      %74 = arith.mulf %73, %52 : tensor<1x2048xf32>
      %75 = arith.mulf %58, %71 : tensor<1x2048xf32>
      %76 = arith.addf %74, %75 : tensor<1x2048xf32>
      %77 = arith.addf %76, %75 : tensor<1x2048xf32>
      %78 = tt.addptr %59, %63 : tensor<1x2048x!tt.ptr<bf16, 1>>, tensor<1x2048xi32>
      %79 = arith.truncf %77 : tensor<1x2048xf32> to tensor<1x2048xbf16>
      tt.store %78, %79, %65 {cache = 1 : i32, evict = 1 : i32} : tensor<1x2048xbf16>
    }
    tt.return
  }
}
