module {
  tt.func public @triton__0d1d2d3d4d5de6de(%arg0: !tt.ptr<f32, 1> {tt.divisibility = 16 : i32}, %arg1: !tt.ptr<bf16, 1> {tt.divisibility = 16 : i32}, %arg2: !tt.ptr<f32, 1> {tt.divisibility = 16 : i32}, %arg3: !tt.ptr<f32, 1> {tt.divisibility = 16 : i32}, %arg4: !tt.ptr<f32, 1> {tt.divisibility = 16 : i32}, %arg5: i32 {tt.divisibility = 16 : i32, tt.max_divisibility = 16 : i32}, %arg6: i32 {tt.divisibility = 16 : i32, tt.max_divisibility = 16 : i32}) attributes {noinline = false} {
    %cst = arith.constant dense<0.000000e+00> : tensor<1x2048xbf16>
    %c2304_i32 = arith.constant 2304 : i32
    %c2048_i32 = arith.constant 2048 : i32
    %c0_i32 = arith.constant 0 : i32
    %cst_0 = arith.constant dense<-5.000000e-01> : tensor<1x1xf32>
    %cst_1 = arith.constant dense<9.99999974E-6> : tensor<1x1xf32>
    %cst_2 = arith.constant dense<2.304000e+03> : tensor<1x1xf32>
    %cst_3 = arith.constant dense<1.000000e+00> : tensor<1x2048xf32>
    %cst_4 = arith.constant dense<2304> : tensor<1x2048xi32>
    %cst_5 = arith.constant dense<0.000000e+00> : tensor<1x2048xf32>
    %0 = tt.get_program_id x : i32
    %1 = tt.make_range {end = 2048 : i32, start = 0 : i32} : tensor<2048xi32>
    %2 = tt.expand_dims %1 {axis = 0 : i32} : (tensor<2048xi32>) -> tensor<1x2048xi32>
    %3 = arith.muli %0, %c2304_i32 : i32
    %4 = tt.splat %3 : (i32) -> tensor<1x2048xi32>
    %5 = tt.splat %arg1 : (!tt.ptr<bf16, 1>) -> tensor<1x2048x!tt.ptr<bf16, 1>>
    %6 = tt.splat %arg2 : (!tt.ptr<f32, 1>) -> tensor<1x2048x!tt.ptr<f32, 1>>
    %7 = tt.splat %arg3 : (!tt.ptr<f32, 1>) -> tensor<1x2048x!tt.ptr<f32, 1>>
    %8 = scf.for %arg7 = %c0_i32 to %c2304_i32 step %c2048_i32 iter_args(%arg8 = %cst_5) -> (tensor<1x2048xf32>)  : i32 {
      %23 = tt.splat %arg7 : (i32) -> tensor<1x2048xi32>
      %24 = arith.addi %23, %2 : tensor<1x2048xi32>
      %25 = arith.cmpi slt, %24, %cst_4 : tensor<1x2048xi32>
      %26 = arith.addi %24, %4 : tensor<1x2048xi32>
      %27 = tt.addptr %5, %26 : tensor<1x2048x!tt.ptr<bf16, 1>>, tensor<1x2048xi32>
      %28 = tt.load %27, %25, %cst {cache = 1 : i32, evict = 3 : i32, isVolatile = false} : tensor<1x2048xbf16>
      %29 = arith.extf %28 : tensor<1x2048xbf16> to tensor<1x2048xf32>
      %30 = tt.addptr %6, %24 : tensor<1x2048x!tt.ptr<f32, 1>>, tensor<1x2048xi32>
      %31 = tt.load %30, %25, %cst_5 {cache = 1 : i32, evict = 3 : i32, isVolatile = false} : tensor<1x2048xf32>
      %32 = tt.addptr %7, %26 : tensor<1x2048x!tt.ptr<f32, 1>>, tensor<1x2048xi32>
      %33 = tt.load %32, %25, %cst_5 {cache = 1 : i32, evict = 3 : i32, isVolatile = false} : tensor<1x2048xf32>
      %34 = arith.addf %31, %cst_3 : tensor<1x2048xf32>
      %35 = arith.mulf %29, %34 : tensor<1x2048xf32>
      %36 = arith.mulf %35, %33 : tensor<1x2048xf32>
      %37 = arith.addf %arg8, %36 : tensor<1x2048xf32>
      %38 = arith.select %25, %37, %arg8 : tensor<1x2048xi1>, tensor<1x2048xf32>
      scf.yield %38 : tensor<1x2048xf32>
    }
    %9 = "tt.reduce"(%8) <{axis = 1 : i32}> ({
    ^bb0(%arg7: f32, %arg8: f32):
      %23 = arith.addf %arg7, %arg8 : f32
      tt.reduce.return %23 : f32
    }) : (tensor<1x2048xf32>) -> tensor<1xf32>
    %10 = tt.expand_dims %9 {axis = 1 : i32} : (tensor<1xf32>) -> tensor<1x1xf32>
    %11 = tt.addptr %arg4, %0 : !tt.ptr<f32, 1>, i32
    %12 = tt.splat %11 : (!tt.ptr<f32, 1>) -> tensor<1x1x!tt.ptr<f32, 1>>
    %13 = tt.load %12 {cache = 1 : i32, evict = 3 : i32, isVolatile = false} : tensor<1x1xf32>
    %14 = arith.muli %0, %c2304_i32 : i32
    %15 = tt.splat %14 : (i32) -> tensor<1x2048xi32>
    %16 = tt.splat %arg0 : (!tt.ptr<f32, 1>) -> tensor<1x2048x!tt.ptr<f32, 1>>
    %17 = tt.splat %arg1 : (!tt.ptr<bf16, 1>) -> tensor<1x2048x!tt.ptr<bf16, 1>>
    %18 = tt.splat %arg2 : (!tt.ptr<f32, 1>) -> tensor<1x2048x!tt.ptr<f32, 1>>
    %19 = tt.splat %arg3 : (!tt.ptr<f32, 1>) -> tensor<1x2048x!tt.ptr<f32, 1>>
    %20 = arith.divf %13, %cst_2 : tensor<1x1xf32>
    %21 = arith.addf %20, %cst_1 : tensor<1x1xf32>
    %22 = arith.mulf %10, %cst_0 : tensor<1x1xf32>
    scf.for %arg7 = %c0_i32 to %c2304_i32 step %c2048_i32  : i32 {
      %23 = tt.splat %arg7 : (i32) -> tensor<1x2048xi32>
      %24 = arith.addi %23, %2 : tensor<1x2048xi32>
      %25 = arith.cmpi slt, %24, %cst_4 : tensor<1x2048xi32>
      %26 = arith.addi %24, %15 : tensor<1x2048xi32>
      %27 = tt.addptr %16, %26 : tensor<1x2048x!tt.ptr<f32, 1>>, tensor<1x2048xi32>
      %28 = tt.load %27, %25, %cst_5 {cache = 1 : i32, evict = 2 : i32, isVolatile = false} : tensor<1x2048xf32>
      %29 = tt.addptr %17, %26 : tensor<1x2048x!tt.ptr<bf16, 1>>, tensor<1x2048xi32>
      %30 = tt.load %29, %25, %cst {cache = 1 : i32, evict = 2 : i32, isVolatile = false} : tensor<1x2048xbf16>
      %31 = arith.extf %30 : tensor<1x2048xbf16> to tensor<1x2048xf32>
      %32 = tt.addptr %18, %24 : tensor<1x2048x!tt.ptr<f32, 1>>, tensor<1x2048xi32>
      %33 = tt.load %32, %25, %cst_5 {cache = 1 : i32, evict = 3 : i32, isVolatile = false} : tensor<1x2048xf32>
      %34 = tt.addptr %19, %26 : tensor<1x2048x!tt.ptr<f32, 1>>, tensor<1x2048xi32>
      %35 = tt.load %34, %25, %cst_5 {cache = 1 : i32, evict = 2 : i32, isVolatile = false} : tensor<1x2048xf32>
      %36 = arith.addf %33, %cst_3 : tensor<1x2048xf32>
      %37 = arith.mulf %31, %36 : tensor<1x2048xf32>
      %38 = tt.extern_elementwise %21 {libname = "libdevice", libpath = "/home/zeus/miniconda3/envs/cloudspace/lib/python3.10/site-packages/triton/language/../third_party/cuda/lib/libdevice.10.bc", pure = true, symbol = "__nv_rsqrtf"} : (tensor<1x1xf32>) -> tensor<1x1xf32>
      %39 = tt.broadcast %38 : (tensor<1x1xf32>) -> tensor<1x2048xf32>
      %40 = arith.mulf %37, %39 : tensor<1x2048xf32>
      %41 = arith.addf %28, %40 : tensor<1x2048xf32>
      %42 = arith.mulf %38, %38 : tensor<1x1xf32>
      %43 = arith.mulf %42, %38 : tensor<1x1xf32>
      %44 = arith.mulf %22, %43 : tensor<1x1xf32>
      %45 = arith.divf %44, %cst_2 : tensor<1x1xf32>
      %46 = tt.broadcast %45 : (tensor<1x1xf32>) -> tensor<1x2048xf32>
      %47 = arith.mulf %46, %35 : tensor<1x2048xf32>
      %48 = arith.addf %41, %47 : tensor<1x2048xf32>
      %49 = arith.addf %48, %47 : tensor<1x2048xf32>
      tt.store %27, %49, %25 {cache = 1 : i32, evict = 1 : i32} : tensor<1x2048xf32>
    }
    tt.return
  }
}
