module {
  tt.func public @triton__0d1d2d3d4d5d6de7de(%arg0: !tt.ptr<bf16, 1> {tt.divisibility = 16 : i32}, %arg1: !tt.ptr<f32, 1> {tt.divisibility = 16 : i32}, %arg2: !tt.ptr<f32, 1> {tt.divisibility = 16 : i32}, %arg3: !tt.ptr<f32, 1> {tt.divisibility = 16 : i32}, %arg4: !tt.ptr<f32, 1> {tt.divisibility = 16 : i32}, %arg5: !tt.ptr<bf16, 1> {tt.divisibility = 16 : i32}, %arg6: i32 {tt.divisibility = 16 : i32, tt.max_divisibility = 16 : i32}, %arg7: i32 {tt.divisibility = 16 : i32, tt.max_divisibility = 16 : i32}) attributes {noinline = false} {
    %cst = arith.constant dense<0.000000e+00> : tensor<1x2048xbf16>
    %c2304_i32 = arith.constant 2304 : i32
    %c2048_i32 = arith.constant 2048 : i32
    %c0_i32 = arith.constant 0 : i32
    %cst_0 = arith.constant dense<1.000000e+00> : tensor<1x2048xf32>
    %cst_1 = arith.constant dense<9.99999974E-6> : tensor<1x1xf32>
    %cst_2 = arith.constant dense<2.304000e+03> : tensor<1x1xf32>
    %cst_3 = arith.constant dense<2304> : tensor<1x2048xi32>
    %cst_4 = arith.constant dense<0.000000e+00> : tensor<1x2048xf32>
    %0 = tt.get_program_id x : i32
    %1 = tt.make_range {end = 2048 : i32, start = 0 : i32} : tensor<2048xi32>
    %2 = tt.expand_dims %1 {axis = 0 : i32} : (tensor<2048xi32>) -> tensor<1x2048xi32>
    %3 = arith.muli %0, %c2304_i32 : i32
    %4 = tt.splat %3 : (i32) -> tensor<1x2048xi32>
    %5 = tt.splat %arg0 : (!tt.ptr<bf16, 1>) -> tensor<1x2048x!tt.ptr<bf16, 1>>
    %6 = scf.for %arg8 = %c0_i32 to %c2304_i32 step %c2048_i32 iter_args(%arg9 = %cst_4) -> (tensor<1x2048xf32>)  : i32 {
      %32 = tt.splat %arg8 : (i32) -> tensor<1x2048xi32>
      %33 = arith.addi %32, %2 : tensor<1x2048xi32>
      %34 = arith.cmpi slt, %33, %cst_3 : tensor<1x2048xi32>
      %35 = arith.addi %33, %4 : tensor<1x2048xi32>
      %36 = tt.addptr %5, %35 : tensor<1x2048x!tt.ptr<bf16, 1>>, tensor<1x2048xi32>
      %37 = tt.load %36, %34, %cst {cache = 1 : i32, evict = 3 : i32, isVolatile = false} : tensor<1x2048xbf16>
      %38 = arith.extf %37 : tensor<1x2048xbf16> to tensor<1x2048xf32>
      %39 = arith.mulf %38, %38 : tensor<1x2048xf32>
      %40 = arith.addf %arg9, %39 : tensor<1x2048xf32>
      %41 = arith.select %34, %40, %arg9 : tensor<1x2048xi1>, tensor<1x2048xf32>
      scf.yield %41 : tensor<1x2048xf32>
    }
    %7 = "tt.reduce"(%6) <{axis = 1 : i32}> ({
    ^bb0(%arg8: f32, %arg9: f32):
      %32 = arith.addf %arg8, %arg9 : f32
      tt.reduce.return %32 : f32
    }) : (tensor<1x2048xf32>) -> tensor<1xf32>
    %8 = tt.expand_dims %7 {axis = 1 : i32} : (tensor<1xf32>) -> tensor<1x1xf32>
    %9 = tt.addptr %arg4, %0 : !tt.ptr<f32, 1>, i32
    %10 = tt.splat %9 : (!tt.ptr<f32, 1>) -> tensor<1x1x!tt.ptr<f32, 1>>
    tt.store %10, %8 {cache = 1 : i32, evict = 1 : i32} : tensor<1x1xf32>
    %11 = arith.muli %0, %c2304_i32 : i32
    %12 = tt.splat %11 : (i32) -> tensor<1x2048xi32>
    %13 = tt.splat %arg0 : (!tt.ptr<bf16, 1>) -> tensor<1x2048x!tt.ptr<bf16, 1>>
    %14 = tt.splat %arg1 : (!tt.ptr<f32, 1>) -> tensor<1x2048x!tt.ptr<f32, 1>>
    %15 = tt.splat %arg2 : (!tt.ptr<f32, 1>) -> tensor<1x2048x!tt.ptr<f32, 1>>
    %16 = arith.divf %8, %cst_2 : tensor<1x1xf32>
    %17 = arith.addf %16, %cst_1 : tensor<1x1xf32>
    %18 = scf.for %arg8 = %c0_i32 to %c2304_i32 step %c2048_i32 iter_args(%arg9 = %cst_4) -> (tensor<1x2048xf32>)  : i32 {
      %32 = tt.splat %arg8 : (i32) -> tensor<1x2048xi32>
      %33 = arith.addi %32, %2 : tensor<1x2048xi32>
      %34 = arith.cmpi slt, %33, %cst_3 : tensor<1x2048xi32>
      %35 = arith.addi %33, %12 : tensor<1x2048xi32>
      %36 = tt.addptr %13, %35 : tensor<1x2048x!tt.ptr<bf16, 1>>, tensor<1x2048xi32>
      %37 = tt.load %36, %34, %cst {cache = 1 : i32, evict = 3 : i32, isVolatile = false} : tensor<1x2048xbf16>
      %38 = arith.extf %37 : tensor<1x2048xbf16> to tensor<1x2048xf32>
      %39 = tt.addptr %14, %33 : tensor<1x2048x!tt.ptr<f32, 1>>, tensor<1x2048xi32>
      %40 = tt.load %39, %34, %cst_4 {cache = 1 : i32, evict = 3 : i32, isVolatile = false} : tensor<1x2048xf32>
      %41 = tt.addptr %15, %35 : tensor<1x2048x!tt.ptr<f32, 1>>, tensor<1x2048xi32>
      %42 = tt.load %41, %34, %cst_4 {cache = 1 : i32, evict = 3 : i32, isVolatile = false} : tensor<1x2048xf32>
      %43 = tt.extern_elementwise %17 {libname = "libdevice", libpath = "/home/zeus/miniconda3/envs/cloudspace/lib/python3.10/site-packages/triton/language/../third_party/cuda/lib/libdevice.10.bc", pure = true, symbol = "__nv_rsqrtf"} : (tensor<1x1xf32>) -> tensor<1x1xf32>
      %44 = tt.broadcast %43 : (tensor<1x1xf32>) -> tensor<1x2048xf32>
      %45 = arith.mulf %38, %44 : tensor<1x2048xf32>
      %46 = arith.addf %40, %cst_0 : tensor<1x2048xf32>
      %47 = arith.mulf %45, %46 : tensor<1x2048xf32>
      %48 = arith.addf %47, %42 : tensor<1x2048xf32>
      %49 = arith.mulf %48, %48 : tensor<1x2048xf32>
      %50 = arith.addf %arg9, %49 : tensor<1x2048xf32>
      %51 = arith.select %34, %50, %arg9 : tensor<1x2048xi1>, tensor<1x2048xf32>
      scf.yield %51 : tensor<1x2048xf32>
    }
    %19 = "tt.reduce"(%18) <{axis = 1 : i32}> ({
    ^bb0(%arg8: f32, %arg9: f32):
      %32 = arith.addf %arg8, %arg9 : f32
      tt.reduce.return %32 : f32
    }) : (tensor<1x2048xf32>) -> tensor<1xf32>
    %20 = tt.expand_dims %19 {axis = 1 : i32} : (tensor<1xf32>) -> tensor<1x1xf32>
    %21 = arith.muli %0, %c2304_i32 : i32
    %22 = tt.splat %21 : (i32) -> tensor<1x2048xi32>
    %23 = tt.splat %arg0 : (!tt.ptr<bf16, 1>) -> tensor<1x2048x!tt.ptr<bf16, 1>>
    %24 = tt.splat %arg1 : (!tt.ptr<f32, 1>) -> tensor<1x2048x!tt.ptr<f32, 1>>
    %25 = tt.splat %arg2 : (!tt.ptr<f32, 1>) -> tensor<1x2048x!tt.ptr<f32, 1>>
    %26 = tt.splat %arg3 : (!tt.ptr<f32, 1>) -> tensor<1x2048x!tt.ptr<f32, 1>>
    %27 = arith.divf %8, %cst_2 : tensor<1x1xf32>
    %28 = arith.addf %27, %cst_1 : tensor<1x1xf32>
    %29 = arith.divf %20, %cst_2 : tensor<1x1xf32>
    %30 = arith.addf %29, %cst_1 : tensor<1x1xf32>
    %31 = tt.splat %arg5 : (!tt.ptr<bf16, 1>) -> tensor<1x2048x!tt.ptr<bf16, 1>>
    scf.for %arg8 = %c0_i32 to %c2304_i32 step %c2048_i32  : i32 {
      %32 = tt.splat %arg8 : (i32) -> tensor<1x2048xi32>
      %33 = arith.addi %32, %2 : tensor<1x2048xi32>
      %34 = arith.cmpi slt, %33, %cst_3 : tensor<1x2048xi32>
      %35 = arith.addi %33, %22 : tensor<1x2048xi32>
      %36 = tt.addptr %23, %35 : tensor<1x2048x!tt.ptr<bf16, 1>>, tensor<1x2048xi32>
      %37 = tt.load %36, %34, %cst {cache = 1 : i32, evict = 2 : i32, isVolatile = false} : tensor<1x2048xbf16>
      %38 = arith.extf %37 : tensor<1x2048xbf16> to tensor<1x2048xf32>
      %39 = tt.addptr %24, %33 : tensor<1x2048x!tt.ptr<f32, 1>>, tensor<1x2048xi32>
      %40 = tt.load %39, %34, %cst_4 {cache = 1 : i32, evict = 3 : i32, isVolatile = false} : tensor<1x2048xf32>
      %41 = tt.addptr %25, %35 : tensor<1x2048x!tt.ptr<f32, 1>>, tensor<1x2048xi32>
      %42 = tt.load %41, %34, %cst_4 {cache = 1 : i32, evict = 2 : i32, isVolatile = false} : tensor<1x2048xf32>
      %43 = tt.addptr %26, %33 : tensor<1x2048x!tt.ptr<f32, 1>>, tensor<1x2048xi32>
      %44 = tt.load %43, %34, %cst_4 {cache = 1 : i32, evict = 3 : i32, isVolatile = false} : tensor<1x2048xf32>
      %45 = tt.extern_elementwise %28 {libname = "libdevice", libpath = "/home/zeus/miniconda3/envs/cloudspace/lib/python3.10/site-packages/triton/language/../third_party/cuda/lib/libdevice.10.bc", pure = true, symbol = "__nv_rsqrtf"} : (tensor<1x1xf32>) -> tensor<1x1xf32>
      %46 = tt.broadcast %45 : (tensor<1x1xf32>) -> tensor<1x2048xf32>
      %47 = arith.mulf %38, %46 : tensor<1x2048xf32>
      %48 = arith.addf %40, %cst_0 : tensor<1x2048xf32>
      %49 = arith.mulf %47, %48 : tensor<1x2048xf32>
      %50 = arith.addf %49, %42 : tensor<1x2048xf32>
      %51 = tt.extern_elementwise %30 {libname = "libdevice", libpath = "/home/zeus/miniconda3/envs/cloudspace/lib/python3.10/site-packages/triton/language/../third_party/cuda/lib/libdevice.10.bc", pure = true, symbol = "__nv_rsqrtf"} : (tensor<1x1xf32>) -> tensor<1x1xf32>
      %52 = tt.broadcast %51 : (tensor<1x1xf32>) -> tensor<1x2048xf32>
      %53 = arith.mulf %50, %52 : tensor<1x2048xf32>
      %54 = arith.addf %44, %cst_0 : tensor<1x2048xf32>
      %55 = arith.mulf %53, %54 : tensor<1x2048xf32>
      %56 = tt.addptr %31, %35 : tensor<1x2048x!tt.ptr<bf16, 1>>, tensor<1x2048xi32>
      %57 = arith.truncf %55 : tensor<1x2048xf32> to tensor<1x2048xbf16>
      tt.store %56, %57, %34 {cache = 1 : i32, evict = 1 : i32} : tensor<1x2048xbf16>
    }
    tt.return
  }
}
