module {
  tt.func public @triton__0d1d2d3d4de(%arg0: !tt.ptr<bf16, 1> {tt.divisibility = 16 : i32}, %arg1: !tt.ptr<f32, 1> {tt.divisibility = 16 : i32}, %arg2: !tt.ptr<f32, 1> {tt.divisibility = 16 : i32}, %arg3: !tt.ptr<f32, 1> {tt.divisibility = 16 : i32}, %arg4: i32 {tt.divisibility = 16 : i32, tt.max_divisibility = 16 : i32}) attributes {noinline = false} {
    %c3_i32 = arith.constant 3 : i32
    %cst = arith.constant dense<6912> : tensor<256xi32>
    %c2_i32 = arith.constant 2 : i32
    %cst_0 = arith.constant dense<4608> : tensor<256xi32>
    %c1_i32 = arith.constant 1 : i32
    %c0_i32 = arith.constant 0 : i32
    %cst_1 = arith.constant dense<2304> : tensor<256xi32>
    %c256_i32 = arith.constant 256 : i32
    %0 = tt.get_program_id x : i32
    %1 = arith.muli %0, %c256_i32 : i32
    %2 = tt.make_range {end = 256 : i32, start = 0 : i32} : tensor<256xi32>
    %3 = tt.splat %1 : (i32) -> tensor<256xi32>
    %4 = arith.addi %3, %2 : tensor<256xi32>
    %5 = arith.cmpi slt, %4, %cst_1 : tensor<256xi32>
    %6 = tt.splat %arg0 : (!tt.ptr<bf16, 1>) -> tensor<256x!tt.ptr<bf16, 1>>
    %7 = tt.addptr %6, %4 : tensor<256x!tt.ptr<bf16, 1>>, tensor<256xi32>
    %8 = tt.load %7, %5 {cache = 1 : i32, evict = 1 : i32, isVolatile = false} : tensor<256xbf16>
    %9 = arith.extf %8 : tensor<256xbf16> to tensor<256xf32>
    %10 = tt.splat %arg1 : (!tt.ptr<f32, 1>) -> tensor<256x!tt.ptr<f32, 1>>
    %11 = tt.addptr %10, %4 : tensor<256x!tt.ptr<f32, 1>>, tensor<256xi32>
    %12 = tt.load %11, %5 {cache = 1 : i32, evict = 1 : i32, isVolatile = false} : tensor<256xf32>
    %13 = tt.addptr %arg2, %c0_i32 : !tt.ptr<f32, 1>, i32
    %14 = tt.load %13 {cache = 1 : i32, evict = 1 : i32, isVolatile = false} : f32
    %15 = tt.splat %14 : (f32) -> tensor<256xf32>
    %16 = arith.addi %4, %cst_1 : tensor<256xi32>
    %17 = tt.addptr %6, %16 : tensor<256x!tt.ptr<bf16, 1>>, tensor<256xi32>
    %18 = tt.load %17, %5 {cache = 1 : i32, evict = 1 : i32, isVolatile = false} : tensor<256xbf16>
    %19 = arith.extf %18 : tensor<256xbf16> to tensor<256xf32>
    %20 = tt.addptr %10, %16 : tensor<256x!tt.ptr<f32, 1>>, tensor<256xi32>
    %21 = tt.load %20, %5 {cache = 1 : i32, evict = 1 : i32, isVolatile = false} : tensor<256xf32>
    %22 = tt.addptr %arg2, %c1_i32 : !tt.ptr<f32, 1>, i32
    %23 = tt.load %22 {cache = 1 : i32, evict = 1 : i32, isVolatile = false} : f32
    %24 = tt.splat %23 : (f32) -> tensor<256xf32>
    %25 = arith.addi %4, %cst_0 : tensor<256xi32>
    %26 = tt.addptr %6, %25 : tensor<256x!tt.ptr<bf16, 1>>, tensor<256xi32>
    %27 = tt.load %26, %5 {cache = 1 : i32, evict = 1 : i32, isVolatile = false} : tensor<256xbf16>
    %28 = arith.extf %27 : tensor<256xbf16> to tensor<256xf32>
    %29 = tt.addptr %10, %25 : tensor<256x!tt.ptr<f32, 1>>, tensor<256xi32>
    %30 = tt.load %29, %5 {cache = 1 : i32, evict = 1 : i32, isVolatile = false} : tensor<256xf32>
    %31 = tt.addptr %arg2, %c2_i32 : !tt.ptr<f32, 1>, i32
    %32 = tt.load %31 {cache = 1 : i32, evict = 1 : i32, isVolatile = false} : f32
    %33 = tt.splat %32 : (f32) -> tensor<256xf32>
    %34 = arith.addi %4, %cst : tensor<256xi32>
    %35 = tt.addptr %6, %34 : tensor<256x!tt.ptr<bf16, 1>>, tensor<256xi32>
    %36 = tt.load %35, %5 {cache = 1 : i32, evict = 1 : i32, isVolatile = false} : tensor<256xbf16>
    %37 = arith.extf %36 : tensor<256xbf16> to tensor<256xf32>
    %38 = tt.addptr %10, %34 : tensor<256x!tt.ptr<f32, 1>>, tensor<256xi32>
    %39 = tt.load %38, %5 {cache = 1 : i32, evict = 1 : i32, isVolatile = false} : tensor<256xf32>
    %40 = tt.addptr %arg2, %c3_i32 : !tt.ptr<f32, 1>, i32
    %41 = tt.load %40 {cache = 1 : i32, evict = 1 : i32, isVolatile = false} : f32
    %42 = tt.splat %41 : (f32) -> tensor<256xf32>
    %43 = arith.mulf %12, %15 : tensor<256xf32>
    %44 = arith.mulf %9, %43 : tensor<256xf32>
    %45 = arith.mulf %21, %24 : tensor<256xf32>
    %46 = arith.mulf %19, %45 : tensor<256xf32>
    %47 = arith.addf %44, %46 : tensor<256xf32>
    %48 = arith.mulf %30, %33 : tensor<256xf32>
    %49 = arith.mulf %28, %48 : tensor<256xf32>
    %50 = arith.addf %47, %49 : tensor<256xf32>
    %51 = arith.mulf %39, %42 : tensor<256xf32>
    %52 = arith.mulf %37, %51 : tensor<256xf32>
    %53 = arith.addf %50, %52 : tensor<256xf32>
    %54 = tt.splat %arg3 : (!tt.ptr<f32, 1>) -> tensor<256x!tt.ptr<f32, 1>>
    %55 = tt.addptr %54, %4 : tensor<256x!tt.ptr<f32, 1>>, tensor<256xi32>
    tt.store %55, %53, %5 {cache = 1 : i32, evict = 1 : i32} : tensor<256xf32>
    tt.return
  }
}
