module {
  tt.func public @triton__0d1d2d3d4de(%arg0: !tt.ptr<bf16, 1> {tt.divisibility = 16 : i32}, %arg1: !tt.ptr<bf16, 1> {tt.divisibility = 16 : i32}, %arg2: !tt.ptr<f32, 1> {tt.divisibility = 16 : i32}, %arg3: !tt.ptr<f32, 1> {tt.divisibility = 16 : i32}, %arg4: i32 {tt.divisibility = 16 : i32, tt.max_divisibility = 16 : i32}) attributes {noinline = false} {
    %cst = arith.constant dense<6912> : tensor<128xi32>
    %cst_0 = arith.constant dense<4608> : tensor<128xi32>
    %cst_1 = arith.constant dense<2304> : tensor<128xi32>
    %c128_i32 = arith.constant 128 : i32
    %0 = tt.get_program_id x : i32
    %1 = arith.muli %0, %c128_i32 : i32
    %2 = tt.make_range {end = 128 : i32, start = 0 : i32} : tensor<128xi32>
    %3 = tt.splat %1 : (i32) -> tensor<128xi32>
    %4 = arith.addi %3, %2 : tensor<128xi32>
    %5 = arith.cmpi slt, %4, %cst_1 : tensor<128xi32>
    %6 = tt.splat %arg0 : (!tt.ptr<bf16, 1>) -> tensor<128x!tt.ptr<bf16, 1>>
    %7 = tt.addptr %6, %4 : tensor<128x!tt.ptr<bf16, 1>>, tensor<128xi32>
    %8 = tt.load %7, %5 {cache = 1 : i32, evict = 1 : i32, isVolatile = false} : tensor<128xbf16>
    %9 = arith.extf %8 : tensor<128xbf16> to tensor<128xf32>
    %10 = tt.splat %arg1 : (!tt.ptr<bf16, 1>) -> tensor<128x!tt.ptr<bf16, 1>>
    %11 = tt.addptr %10, %4 : tensor<128x!tt.ptr<bf16, 1>>, tensor<128xi32>
    %12 = tt.load %11, %5 {cache = 1 : i32, evict = 1 : i32, isVolatile = false} : tensor<128xbf16>
    %13 = arith.extf %12 : tensor<128xbf16> to tensor<128xf32>
    %14 = tt.splat %arg2 : (!tt.ptr<f32, 1>) -> tensor<128x!tt.ptr<f32, 1>>
    %15 = tt.addptr %14, %4 : tensor<128x!tt.ptr<f32, 1>>, tensor<128xi32>
    %16 = tt.load %15, %5 {cache = 1 : i32, evict = 1 : i32, isVolatile = false} : tensor<128xf32>
    %17 = arith.addi %4, %cst_1 : tensor<128xi32>
    %18 = tt.addptr %6, %17 : tensor<128x!tt.ptr<bf16, 1>>, tensor<128xi32>
    %19 = tt.load %18, %5 {cache = 1 : i32, evict = 1 : i32, isVolatile = false} : tensor<128xbf16>
    %20 = arith.extf %19 : tensor<128xbf16> to tensor<128xf32>
    %21 = tt.addptr %10, %17 : tensor<128x!tt.ptr<bf16, 1>>, tensor<128xi32>
    %22 = tt.load %21, %5 {cache = 1 : i32, evict = 1 : i32, isVolatile = false} : tensor<128xbf16>
    %23 = arith.extf %22 : tensor<128xbf16> to tensor<128xf32>
    %24 = tt.addptr %14, %17 : tensor<128x!tt.ptr<f32, 1>>, tensor<128xi32>
    %25 = tt.load %24, %5 {cache = 1 : i32, evict = 1 : i32, isVolatile = false} : tensor<128xf32>
    %26 = arith.addi %4, %cst_0 : tensor<128xi32>
    %27 = tt.addptr %6, %26 : tensor<128x!tt.ptr<bf16, 1>>, tensor<128xi32>
    %28 = tt.load %27, %5 {cache = 1 : i32, evict = 1 : i32, isVolatile = false} : tensor<128xbf16>
    %29 = arith.extf %28 : tensor<128xbf16> to tensor<128xf32>
    %30 = tt.addptr %10, %26 : tensor<128x!tt.ptr<bf16, 1>>, tensor<128xi32>
    %31 = tt.load %30, %5 {cache = 1 : i32, evict = 1 : i32, isVolatile = false} : tensor<128xbf16>
    %32 = arith.extf %31 : tensor<128xbf16> to tensor<128xf32>
    %33 = tt.addptr %14, %26 : tensor<128x!tt.ptr<f32, 1>>, tensor<128xi32>
    %34 = tt.load %33, %5 {cache = 1 : i32, evict = 1 : i32, isVolatile = false} : tensor<128xf32>
    %35 = arith.addi %4, %cst : tensor<128xi32>
    %36 = tt.addptr %6, %35 : tensor<128x!tt.ptr<bf16, 1>>, tensor<128xi32>
    %37 = tt.load %36, %5 {cache = 1 : i32, evict = 1 : i32, isVolatile = false} : tensor<128xbf16>
    %38 = arith.extf %37 : tensor<128xbf16> to tensor<128xf32>
    %39 = tt.addptr %10, %35 : tensor<128x!tt.ptr<bf16, 1>>, tensor<128xi32>
    %40 = tt.load %39, %5 {cache = 1 : i32, evict = 1 : i32, isVolatile = false} : tensor<128xbf16>
    %41 = arith.extf %40 : tensor<128xbf16> to tensor<128xf32>
    %42 = tt.addptr %14, %35 : tensor<128x!tt.ptr<f32, 1>>, tensor<128xi32>
    %43 = tt.load %42, %5 {cache = 1 : i32, evict = 1 : i32, isVolatile = false} : tensor<128xf32>
    %44 = arith.addf %9, %13 : tensor<128xf32>
    %45 = arith.mulf %44, %16 : tensor<128xf32>
    %46 = arith.addf %20, %23 : tensor<128xf32>
    %47 = arith.mulf %46, %25 : tensor<128xf32>
    %48 = arith.addf %45, %47 : tensor<128xf32>
    %49 = arith.addf %29, %32 : tensor<128xf32>
    %50 = arith.mulf %49, %34 : tensor<128xf32>
    %51 = arith.addf %48, %50 : tensor<128xf32>
    %52 = arith.addf %38, %41 : tensor<128xf32>
    %53 = arith.mulf %52, %43 : tensor<128xf32>
    %54 = arith.addf %51, %53 : tensor<128xf32>
    %55 = tt.splat %arg3 : (!tt.ptr<f32, 1>) -> tensor<128x!tt.ptr<f32, 1>>
    %56 = tt.addptr %55, %4 : tensor<128x!tt.ptr<f32, 1>>, tensor<128xi32>
    tt.store %56, %54, %5 {cache = 1 : i32, evict = 1 : i32} : tensor<128xf32>
    tt.return
  }
}
