module {
  tt.func public @triton__0d1d2d3d4de5de(%arg0: !tt.ptr<bf16, 1> {tt.divisibility = 16 : i32}, %arg1: !tt.ptr<f32, 1> {tt.divisibility = 16 : i32}, %arg2: !tt.ptr<f32, 1> {tt.divisibility = 16 : i32}, %arg3: !tt.ptr<bf16, 1> {tt.divisibility = 16 : i32}, %arg4: i32 {tt.divisibility = 16 : i32, tt.max_divisibility = 16 : i32}, %arg5: i32 {tt.divisibility = 16 : i32, tt.max_divisibility = 16 : i32}) attributes {noinline = false} {
    %c1024_i32 = arith.constant 1024 : i32
    %c-1_i32 = arith.constant -1 : i32
    %cst = arith.constant dense<0.000000e+00> : tensor<1024xbf16>
    %cst_0 = arith.constant 0.000000e+00 : f32
    %cst_1 = arith.constant dense<0.000000e+00> : tensor<1024xf32>
    %cst_2 = arith.constant dense<0xFF800000> : tensor<1024xf32>
    %cst_3 = arith.constant dense<1.000000e+00> : tensor<1024xf32>
    %cst_4 = arith.constant dense<1> : tensor<1024xi64>
    %cst_5 = arith.constant dense<5.000000e+01> : tensor<1024xf32>
    %cst_6 = arith.constant dense<6.250000e-02> : tensor<1024xf32>
    %cst_7 = arith.constant dense<1024> : tensor<1024xi32>
    %0 = tt.get_program_id x : i32
    %1 = tt.make_range {end = 1024 : i32, start = 0 : i32} : tensor<1024xi32>
    %2 = arith.cmpi slt, %1, %cst_7 : tensor<1024xi32>
    %3 = arith.remsi %0, %c1024_i32 : i32
    %4 = arith.muli %0, %c1024_i32 : i32
    %5 = tt.splat %4 : (i32) -> tensor<1024xi32>
    %6 = arith.addi %1, %5 : tensor<1024xi32>
    %7 = tt.splat %arg0 : (!tt.ptr<bf16, 1>) -> tensor<1024x!tt.ptr<bf16, 1>>
    %8 = tt.addptr %7, %6 : tensor<1024x!tt.ptr<bf16, 1>>, tensor<1024xi32>
    %9 = tt.load %8, %2, %cst {cache = 1 : i32, evict = 1 : i32, isVolatile = false} : tensor<1024xbf16>
    %10 = arith.extf %9 : tensor<1024xbf16> to tensor<1024xf32>
    %11 = arith.mulf %10, %cst_6 : tensor<1024xf32>
    %12 = arith.divf %11, %cst_5 : tensor<1024xf32>
    %13 = tt.extern_elementwise %12 {libname = "libdevice", libpath = "/home/zeus/miniconda3/envs/cloudspace/lib/python3.10/site-packages/triton/language/../third_party/cuda/lib/libdevice.10.bc", pure = true, symbol = "__nv_tanhf"} : (tensor<1024xf32>) -> tensor<1024xf32>
    %14 = arith.mulf %13, %cst_5 : tensor<1024xf32>
    %15 = arith.muli %3, %c-1_i32 : i32
    %16 = tt.splat %15 : (i32) -> tensor<1024xi32>
    %17 = arith.addi %1, %16 : tensor<1024xi32>
    %18 = arith.extsi %17 : tensor<1024xi32> to tensor<1024xi64>
    %19 = arith.cmpi sge, %18, %cst_4 : tensor<1024xi64>
    %20 = arith.select %19, %cst_3, %cst_1 : tensor<1024xi1>, tensor<1024xf32>
    %21 = arith.cmpf une, %20, %cst_1 : tensor<1024xf32>
    %22 = arith.select %21, %cst_2, %20 : tensor<1024xi1>, tensor<1024xf32>
    %23 = arith.addf %14, %22 : tensor<1024xf32>
    %24 = arith.select %2, %23, %cst_2 : tensor<1024xi1>, tensor<1024xf32>
    %25 = "tt.reduce"(%24) <{axis = 0 : i32}> ({
    ^bb0(%arg6: f32, %arg7: f32):
      %44 = arith.cmpf ogt, %arg6, %arg7 : f32
      %45 = arith.cmpf une, %arg6, %arg6 : f32
      %46 = arith.ori %44, %45 : i1
      %47 = arith.select %46, %arg6, %arg7 : f32
      tt.reduce.return %47 : f32
    }) : (tensor<1024xf32>) -> f32
    %26 = arith.addf %25, %cst_0 : f32
    %27 = tt.splat %26 : (f32) -> tensor<1xf32>
    %28 = tt.splat %26 : (f32) -> tensor<1024xf32>
    %29 = arith.subf %23, %28 : tensor<1024xf32>
    %30 = math.exp %29 : tensor<1024xf32>
    %31 = arith.select %2, %30, %cst_1 : tensor<1024xi1>, tensor<1024xf32>
    %32 = "tt.reduce"(%31) <{axis = 0 : i32}> ({
    ^bb0(%arg6: f32, %arg7: f32):
      %44 = arith.addf %arg6, %arg7 : f32
      tt.reduce.return %44 : f32
    }) : (tensor<1024xf32>) -> f32
    %33 = arith.addf %32, %cst_0 : f32
    %34 = tt.splat %33 : (f32) -> tensor<1xf32>
    %35 = tt.splat %33 : (f32) -> tensor<1024xf32>
    %36 = arith.divf %30, %35 : tensor<1024xf32>
    %37 = tt.splat %arg3 : (!tt.ptr<bf16, 1>) -> tensor<1024x!tt.ptr<bf16, 1>>
    %38 = tt.addptr %37, %6 : tensor<1024x!tt.ptr<bf16, 1>>, tensor<1024xi32>
    %39 = arith.truncf %36 : tensor<1024xf32> to tensor<1024xbf16>
    tt.store %38, %39, %2 {cache = 1 : i32, evict = 1 : i32} : tensor<1024xbf16>
    %40 = tt.addptr %arg1, %0 : !tt.ptr<f32, 1>, i32
    %41 = tt.splat %40 : (!tt.ptr<f32, 1>) -> tensor<1x!tt.ptr<f32, 1>>
    tt.store %41, %27 {cache = 1 : i32, evict = 1 : i32} : tensor<1xf32>
    %42 = tt.addptr %arg2, %0 : !tt.ptr<f32, 1>, i32
    %43 = tt.splat %42 : (!tt.ptr<f32, 1>) -> tensor<1x!tt.ptr<f32, 1>>
    tt.store %43, %34 {cache = 1 : i32, evict = 1 : i32} : tensor<1xf32>
    tt.return
  }
}
