module {
  tt.func public @triton__0d1d2d3d4d5d6d7d8d9d10d1112de(%arg0: !tt.ptr<f32, 1> {tt.divisibility = 16 : i32}, %arg1: !tt.ptr<f32, 1> {tt.divisibility = 16 : i32}, %arg2: !tt.ptr<bf16, 1> {tt.divisibility = 16 : i32}, %arg3: !tt.ptr<f32, 1> {tt.divisibility = 16 : i32}, %arg4: !tt.ptr<bf16, 1> {tt.divisibility = 16 : i32}, %arg5: !tt.ptr<f32, 1> {tt.divisibility = 16 : i32}, %arg6: !tt.ptr<f32, 1> {tt.divisibility = 16 : i32}, %arg7: !tt.ptr<f32, 1> {tt.divisibility = 16 : i32}, %arg8: !tt.ptr<f32, 1> {tt.divisibility = 16 : i32}, %arg9: !tt.ptr<f32, 1> {tt.divisibility = 16 : i32}, %arg10: !tt.ptr<bf16, 1> {tt.divisibility = 16 : i32}, %arg11: i32, %arg12: i32 {tt.divisibility = 16 : i32, tt.max_divisibility = 16 : i32}) attributes {noinline = false} {
    %c4_i32 = arith.constant 4 : i32
    %cst = arith.constant dense<0.000000e+00> : tensor<1x2048xbf16>
    %c2304_i32 = arith.constant 2304 : i32
    %c2048_i32 = arith.constant 2048 : i32
    %c0_i32 = arith.constant 0 : i32
    %cst_0 = arith.constant dense<4.800000e+01> : tensor<1x2048xf32>
    %cst_1 = arith.constant dense<1.000000e+00> : tensor<1x2048xf32>
    %cst_2 = arith.constant dense<9.99999974E-6> : tensor<1x1xf32>
    %cst_3 = arith.constant dense<2.304000e+03> : tensor<1x1xf32>
    %cst_4 = arith.constant dense<2304> : tensor<1x2048xi32>
    %cst_5 = arith.constant dense<0.000000e+00> : tensor<1x2048xf32>
    %0 = tt.get_program_id x : i32
    %1 = arith.cmpi slt, %0, %c4_i32 : i32
    %2 = tt.splat %1 : (i1) -> tensor<1x1xi1>
    %3 = tt.make_range {end = 2048 : i32, start = 0 : i32} : tensor<2048xi32>
    %4 = tt.expand_dims %3 {axis = 0 : i32} : (tensor<2048xi32>) -> tensor<1x2048xi32>
    %5 = arith.muli %0, %c2304_i32 : i32
    %6 = tt.splat %5 : (i32) -> tensor<1x2048xi32>
    %7 = tt.splat %arg2 : (!tt.ptr<bf16, 1>) -> tensor<1x2048x!tt.ptr<bf16, 1>>
    %8 = tt.splat %1 : (i1) -> tensor<1x2048xi1>
    %9 = scf.for %arg13 = %c0_i32 to %c2304_i32 step %c2048_i32 iter_args(%arg14 = %cst_5) -> (tensor<1x2048xf32>)  : i32 {
      %46 = tt.splat %arg13 : (i32) -> tensor<1x2048xi32>
      %47 = arith.addi %46, %4 : tensor<1x2048xi32>
      %48 = arith.cmpi slt, %47, %cst_4 : tensor<1x2048xi32>
      %49 = arith.addi %47, %6 : tensor<1x2048xi32>
      %50 = tt.addptr %7, %49 : tensor<1x2048x!tt.ptr<bf16, 1>>, tensor<1x2048xi32>
      %51 = arith.andi %48, %8 : tensor<1x2048xi1>
      %52 = tt.load %50, %51, %cst {cache = 1 : i32, evict = 3 : i32, isVolatile = false} : tensor<1x2048xbf16>
      %53 = arith.extf %52 : tensor<1x2048xbf16> to tensor<1x2048xf32>
      %54 = arith.mulf %53, %53 : tensor<1x2048xf32>
      %55 = arith.addf %arg14, %54 : tensor<1x2048xf32>
      %56 = arith.select %51, %55, %arg14 : tensor<1x2048xi1>, tensor<1x2048xf32>
      scf.yield %56 : tensor<1x2048xf32>
    }
    %10 = "tt.reduce"(%9) <{axis = 1 : i32}> ({
    ^bb0(%arg13: f32, %arg14: f32):
      %46 = arith.addf %arg13, %arg14 : f32
      tt.reduce.return %46 : f32
    }) : (tensor<1x2048xf32>) -> tensor<1xf32>
    %11 = tt.expand_dims %10 {axis = 1 : i32} : (tensor<1xf32>) -> tensor<1x1xf32>
    %12 = arith.divf %11, %cst_3 : tensor<1x1xf32>
    %13 = arith.addf %12, %cst_2 : tensor<1x1xf32>
    %14 = tt.extern_elementwise %13 {libname = "libdevice", libpath = "/home/zeus/miniconda3/envs/cloudspace/lib/python3.10/site-packages/triton/language/../third_party/cuda/lib/libdevice.10.bc", pure = true, symbol = "__nv_rsqrtf"} : (tensor<1x1xf32>) -> tensor<1x1xf32>
    gpu.barrier
    %15 = tt.addptr %arg0, %0 : !tt.ptr<f32, 1>, i32
    %16 = tt.splat %15 : (!tt.ptr<f32, 1>) -> tensor<1x1x!tt.ptr<f32, 1>>
    tt.store %16, %14, %2 {cache = 1 : i32, evict = 1 : i32} : tensor<1x1xf32>
    %17 = tt.addptr %arg5, %0 : !tt.ptr<f32, 1>, i32
    %18 = tt.splat %17 : (!tt.ptr<f32, 1>) -> tensor<1x1x!tt.ptr<f32, 1>>
    %19 = tt.load %18, %2 {cache = 1 : i32, evict = 3 : i32, isVolatile = false} : tensor<1x1xf32>
    %20 = arith.muli %0, %c2304_i32 : i32
    %21 = tt.splat %20 : (i32) -> tensor<1x2048xi32>
    %22 = tt.splat %arg2 : (!tt.ptr<bf16, 1>) -> tensor<1x2048x!tt.ptr<bf16, 1>>
    %23 = tt.splat %1 : (i1) -> tensor<1x2048xi1>
    %24 = tt.splat %arg3 : (!tt.ptr<f32, 1>) -> tensor<1x2048x!tt.ptr<f32, 1>>
    %25 = tt.splat %arg4 : (!tt.ptr<bf16, 1>) -> tensor<1x2048x!tt.ptr<bf16, 1>>
    %26 = tt.splat %arg6 : (!tt.ptr<f32, 1>) -> tensor<1x2048x!tt.ptr<f32, 1>>
    %27 = tt.splat %arg7 : (!tt.ptr<f32, 1>) -> tensor<1x2048x!tt.ptr<f32, 1>>
    %28 = tt.broadcast %14 : (tensor<1x1xf32>) -> tensor<1x2048xf32>
    %29 = tt.broadcast %19 : (tensor<1x1xf32>) -> tensor<1x2048xf32>
    %30 = tt.splat %arg9 : (!tt.ptr<f32, 1>) -> tensor<1x2048x!tt.ptr<f32, 1>>
    %31 = scf.for %arg13 = %c0_i32 to %c2304_i32 step %c2048_i32 iter_args(%arg14 = %cst_5) -> (tensor<1x2048xf32>)  : i32 {
      %46 = tt.splat %arg13 : (i32) -> tensor<1x2048xi32>
      %47 = arith.addi %46, %4 : tensor<1x2048xi32>
      %48 = arith.cmpi slt, %47, %cst_4 : tensor<1x2048xi32>
      %49 = arith.addi %47, %21 : tensor<1x2048xi32>
      %50 = tt.addptr %22, %49 : tensor<1x2048x!tt.ptr<bf16, 1>>, tensor<1x2048xi32>
      %51 = arith.andi %48, %23 : tensor<1x2048xi1>
      %52 = tt.load %50, %51, %cst {cache = 1 : i32, evict = 2 : i32, isVolatile = false} : tensor<1x2048xbf16>
      %53 = arith.extf %52 : tensor<1x2048xbf16> to tensor<1x2048xf32>
      %54 = tt.addptr %24, %47 : tensor<1x2048x!tt.ptr<f32, 1>>, tensor<1x2048xi32>
      %55 = tt.load %54, %48, %cst_5 {cache = 1 : i32, evict = 3 : i32, isVolatile = false} : tensor<1x2048xf32>
      %56 = tt.addptr %25, %49 : tensor<1x2048x!tt.ptr<bf16, 1>>, tensor<1x2048xi32>
      %57 = tt.load %56, %51, %cst {cache = 1 : i32, evict = 2 : i32, isVolatile = false} : tensor<1x2048xbf16>
      %58 = arith.extf %57 : tensor<1x2048xbf16> to tensor<1x2048xf32>
      %59 = tt.addptr %26, %47 : tensor<1x2048x!tt.ptr<f32, 1>>, tensor<1x2048xi32>
      %60 = tt.load %59, %48, %cst_5 {cache = 1 : i32, evict = 3 : i32, isVolatile = false} : tensor<1x2048xf32>
      %61 = tt.addptr %27, %49 : tensor<1x2048x!tt.ptr<f32, 1>>, tensor<1x2048xi32>
      %62 = tt.load %61, %51, %cst_5 {cache = 1 : i32, evict = 2 : i32, isVolatile = false} : tensor<1x2048xf32>
      %63 = arith.mulf %53, %28 : tensor<1x2048xf32>
      %64 = arith.addf %55, %cst_1 : tensor<1x2048xf32>
      %65 = arith.mulf %63, %64 : tensor<1x2048xf32>
      %66 = arith.mulf %58, %29 : tensor<1x2048xf32>
      %67 = arith.addf %60, %cst_1 : tensor<1x2048xf32>
      %68 = arith.mulf %66, %67 : tensor<1x2048xf32>
      %69 = arith.mulf %62, %cst_0 : tensor<1x2048xf32>
      %70 = arith.addf %68, %69 : tensor<1x2048xf32>
      %71 = arith.addf %65, %70 : tensor<1x2048xf32>
      %72 = arith.mulf %71, %71 : tensor<1x2048xf32>
      %73 = arith.addf %arg14, %72 : tensor<1x2048xf32>
      %74 = arith.select %51, %73, %arg14 : tensor<1x2048xi1>, tensor<1x2048xf32>
      %75 = tt.addptr %30, %49 : tensor<1x2048x!tt.ptr<f32, 1>>, tensor<1x2048xi32>
      tt.store %75, %71, %51 {cache = 1 : i32, evict = 1 : i32} : tensor<1x2048xf32>
      scf.yield %74 : tensor<1x2048xf32>
    }
    %32 = "tt.reduce"(%31) <{axis = 1 : i32}> ({
    ^bb0(%arg13: f32, %arg14: f32):
      %46 = arith.addf %arg13, %arg14 : f32
      tt.reduce.return %46 : f32
    }) : (tensor<1x2048xf32>) -> tensor<1xf32>
    %33 = tt.expand_dims %32 {axis = 1 : i32} : (tensor<1xf32>) -> tensor<1x1xf32>
    %34 = arith.divf %33, %cst_3 : tensor<1x1xf32>
    %35 = arith.addf %34, %cst_2 : tensor<1x1xf32>
    %36 = tt.extern_elementwise %35 {libname = "libdevice", libpath = "/home/zeus/miniconda3/envs/cloudspace/lib/python3.10/site-packages/triton/language/../third_party/cuda/lib/libdevice.10.bc", pure = true, symbol = "__nv_rsqrtf"} : (tensor<1x1xf32>) -> tensor<1x1xf32>
    gpu.barrier
    %37 = tt.addptr %arg1, %0 : !tt.ptr<f32, 1>, i32
    %38 = tt.splat %37 : (!tt.ptr<f32, 1>) -> tensor<1x1x!tt.ptr<f32, 1>>
    tt.store %38, %36, %2 {cache = 1 : i32, evict = 1 : i32} : tensor<1x1xf32>
    %39 = arith.muli %0, %c2304_i32 : i32
    %40 = tt.splat %39 : (i32) -> tensor<1x2048xi32>
    %41 = tt.splat %arg9 : (!tt.ptr<f32, 1>) -> tensor<1x2048x!tt.ptr<f32, 1>>
    %42 = tt.splat %1 : (i1) -> tensor<1x2048xi1>
    %43 = tt.splat %arg8 : (!tt.ptr<f32, 1>) -> tensor<1x2048x!tt.ptr<f32, 1>>
    %44 = tt.broadcast %36 : (tensor<1x1xf32>) -> tensor<1x2048xf32>
    %45 = tt.splat %arg10 : (!tt.ptr<bf16, 1>) -> tensor<1x2048x!tt.ptr<bf16, 1>>
    scf.for %arg13 = %c0_i32 to %c2304_i32 step %c2048_i32  : i32 {
      %46 = tt.splat %arg13 : (i32) -> tensor<1x2048xi32>
      %47 = arith.addi %46, %4 : tensor<1x2048xi32>
      %48 = arith.cmpi slt, %47, %cst_4 : tensor<1x2048xi32>
      %49 = arith.addi %47, %40 : tensor<1x2048xi32>
      %50 = tt.addptr %41, %49 : tensor<1x2048x!tt.ptr<f32, 1>>, tensor<1x2048xi32>
      %51 = arith.andi %48, %42 : tensor<1x2048xi1>
      %52 = tt.load %50, %51, %cst_5 {cache = 1 : i32, evict = 2 : i32, isVolatile = false} : tensor<1x2048xf32>
      %53 = tt.addptr %43, %47 : tensor<1x2048x!tt.ptr<f32, 1>>, tensor<1x2048xi32>
      %54 = tt.load %53, %48, %cst_5 {cache = 1 : i32, evict = 3 : i32, isVolatile = false} : tensor<1x2048xf32>
      %55 = arith.mulf %52, %44 : tensor<1x2048xf32>
      %56 = arith.addf %54, %cst_1 : tensor<1x2048xf32>
      %57 = arith.mulf %55, %56 : tensor<1x2048xf32>
      %58 = tt.addptr %45, %49 : tensor<1x2048x!tt.ptr<bf16, 1>>, tensor<1x2048xi32>
      %59 = arith.truncf %57 : tensor<1x2048xf32> to tensor<1x2048xbf16>
      tt.store %58, %59, %51 {cache = 1 : i32, evict = 1 : i32} : tensor<1x2048xbf16>
    }
    tt.return
  }
}
