module {
  tt.func public @triton__0d1d2d3d4d5de(%arg0: !tt.ptr<bf16, 1> {tt.divisibility = 16 : i32}, %arg1: !tt.ptr<f32, 1> {tt.divisibility = 16 : i32}, %arg2: !tt.ptr<f32, 1> {tt.divisibility = 16 : i32}, %arg3: !tt.ptr<bf16, 1> {tt.divisibility = 16 : i32}, %arg4: !tt.ptr<bf16, 1> {tt.divisibility = 16 : i32}, %arg5: i64 {tt.divisibility = 16 : i32, tt.max_divisibility = 16 : i32}) attributes {noinline = false} {
    %cst = arith.constant dense<0.000000e+00> : tensor<1024xbf16>
    %cst_0 = arith.constant dense<67108864> : tensor<1024xi64>
    %cst_1 = arith.constant dense<8192> : tensor<1024xi64>
    %cst_2 = arith.constant dense<1024> : tensor<1024xi64>
    %cst_3 = arith.constant dense<2> : tensor<1024xi64>
    %cst_4 = arith.constant dense<512> : tensor<1024xi64>
    %cst_5 = arith.constant dense<384> : tensor<1024xi64>
    %cst_6 = arith.constant dense<640> : tensor<1024xi64>
    %cst_7 = arith.constant dense<256> : tensor<1024xi64>
    %cst_8 = arith.constant dense<-128> : tensor<1024xi64>
    %cst_9 = arith.constant dense<128> : tensor<1024xi64>
    %cst_10 = arith.constant dense<2097152> : tensor<1024xi64>
    %cst_11 = arith.constant dense<33554432> : tensor<1024xi64>
    %cst_12 = arith.constant dense<16> : tensor<1024xi64>
    %c1024_i64 = arith.constant 1024 : i64
    %cst_13 = arith.constant dense<0.000000e+00> : tensor<1024xf32>
    %0 = tt.get_program_id x : i32
    %1 = arith.extsi %0 : i32 to i64
    %2 = arith.muli %1, %c1024_i64 : i64
    %3 = tt.make_range {end = 1024 : i32, start = 0 : i32} : tensor<1024xi32>
    %4 = arith.extsi %3 : tensor<1024xi32> to tensor<1024xi64>
    %5 = tt.splat %2 : (i64) -> tensor<1024xi64>
    %6 = arith.addi %5, %4 : tensor<1024xi64>
    %7 = arith.remsi %6, %cst_7 : tensor<1024xi64>
    %8 = arith.divsi %6, %cst_7 : tensor<1024xi64>
    %9 = arith.remsi %8, %cst_1 : tensor<1024xi64>
    %10 = arith.divsi %6, %cst_10 : tensor<1024xi64>
    %11 = arith.remsi %10, %cst_12 : tensor<1024xi64>
    %12 = arith.divsi %6, %cst_11 : tensor<1024xi64>
    %13 = arith.remsi %6, %cst_10 : tensor<1024xi64>
    %14 = arith.cmpi slt, %7, %cst_7 : tensor<1024xi64>
    %15 = arith.remsi %11, %cst_3 : tensor<1024xi64>
    %16 = arith.muli %15, %cst_7 : tensor<1024xi64>
    %17 = arith.addi %7, %16 : tensor<1024xi64>
    %18 = arith.divsi %11, %cst_3 : tensor<1024xi64>
    %19 = arith.muli %18, %cst_2 : tensor<1024xi64>
    %20 = arith.addi %17, %19 : tensor<1024xi64>
    %21 = arith.muli %9, %cst_1 : tensor<1024xi64>
    %22 = arith.addi %20, %21 : tensor<1024xi64>
    %23 = arith.muli %12, %cst_0 : tensor<1024xi64>
    %24 = arith.addi %22, %23 : tensor<1024xi64>
    %25 = tt.splat %arg0 : (!tt.ptr<bf16, 1>) -> tensor<1024x!tt.ptr<bf16, 1>>
    %26 = tt.addptr %25, %24 : tensor<1024x!tt.ptr<bf16, 1>>, tensor<1024xi64>
    %27 = tt.load %26, %14, %cst {cache = 1 : i32, evict = 1 : i32, isVolatile = false} : tensor<1024xbf16>
    %28 = arith.extf %27 : tensor<1024xbf16> to tensor<1024xf32>
    %29 = tt.splat %arg1 : (!tt.ptr<f32, 1>) -> tensor<1024x!tt.ptr<f32, 1>>
    %30 = tt.addptr %29, %13 : tensor<1024x!tt.ptr<f32, 1>>, tensor<1024xi64>
    %31 = tt.load %30, %14, %cst_13 {cache = 1 : i32, evict = 3 : i32, isVolatile = false} : tensor<1024xf32>
    %32 = arith.mulf %28, %31 : tensor<1024xf32>
    %33 = arith.cmpi slt, %7, %cst_9 : tensor<1024xi64>
    %34 = arith.andi %33, %14 : tensor<1024xi1>
    %35 = arith.addi %7, %cst_9 : tensor<1024xi64>
    %36 = arith.addi %35, %16 : tensor<1024xi64>
    %37 = arith.addi %36, %19 : tensor<1024xi64>
    %38 = arith.addi %37, %21 : tensor<1024xi64>
    %39 = arith.addi %38, %23 : tensor<1024xi64>
    %40 = tt.addptr %25, %39 : tensor<1024x!tt.ptr<bf16, 1>>, tensor<1024xi64>
    %41 = tt.load %40, %34, %cst {cache = 1 : i32, evict = 1 : i32, isVolatile = false} : tensor<1024xbf16>
    %42 = arith.extf %41 : tensor<1024xbf16> to tensor<1024xf32>
    %43 = arith.subf %cst_13, %42 : tensor<1024xf32>
    %44 = arith.select %34, %43, %cst_13 : tensor<1024xi1>, tensor<1024xf32>
    %45 = arith.cmpi sge, %7, %cst_9 : tensor<1024xi64>
    %46 = arith.andi %45, %14 : tensor<1024xi1>
    %47 = arith.addi %7, %cst_8 : tensor<1024xi64>
    %48 = arith.addi %47, %16 : tensor<1024xi64>
    %49 = arith.addi %48, %19 : tensor<1024xi64>
    %50 = arith.addi %49, %21 : tensor<1024xi64>
    %51 = arith.addi %50, %23 : tensor<1024xi64>
    %52 = tt.addptr %25, %51 : tensor<1024x!tt.ptr<bf16, 1>>, tensor<1024xi64>
    %53 = tt.load %52, %46, %cst {cache = 1 : i32, evict = 1 : i32, isVolatile = false} : tensor<1024xbf16>
    %54 = arith.extf %53 : tensor<1024xbf16> to tensor<1024xf32>
    %55 = arith.select %46, %54, %cst_13 : tensor<1024xi1>, tensor<1024xf32>
    %56 = arith.select %33, %44, %55 : tensor<1024xi1>, tensor<1024xf32>
    %57 = tt.splat %arg2 : (!tt.ptr<f32, 1>) -> tensor<1024x!tt.ptr<f32, 1>>
    %58 = tt.addptr %57, %13 : tensor<1024x!tt.ptr<f32, 1>>, tensor<1024xi64>
    %59 = tt.load %58, %14, %cst_13 {cache = 1 : i32, evict = 3 : i32, isVolatile = false} : tensor<1024xf32>
    %60 = arith.mulf %56, %59 : tensor<1024xf32>
    %61 = arith.addf %32, %60 : tensor<1024xf32>
    %62 = arith.cmpi sge, %7, %cst_7 : tensor<1024xi64>
    %63 = tt.load %26, %62, %cst {cache = 1 : i32, evict = 1 : i32, isVolatile = false} : tensor<1024xbf16>
    %64 = arith.extf %63 : tensor<1024xbf16> to tensor<1024xf32>
    %65 = arith.select %62, %64, %cst_13 : tensor<1024xi1>, tensor<1024xf32>
    %66 = arith.select %14, %61, %65 : tensor<1024xi1>, tensor<1024xf32>
    %67 = arith.addi %7, %cst_4 : tensor<1024xi64>
    %68 = arith.addi %67, %19 : tensor<1024xi64>
    %69 = arith.addi %68, %21 : tensor<1024xi64>
    %70 = arith.addi %69, %23 : tensor<1024xi64>
    %71 = tt.addptr %25, %70 : tensor<1024x!tt.ptr<bf16, 1>>, tensor<1024xi64>
    %72 = tt.load %71, %14, %cst {cache = 1 : i32, evict = 1 : i32, isVolatile = false} : tensor<1024xbf16>
    %73 = arith.extf %72 : tensor<1024xbf16> to tensor<1024xf32>
    %74 = arith.mulf %73, %31 : tensor<1024xf32>
    %75 = arith.addi %7, %cst_6 : tensor<1024xi64>
    %76 = arith.addi %75, %19 : tensor<1024xi64>
    %77 = arith.addi %76, %21 : tensor<1024xi64>
    %78 = arith.addi %77, %23 : tensor<1024xi64>
    %79 = tt.addptr %25, %78 : tensor<1024x!tt.ptr<bf16, 1>>, tensor<1024xi64>
    %80 = tt.load %79, %34, %cst {cache = 1 : i32, evict = 1 : i32, isVolatile = false} : tensor<1024xbf16>
    %81 = arith.extf %80 : tensor<1024xbf16> to tensor<1024xf32>
    %82 = arith.subf %cst_13, %81 : tensor<1024xf32>
    %83 = arith.select %34, %82, %cst_13 : tensor<1024xi1>, tensor<1024xf32>
    %84 = arith.addi %7, %cst_5 : tensor<1024xi64>
    %85 = arith.addi %84, %19 : tensor<1024xi64>
    %86 = arith.addi %85, %21 : tensor<1024xi64>
    %87 = arith.addi %86, %23 : tensor<1024xi64>
    %88 = tt.addptr %25, %87 : tensor<1024x!tt.ptr<bf16, 1>>, tensor<1024xi64>
    %89 = tt.load %88, %46, %cst {cache = 1 : i32, evict = 1 : i32, isVolatile = false} : tensor<1024xbf16>
    %90 = arith.extf %89 : tensor<1024xbf16> to tensor<1024xf32>
    %91 = arith.select %46, %90, %cst_13 : tensor<1024xi1>, tensor<1024xf32>
    %92 = arith.select %33, %83, %91 : tensor<1024xi1>, tensor<1024xf32>
    %93 = arith.mulf %92, %59 : tensor<1024xf32>
    %94 = arith.addf %74, %93 : tensor<1024xf32>
    %95 = tt.load %71, %62, %cst {cache = 1 : i32, evict = 1 : i32, isVolatile = false} : tensor<1024xbf16>
    %96 = arith.extf %95 : tensor<1024xbf16> to tensor<1024xf32>
    %97 = arith.select %62, %96, %cst_13 : tensor<1024xi1>, tensor<1024xf32>
    %98 = arith.select %14, %94, %97 : tensor<1024xi1>, tensor<1024xf32>
    %99 = tt.splat %arg3 : (!tt.ptr<bf16, 1>) -> tensor<1024x!tt.ptr<bf16, 1>>
    %100 = tt.addptr %99, %6 : tensor<1024x!tt.ptr<bf16, 1>>, tensor<1024xi64>
    %101 = arith.truncf %66 : tensor<1024xf32> to tensor<1024xbf16>
    tt.store %100, %101 {cache = 1 : i32, evict = 1 : i32} : tensor<1024xbf16>
    %102 = tt.splat %arg4 : (!tt.ptr<bf16, 1>) -> tensor<1024x!tt.ptr<bf16, 1>>
    %103 = tt.addptr %102, %6 : tensor<1024x!tt.ptr<bf16, 1>>, tensor<1024xi64>
    %104 = arith.truncf %98 : tensor<1024xf32> to tensor<1024xbf16>
    tt.store %103, %104 {cache = 1 : i32, evict = 1 : i32} : tensor<1024xbf16>
    tt.return
  }
}
