module {
  tt.func public @triton__0d1d2de(%arg0: !tt.ptr<bf16, 1> {tt.divisibility = 16 : i32}, %arg1: !tt.ptr<bf16, 1> {tt.divisibility = 16 : i32}, %arg2: i32 {tt.divisibility = 16 : i32, tt.max_divisibility = 16 : i32}) attributes {noinline = false} {
    %cst = arith.constant dense<67108864> : tensor<512xi32>
    %cst_0 = arith.constant dense<1024> : tensor<512xi32>
    %cst_1 = arith.constant dense<768> : tensor<512xi32>
    %cst_2 = arith.constant dense<33554432> : tensor<512xi32>
    %cst_3 = arith.constant dense<8> : tensor<512xi32>
    %cst_4 = arith.constant dense<4194304> : tensor<512xi32>
    %cst_5 = arith.constant dense<8192> : tensor<512xi32>
    %cst_6 = arith.constant dense<256> : tensor<512xi32>
    %c512_i32 = arith.constant 512 : i32
    %0 = tt.get_program_id x : i32
    %1 = arith.muli %0, %c512_i32 : i32
    %2 = tt.make_range {end = 512 : i32, start = 0 : i32} : tensor<512xi32>
    %3 = tt.splat %1 : (i32) -> tensor<512xi32>
    %4 = arith.addi %3, %2 : tensor<512xi32>
    %5 = arith.remsi %4, %cst_6 : tensor<512xi32>
    %6 = arith.divsi %4, %cst_6 : tensor<512xi32>
    %7 = arith.remsi %6, %cst_5 : tensor<512xi32>
    %8 = arith.divsi %4, %cst_4 : tensor<512xi32>
    %9 = arith.remsi %8, %cst_3 : tensor<512xi32>
    %10 = arith.divsi %4, %cst_2 : tensor<512xi32>
    %11 = arith.addi %5, %cst_1 : tensor<512xi32>
    %12 = arith.muli %9, %cst_0 : tensor<512xi32>
    %13 = arith.addi %11, %12 : tensor<512xi32>
    %14 = arith.muli %7, %cst_5 : tensor<512xi32>
    %15 = arith.addi %13, %14 : tensor<512xi32>
    %16 = arith.muli %10, %cst : tensor<512xi32>
    %17 = arith.addi %15, %16 : tensor<512xi32>
    %18 = tt.splat %arg0 : (!tt.ptr<bf16, 1>) -> tensor<512x!tt.ptr<bf16, 1>>
    %19 = tt.addptr %18, %17 : tensor<512x!tt.ptr<bf16, 1>>, tensor<512xi32>
    %20 = tt.load %19 {cache = 1 : i32, evict = 3 : i32, isVolatile = false} : tensor<512xbf16>
    %21 = arith.extf %20 : tensor<512xbf16> to tensor<512xf32>
    %22 = tt.splat %arg1 : (!tt.ptr<bf16, 1>) -> tensor<512x!tt.ptr<bf16, 1>>
    %23 = tt.addptr %22, %4 : tensor<512x!tt.ptr<bf16, 1>>, tensor<512xi32>
    %24 = arith.truncf %21 : tensor<512xf32> to tensor<512xbf16>
    tt.store %23, %24 {cache = 1 : i32, evict = 1 : i32} : tensor<512xbf16>
    tt.return
  }
}
