module {
  tt.func public @triton__0d1d2d3de4de(%arg0: !tt.ptr<f32, 1> {tt.divisibility = 16 : i32}, %arg1: !tt.ptr<f32, 1> {tt.divisibility = 16 : i32}, %arg2: !tt.ptr<f32, 1> {tt.divisibility = 16 : i32}, %arg3: i32 {tt.divisibility = 16 : i32, tt.max_divisibility = 16 : i32}, %arg4: i32 {tt.divisibility = 16 : i32, tt.max_divisibility = 16 : i32}) attributes {noinline = false} {
    %c512_i32 = arith.constant 512 : i32
    %c2304_i32 = arith.constant 2304 : i32
    %c2048_i32 = arith.constant 2048 : i32
    %c0_i32 = arith.constant 0 : i32
    %cst = arith.constant dense<1.000000e+00> : tensor<1x2048xf32>
    %cst_0 = arith.constant dense<9.99999974E-6> : tensor<1x1xf32>
    %cst_1 = arith.constant dense<2.304000e+03> : tensor<1x1xf32>
    %cst_2 = arith.constant dense<2304> : tensor<1x2048xi32>
    %cst_3 = arith.constant dense<0.000000e+00> : tensor<1x2048xf32>
    %0 = tt.get_program_id x : i32
    %1 = arith.cmpi slt, %0, %c512_i32 : i32
    %2 = tt.make_range {end = 2048 : i32, start = 0 : i32} : tensor<2048xi32>
    %3 = tt.expand_dims %2 {axis = 0 : i32} : (tensor<2048xi32>) -> tensor<1x2048xi32>
    %4 = arith.muli %0, %c2304_i32 : i32
    %5 = tt.splat %4 : (i32) -> tensor<1x2048xi32>
    %6 = tt.splat %arg0 : (!tt.ptr<f32, 1>) -> tensor<1x2048x!tt.ptr<f32, 1>>
    %7 = tt.splat %1 : (i1) -> tensor<1x2048xi1>
    %8 = scf.for %arg5 = %c0_i32 to %c2304_i32 step %c2048_i32 iter_args(%arg6 = %cst_3) -> (tensor<1x2048xf32>)  : i32 {
      %19 = tt.splat %arg5 : (i32) -> tensor<1x2048xi32>
      %20 = arith.addi %19, %3 : tensor<1x2048xi32>
      %21 = arith.cmpi slt, %20, %cst_2 : tensor<1x2048xi32>
      %22 = arith.addi %20, %5 : tensor<1x2048xi32>
      %23 = tt.addptr %6, %22 : tensor<1x2048x!tt.ptr<f32, 1>>, tensor<1x2048xi32>
      %24 = arith.andi %21, %7 : tensor<1x2048xi1>
      %25 = tt.load %23, %24, %cst_3 {cache = 1 : i32, evict = 3 : i32, isVolatile = false} : tensor<1x2048xf32>
      %26 = arith.mulf %25, %25 : tensor<1x2048xf32>
      %27 = arith.addf %arg6, %26 : tensor<1x2048xf32>
      %28 = arith.select %24, %27, %arg6 : tensor<1x2048xi1>, tensor<1x2048xf32>
      scf.yield %28 : tensor<1x2048xf32>
    }
    %9 = "tt.reduce"(%8) <{axis = 1 : i32}> ({
    ^bb0(%arg5: f32, %arg6: f32):
      %19 = arith.addf %arg5, %arg6 : f32
      tt.reduce.return %19 : f32
    }) : (tensor<1x2048xf32>) -> tensor<1xf32>
    %10 = tt.expand_dims %9 {axis = 1 : i32} : (tensor<1xf32>) -> tensor<1x1xf32>
    %11 = arith.muli %0, %c2304_i32 : i32
    %12 = tt.splat %11 : (i32) -> tensor<1x2048xi32>
    %13 = tt.splat %arg0 : (!tt.ptr<f32, 1>) -> tensor<1x2048x!tt.ptr<f32, 1>>
    %14 = tt.splat %1 : (i1) -> tensor<1x2048xi1>
    %15 = tt.splat %arg1 : (!tt.ptr<f32, 1>) -> tensor<1x2048x!tt.ptr<f32, 1>>
    %16 = arith.divf %10, %cst_1 : tensor<1x1xf32>
    %17 = arith.addf %16, %cst_0 : tensor<1x1xf32>
    %18 = tt.splat %arg2 : (!tt.ptr<f32, 1>) -> tensor<1x2048x!tt.ptr<f32, 1>>
    scf.for %arg5 = %c0_i32 to %c2304_i32 step %c2048_i32  : i32 {
      %19 = tt.splat %arg5 : (i32) -> tensor<1x2048xi32>
      %20 = arith.addi %19, %3 : tensor<1x2048xi32>
      %21 = arith.cmpi slt, %20, %cst_2 : tensor<1x2048xi32>
      %22 = arith.addi %20, %12 : tensor<1x2048xi32>
      %23 = tt.addptr %13, %22 : tensor<1x2048x!tt.ptr<f32, 1>>, tensor<1x2048xi32>
      %24 = arith.andi %21, %14 : tensor<1x2048xi1>
      %25 = tt.load %23, %24, %cst_3 {cache = 1 : i32, evict = 2 : i32, isVolatile = false} : tensor<1x2048xf32>
      %26 = tt.addptr %15, %20 : tensor<1x2048x!tt.ptr<f32, 1>>, tensor<1x2048xi32>
      %27 = tt.load %26, %21, %cst_3 {cache = 1 : i32, evict = 3 : i32, isVolatile = false} : tensor<1x2048xf32>
      %28 = tt.extern_elementwise %17 {libname = "libdevice", libpath = "/home/zeus/miniconda3/envs/cloudspace/lib/python3.10/site-packages/triton/language/../third_party/cuda/lib/libdevice.10.bc", pure = true, symbol = "__nv_rsqrtf"} : (tensor<1x1xf32>) -> tensor<1x1xf32>
      %29 = tt.broadcast %28 : (tensor<1x1xf32>) -> tensor<1x2048xf32>
      %30 = arith.mulf %25, %29 : tensor<1x2048xf32>
      %31 = arith.addf %27, %cst : tensor<1x2048xf32>
      %32 = arith.mulf %30, %31 : tensor<1x2048xf32>
      %33 = tt.addptr %18, %22 : tensor<1x2048x!tt.ptr<f32, 1>>, tensor<1x2048xi32>
      tt.store %33, %32, %24 {cache = 1 : i32, evict = 1 : i32} : tensor<1x2048xf32>
    }
    tt.return
  }
}
