module {
  tt.func public @triton__0d1d2d3d4de(%arg0: !tt.ptr<bf16, 1> {tt.divisibility = 16 : i32}, %arg1: !tt.ptr<f32, 1> {tt.divisibility = 16 : i32}, %arg2: !tt.ptr<f32, 1> {tt.divisibility = 16 : i32}, %arg3: !tt.ptr<bf16, 1> {tt.divisibility = 16 : i32}, %arg4: i32 {tt.divisibility = 16 : i32, tt.max_divisibility = 16 : i32}) attributes {noinline = false} {
    %cst = arith.constant dense<6.250000e-02> : tensor<128xf32>
    %cst_0 = arith.constant dense<1.000000e+00> : tensor<128xf32>
    %cst_1 = arith.constant dense<5.000000e+01> : tensor<128xf32>
    %cst_2 = arith.constant dense<4> : tensor<128xi32>
    %cst_3 = arith.constant dense<128> : tensor<128xi32>
    %c128_i32 = arith.constant 128 : i32
    %0 = tt.get_program_id x : i32
    %1 = arith.muli %0, %c128_i32 : i32
    %2 = tt.make_range {end = 128 : i32, start = 0 : i32} : tensor<128xi32>
    %3 = tt.splat %1 : (i32) -> tensor<128xi32>
    %4 = arith.addi %3, %2 : tensor<128xi32>
    %5 = arith.cmpi slt, %4, %cst_3 : tensor<128xi32>
    %6 = arith.divsi %4, %cst_2 : tensor<128xi32>
    %7 = tt.splat %arg0 : (!tt.ptr<bf16, 1>) -> tensor<128x!tt.ptr<bf16, 1>>
    %8 = tt.addptr %7, %4 : tensor<128x!tt.ptr<bf16, 1>>, tensor<128xi32>
    %9 = tt.load %8, %5 {cache = 1 : i32, evict = 1 : i32, isVolatile = false} : tensor<128xbf16>
    %10 = arith.extf %9 : tensor<128xbf16> to tensor<128xf32>
    %11 = tt.splat %arg1 : (!tt.ptr<f32, 1>) -> tensor<128x!tt.ptr<f32, 1>>
    %12 = tt.addptr %11, %4 : tensor<128x!tt.ptr<f32, 1>>, tensor<128xi32>
    %13 = tt.load %12, %5 {cache = 1 : i32, evict = 1 : i32, isVolatile = false} : tensor<128xf32>
    %14 = tt.splat %arg2 : (!tt.ptr<f32, 1>) -> tensor<128x!tt.ptr<f32, 1>>
    %15 = tt.addptr %14, %6 : tensor<128x!tt.ptr<f32, 1>>, tensor<128xi32>
    %16 = tt.load %15, %5 {cache = 1 : i32, evict = 3 : i32, isVolatile = false} : tensor<128xf32>
    %17 = tt.splat %arg3 : (!tt.ptr<bf16, 1>) -> tensor<128x!tt.ptr<bf16, 1>>
    %18 = tt.addptr %17, %4 : tensor<128x!tt.ptr<bf16, 1>>, tensor<128xi32>
    %19 = tt.load %18, %5 {cache = 1 : i32, evict = 1 : i32, isVolatile = false} : tensor<128xbf16>
    %20 = arith.extf %19 : tensor<128xbf16> to tensor<128xf32>
    %21 = arith.mulf %10, %13 : tensor<128xf32>
    %22 = arith.mulf %13, %16 : tensor<128xf32>
    %23 = arith.subf %21, %22 : tensor<128xf32>
    %24 = arith.mulf %23, %cst_1 : tensor<128xf32>
    %25 = arith.mulf %20, %20 : tensor<128xf32>
    %26 = arith.subf %cst_0, %25 : tensor<128xf32>
    %27 = arith.mulf %24, %26 : tensor<128xf32>
    %28 = arith.divf %27, %cst_1 : tensor<128xf32>
    %29 = arith.mulf %28, %cst : tensor<128xf32>
    %30 = arith.truncf %29 : tensor<128xf32> to tensor<128xbf16>
    tt.store %8, %30, %5 {cache = 1 : i32, evict = 1 : i32} : tensor<128xbf16>
    tt.return
  }
}
